Lunar Lander V2 Hau Zheng Yi/models/episode_50.pth (torch, 9503 bytes, 6 tensors)

fc1.weight f4 [36, 8]
0	0xbc8168ac	-0.015796982
1	0x3bb9b931	0.0056678285
2	0x3e29f5e9	0.16597714
3	0x3d9cecff	0.07662391
4	0x3f76bea7	0.9638466
5	0x3f95b431	1.1695615
6	0xbdc46868	-0.095902264
7	0x3e3425b5	0.17592509
8	0xbf7ca1a6	-0.98684156
9	0xc036c060	-2.8554916
10	0x3f9a6f36	1.2065189
11	0x3f2dca4c	0.67886806
12	0xbebf7ca9	-0.37399796
13	0x3f63ec8f	0.89032835
14	0x3cc0f3a9	0.023553686
15	0x3f3d8453	0.74030036
16	0x3ef473b0	0.47744513
17	0x3ea5a4d9	0.3235233
18	0xbfd0658d	-1.6280991
19	0xbf1203d6	-0.57037103
20	0x3f1aa7b0	0.6041212
21	0xbe6a4523	-0.22877936
22	0xbf0c96b2	-0.5491744
23	0xbf4d81c6	-0.80276144
24	0x3ec132cb	0.37734064
25	0x3f148e69	0.580298
26	0xbf50fee0	-0.8163891
27	0xbf4aec54	-0.7926686
28	0xbf30f75f	-0.6912746
29	0xbfcd609e	-1.604511
30	0xbee47c11	-0.44625905
31	0xbf84249e	-1.0323675
32	0x3da95b6c	0.082693905
33	0xbed6c451	-0.41946653
34	0xbecfdd7e	-0.40598673
35	0xbe0e6ac6	-0.13907918
36	0x3f512cdf	0.8170909
37	0x3fb2899f	1.3948249
38	0x3e8b6ac6	0.272299
39	0xbf58839e	-0.8457583
40	0x3e086e57	0.13323341
41	0x3eb0299b	0.34406742
42	0xbe9552bc	-0.29164684
43	0x3f33a7e0	0.7017803
44	0x3f188d2a	0.595904
45	0x3f866314	1.0498986
46	0x3bcc233c	0.006229786
47	0xbec075a7	-0.37589762
48	0xbeed9735	-0.46404424
49	0xbf823bd5	-1.0174509
50	0x3e282c57	0.16423164
51	0xbdbd0ccf	-0.09230959
52	0x3ea9a518	0.3313377
53	0x3f334571	0.70027834
54	0x3eb9e111	0.36304525
55	0x3f0cf7d7	0.55065674
56	0xbf3e0e3c	-0.7424047
57	0xbfa99b3f	-1.3250502
58	0xbf1338f4	-0.5750878
59	0x3cf07b1b	0.029355576
60	0x3e98151b	0.29703602
61	0x3f283a3e	0.6571387
62	0x3f254862	0.6456357
63	0x3e4979ec	0.19675416
64	0xbe8e8d75	-0.27842298
65	0x3f66a4a8	0.90094995
66	0xbf3b9363	-0.7327177
67	0xbe502365	-0.20326002
68	0xbf831e21	-1.024357
69	0xbfaed8f4	-1.3659959
70	0xbeed643c	-0.46365535
71	0x3e7eede2	0.24895433
72	0x3e77317a	0.24139968
73	0xbe881ea4	-0.26585877
74	0xbefd15d4	-0.49430716
75	0xbed617e5	-0.41815105
76	0x3ecba286	0.39772433
77	0x3fa62e38	1.2982855
78	0x3ed3a8f4	0.41339839
79	0x3e155e08	0.14586651
80	0x3e0cb730	0.13741755
81	0x3fa14a14	1.2600732
82	0xbf3adcb4	-0.72993016
83	0xbea0eceb	-0.31430754
84	0xbec0b84d	-0.3764061
85	0xbfeb3acd	-1.837732
86	0xbf8f90d6	-1.1216075
87	0xbf0b076d	-0.54308206
88	0xbed8b5a5	-0.42326084
89	0x3d17e1ab	0.037080448
90	0xbeee4680	-0.46538162
91	0x3eac505e	0.33655065
92	0x3f05c66e	0.52255905
93	0x3f557284	0.8337786
94	0x3e555cd7	0.20836197
95	0xbf6a6a3c	-0.9156835
96	0xbf041c92	-0.51606095
97	0x3b2128df	0.0024591011
98	0xbe9c0390	-0.30471468
99	0x3d902bfe	0.07039641
100	0x3f7e7f99	0.9941345
101	0x3f870a40	1.0550003
102	0x3e9b9a77	0.30391285
103	0xbf781bce	-0.96917427
104	0xbef14717	-0.4712455
105	0x3e1a11a0	0.15045786
106	0x3f13d126	0.5774101
107	0x3f3e0bd9	0.7423683
108	0xbf8ce8c3	-1.1008533
109	0xbf590eaf	-0.8478803
110	0xbcd300e0	-0.025757253
111	0x3fd4a2c6	1.6612175
112	0x3d829d1e	0.06377624
113	0x3d2a1725	0.04152598
114	0x3edf2c97	0.43588707
115	0xbf631035	-0.88696605
116	0x3f76331b	0.9617173
117	0xbeff6b93	-0.4988676
118	0x3ecc2a51	0.39876035
119	0xbfa1922f	-1.2622737
120	0x3eb16a61	0.34651473
121	0xbd9956f7	-0.0748729
122	0xbfe489f4	-1.78546
123	0xbec374d5	-0.38175073
124	0x3e8074f8	0.2508924
125	0x3f836798	1.0265989
126	0x3e7114a7	0.23543034
127	0x3f4c6250	0.7983751
128	0xbf96ab0e	-1.1770952
129	0xc0568ac6	-3.35222
130	0x3f5f4b7a	0.87224543
131	0x3dfb77db	0.1227872
132	0xbd767ec1	-0.060179476
133	0xbb7d16be	-0.0038618292
134	0x3dde7bad	0.10863433
135	0xbebd3a57	-0.36958572
136	0x3f328ab3	0.6974289
137	0xbee17628	-0.4403546
138	0x3e286b29	0.16447128
139	0xbea46c82	-0.32114035
140	0xbf6fbd4f	-0.93648237
141	0xbf802015	-1.0009791
142	0x3f0bc8d5	0.5460332
143	0x3f5c2bda	0.8600441
144	0xbd21a647	-0.039465215
145	0x3e2a8687	0.1665288
146	0xbeab6587	-0.33475897
147	0xbea26a1a	-0.31721574
148	0x3ee0e94c	0.4392799
149	0x3f153295	0.5828031
150	0xbdec9536	-0.11551897
151	0x3edf0cbc	0.43564403
152	0xbf85ec57	-1.046275
153	0xbfc3d2d1	-1.5298711
154	0xbee395f8	-0.44450355
155	0xbd9eea68	-0.07759553
156	0x3f026956	0.5094198
157	0x3e81c0e1	0.25342467
158	0x3f209838	0.6273227
159	0x3bdfb2cc	0.006826734
160	0x3ecedaa1	0.40401176
161	0xbedb0fad	-0.42785397
162	0xbe9588e0	-0.2920599
163	0x3eb8cf1c	0.36095512
164	0x3f44ee1b	0.7692582
165	0x3f9f22b6	1.2432468
166	0x3f24a987	0.6432118
167	0x3f1328e9	0.574843
168	0xbe405715	-0.18783219
169	0x3fb3b9f9	1.4041129
170	0xbe0b0090	-0.13574433
171	0xbea7db70	-0.32784605
172	0x3f7b7374	0.9822304
173	0x3fc3379a	1.5251343
174	0xbdfa55a0	-0.12223363
175	0xbf16acf5	-0.5885766
176	0xbf257b82	-0.6464158
177	0xbef9623f	-0.48707768
178	0xbebce16d	-0.36890736
179	0xbee5c08d	-0.44873467
180	0xbeb91d46	-0.36155146
181	0x3f5df4f3	0.8670189
182	0xbe6227f7	-0.22085558
183	0x3ddde914	0.10835472
184	0xbd3e42ec	-0.04645054
185	0xbed02bdc	-0.40658462
186	0x3e231d0b	0.15929048
187	0x3e1f4df9	0.15557088
188	0x3e4afc3c	0.19822782
189	0x3f7d4cbc	0.9894521
190	0x3f2c4df4	0.6730645
191	0x3fa4f50a	1.288728
192	0xbf37ad57	-0.7174887
193	0xbfc50ac7	-1.5393914
194	0x3dba0085	0.0908213
195	0xbe58e0db	-0.21179526
196	0x3f30f3b7	0.6912188
197	0x3ea0aa9d	0.31380168
198	0xbd23e53b	-0.040013533
199	0xbe3baaf7	-0.18326937
200	0xbe8a4229	-0.270036
201	0x3f939c94	1.1532159
202	0xbe95bcaa	-0.29245502
203	0xbe693fee	-0.22778293
204	0xbf58335f	-0.84453386
205	0xbf36f0d6	-0.71461236
206	0xbf9a83f5	-1.207152
207	0x3f536c3e	0.8258704
208	0xbea9e3fb	-0.33181748
209	0xbfd0ca23	-1.6311687
210	0xbe7d2b91	-0.2472365
211	0xbeae07e3	-0.33990392
212	0x3de25d92	0.11053003
213	0xbe35c238	-0.1774987
214	0xbf00c5ab	-0.5030162
215	0x3f998283	1.1992954
216	0xbe4be068	-0.19909823
217	0xbe82ba08	-0.25532556
218	0x3ce40f47	0.027839316
219	0xbba298c8	-0.0049620606
220	0x3f029b57	0.5101828
221	0x3fb09899	1.3796569
222	0x3f267fa2	0.650385
223	0x3ef48166	0.47754973
224	0xbd66db86	-0.056361698
225	0xbd6b9583	-0.057515632
226	0x3dfcd708	0.123457015
227	0x3eb9751a	0.36222154
228	0x3e3bd611	0.18343379
229	0x3f8ae8bc	1.0852275
230	0x3f1f8f87	0.6232838
231	0x3f88b839	1.068122
232	0xbf2380ad	-0.6386822
233	0xbf829617	-1.0202054
234	0xbee31fe4	-0.44360268
235	0xbd1ae419	-0.037815187
236	0x3df5839f	0.11987995
237	0x3e9239b6	0.28559655
238	0x3e50c631	0.20388104
239	0x3f81476f	1.0099925
240	0xbf6abbad	-0.9169262
241	0xc01812b4	-2.3761415
242	0xbd95997b	-0.07304665
243	0x3f7724a3	0.9654028
244	0xbf00c53f	-0.50300974
245	0x3f075210	0.5285959
246	0xbe4f7640	-0.20259953
247	0x3f41c64d	0.7569321
248	0xbe4c4901	-0.19949724
249	0xbf787732	-0.9705688
250	0xbed4505f	-0.41467568
251	0x3d92ca8e	0.071675405
252	0x3f267990	0.6502924
253	0x3e7622b8	0.24036682
254	0x3f28794b	0.6581008
255	0x3ea88d97	0.32920524

fc1.bias f4 [36]
0	0x3d2f5d7a	0.042813756
1	0x3f1771e4	0.5915816
2	0xbf122243	-0.5708353
3	0x3e93a396	0.28835744
4	0x3dff7177	0.124728136
5	0x3f2dd4c5	0.67902786
6	0x3f309050	0.68970203
7	0x3ec2729e	0.3797807
8	0x3f53d9ba	0.827541
9	0xbd404c62	-0.046947844
10	0x3e9c2793	0.30498943
11	0x3e87f6da	0.2655552
12	0x3e4dceea	0.20098463
13	0x3f22b04a	0.63550246
14	0xbe30caa2	-0.17264798
15	0xbefb906f	-0.49133632
16	0x3e4cd596	0.20003352
17	0x3ea263e2	0.3171683
18	0x3f4958f3	0.7865135
19	0x3e167259	0.14692058
20	0x3e42a883	0.19009595
21	0x3fde14e8	1.735013
22	0x3f2e45b9	0.6807514
23	0x3f17a30f	0.5923318
24	0x3f81eca7	1.0150346
25	0x3ee41044	0.4454366
26	0x3f52b2f5	0.82304317
27	0x3eefd424	0.46841538
28	0x3f33c505	0.702225
29	0x3f302f9f	0.68822664
30	0x3e6268f9	0.22110356
31	0x3f193288	0.5984273
32	0x3ea3fa73	0.32027015
33	0xbdc36f15	-0.095426716
34	0x3eb7dad6	0.35909146
35	0x3e53a617	0.20668827

fc2.weight f4 [36, 36]
0	0xbe01c6f4	-0.12673551
1	0x3d33bdec	0.043882295
2	0x3dbd876a	0.09254344
3	0xbdd945d6	-0.10609023
4	0xbd7551cc	-0.05989246
5	0xbda3a07b	-0.079895936
6	0xbdde2613	-0.10847106
7	0x3d680b90	0.05665165
8	0xbd988733	-0.07447662
9	0xbc20f880	-0.009824872
10	0xbbb48a20	-0.00550963
11	0x3dadb4f2	0.08481778
12	0x3d403280	0.04692316
13	0xbe08ebd8	-0.13371217
14	0x3d4458f0	0.04793638
15	0xbdca3ac0	-0.09874487
16	0xbd67fc46	-0.05663707
17	0x3d7950a4	0.06086792
18	0xbe0d5112	-0.13800457
19	0xbc57fe30	-0.013183162
20	0xbe0d28cb	-0.13785093
21	0xbdf702e0	-0.12061095
22	0x3d586364	0.05282916
23	0x3d8a1e66	0.06744079
24	0xbdcdeb3e	-0.100546345
25	0xbe259128	-0.16168654
26	0xbda7472e	-0.08167873
27	0x3d547c7c	0.05187653
28	0xbe117d8c	-0.14208049
29	0x3df30122	0.118654504
30	0x3cd562f8	0.026048169
31	0xbdd014f0	-0.101602435
32	0xbdd76416	-0.10517137
33	0xbdbaa2d8	-0.09113091
34	0x3dc4e962	0.09614827
35	0xbdb8fee6	-0.09032993
36	0x3f643004	0.89135766
37	0x3e809000	0.25109863
38	0xbffc3176	-1.9702594
39	0x3f6b1a72	0.9183723
40	0x3f3305f8	0.6993098
41	0xbe8c8f4e	-0.27453083
42	0xbe176baa	-0.14787164
43	0xbf686fa2	-0.9079534
44	0x3f033fef	0.5126943
45	0x3ee75d49	0.45188358
46	0xbbcc5eb4	-0.0062368754
47	0x3e41841a	0.18898049
48	0x3f67ec35	0.905948
49	0x3fa5873c	1.2931895
50	0x3e848ce4	0.2588874
51	0xbf44888d	-0.7677086
52	0xbe9428be	-0.28937334
53	0x3f67b522	0.9051076
54	0x3cf61939	0.030041324
55	0xbfaa8e2a	-1.3324635
56	0x3e762976	0.24039254
57	0xbe88c8a7	-0.26715586
58	0x3cf814d5	0.030283371
59	0x3e3a4c78	0.18193233
60	0xbf58232a	-0.84428656
61	0xbd2be11e	-0.041962735
62	0xbdd3ccc6	-0.10341792
63	0x3f2fd4fa	0.6868435
64	0xbdc7d0b0	-0.09756601
65	0xbf4af73d	-0.79283506
66	0xbe9bf1f8	-0.30458045
67	0xbecb7636	-0.39738625
68	0xbf1b71b8	-0.60720396
69	0xbfda0444	-1.7032552
70	0x3f028de4	0.5099776
71	0xbf047f04	-0.5175631
72	0x3ef5c46d	0.48001423
73	0x3ee45061	0.44592574
74	0xbf259d2b	-0.64692944
75	0x3f8d3146	1.1030662
76	0xc03e730f	-2.9757726
77	0xbe4cc367	-0.19996415
78	0xbf67a280	-0.9048233
79	0xbf938fb0	-1.1528225
80	0x3f4462d2	0.7671329
81	0xbfb5ae64	-1.4193845
82	0x3f4f9ccf	0.81098646
83	0xbddd1725	-0.1079543
84	0x3f6af34e	0.91777503
85	0x3fac745c	1.347301
86	0xc001fa3d	-2.0308983
87	0xc01a0113	-2.4063156
88	0xbdd22de7	-0.102626614
89	0x3f61b6f3	0.88169783
90	0xbf951233	-1.1646179
91	0xbfd18230	-1.6367855
92	0xc02c46a8	-2.6918125
93	0xbe932e4c	-0.2874626
94	0xbf185003	-0.5949709
95	0x3efb9a15	0.49140993
96	0xbfb32448	-1.3995447
97	0x3f866fe4	1.0502896
98	0xbd039e8c	-0.032133624
99	0x3f8e10a8	1.1098833
100	0x3ed09d76	0.40745133
101	0xbf1ce78e	-0.61290824
102	0xbe40d5f1	-0.18831612
103	0xbf9c7c00	-1.2225342
104	0xbf3351a5	-0.70046455
105	0x3dca10ed	0.098665096
106	0x3f80a746	1.0051048
107	0xbf15ac4a	-0.5846602
108	0x3eca088e	0.39459652
109	0xbfa5e35b	-1.2960008
110	0xbf695fca	-0.9116179
111	0xbf4422cd	-0.766156
112	0x3ef10f9e	0.47082227
113	0x3f0a664b	0.54062337
114	0x3b5d3c03	0.0033757694
115	0x3ed8b222	0.42323405
116	0xbf0abc1b	-0.54193276
117	0x39f9acc7	0.0004762171
118	0xbf511f66	-0.81688535
119	0x3f3d7fbc	0.7402303
120	0x3f0bc42e	0.5459622
121	0xbe0dd974	-0.13852483
122	0xbf526568	-0.82185984
123	0xbe01b4b8	-0.12666595
124	0xbfd73a16	-1.6814601
125	0x3ecd525b	0.40101895
126	0x3e93ff91	0.2890592
127	0x3e64e2e9	0.22352184
128	0x3e7f55e4	0.24935108
129	0x3f04d268	0.51883554
130	0x3e9cd7dd	0.3063344
131	0x3ebda59b	0.3704041
132	0x3de0f48d	0.10984144
133	0xbe7a90b6	-0.24469265
134	0x3d49ed7d	0.049298752
135	0x3f11e2b2	0.56986535
136	0x3eab2f3f	0.33434483
137	0x3ea6a8b2	0.3255058
138	0xbf4cba17	-0.7997145
139	0x3d938d86	0.07204728
140	0x3e98a741	0.29815105
141	0xbf1b4cb2	-0.606639
142	0x3d68df89	0.056853805
143	0xbc801eb0	-0.015639633
144	0xba50a4d7	-0.00079591334
145	0x3eaaba05	0.33345047
146	0x3f5ee44d	0.8706711
147	0x3d15fc07	0.036617305
148	0xbed0b08c	-0.40759695
149	0x3e0a743d	0.13520904
150	0xbdc511ee	-0.096225604
151	0xbde0d299	-0.10977668
152	0xbd392df2	-0.045209832
153	0x3e3ff4de	0.18745753
154	0x3e7132e2	0.23554567
155	0xbe2a305a	-0.16620007
156	0xbea51683	-0.32243738
157	0xbcd0af5f	-0.025474248
158	0x3f1fed63	0.624716
159	0x3f071590	0.52767277
160	0x3ecc8b6f	0.3995013
161	0xbf3d6377	-0.73979896
162	0x3d8e6ca5	0.06954316
163	0xbd13b52c	-0.03606145
164	0x3e0fd1fa	0.14044943
165	0x3f057c59	0.52142864
166	0x3d996b2e	0.07491146
167	0x3e675797	0.22592007
168	0x3db2f4e2	0.08738114
169	0x3ebf0d4b	0.3731483
170	0xbe94d14c	-0.2906593
171	0x3c57bcf1	0.013167606
172	0x3e38a8f0	0.18033195
173	0x3c86803d	0.01641857
174	0xbe2968fe	-0.16543958
175	0xbd0bc97a	-0.03412769
176	0xbc035618	-0.008016132
177	0x3edc8f2b	0.43077978
178	0x3d41db0e	0.047328047
179	0x3e482b86	0.19547853
180	0x3f193fbd	0.5986288
181	0xc00601fd	-2.0938714
182	0xbf88f102	-1.069855
183	0xc02dea21	-2.717415
184	0x3db9da10	0.09074795
185	0x3e965983	0.29365167
186	0x3f1387e8	0.5762925
187	0x3eb8d6da	0.3610142
188	0xc00a35bb	-2.1595294
189	0x3ef87e2e	0.48533767
190	0xbfd0de40	-1.6317825
191	0x3cecdfc2	0.02891529
192	0x3e97f364	0.2967788
193	0xc0075159	-2.11434
194	0xbfa53537	-1.2906865
195	0x3edafbaa	0.4277013
196	0xbfb67d16	-1.4256923
197	0x3e1b47a5	0.15164049
198	0x3ef7168a	0.48259383
199	0x3e923034	0.285524
200	0x3f4f90c1	0.8108025
201	0x3f16c6e2	0.5889722
202	0x3ee46dbf	0.4461498
203	0x3f485e16	0.78268564
204	0x3ea254d6	0.3170535
205	0xbeb34b5c	-0.35018432
206	0x3f06c817	0.5264906
207	0x3f5b75f4	0.8572686
208	0x3f83fd3e	1.0311658
209	0x3f35557d	0.7083357
210	0xc015f809	-2.3432639
211	0x3eb2ef5c	0.34948242
212	0x3e78ea15	0.24308045
213	0x3e344e81	0.17608072
214	0xc0241a62	-2.5641103
215	0x3ea37de3	0.3193198
216	0x3ed08776	0.40728348
217	0xc0135a08	-2.30237
218	0xbf4cf98f	-0.80068296
219	0xc0027cb4	-2.0388613
220	0x3e8f4c99	0.27988127
221	0x3f2ec694	0.68271756
222	0x3edab851	0.42718747
223	0x3f0c66c5	0.54844314
224	0xbf9b71f7	-1.2144154
225	0x3f1a0972	0.6017066
226	0xbf95c4b8	-1.1700659
227	0x3f218180	0.63088226
228	0x3ef49756	0.4777171
229	0xbff057f4	-1.8776841
230	0xbf3cd301	-0.73759466
231	0x3db7cb5c	0.089743346
232	0xbfb9bcce	-1.4510744
233	0xbbc17a42	-0.005904467
234	0x3f1125ed	0.56698495
235	0x3efc1e8c	0.49242055
236	0x3ee33c7a	0.44382077
237	0x3f1b527d	0.6067274
238	0x3f085596	0.53255594
239	0x3f219b46	0.63127553
240	0x3ec2d4c4	0.38052952
241	0xbe55ab6c	-0.20866174
242	0x3e35c3c4	0.1775046
243	0x3f03bcfd	0.5146025
244	0x3f194a8f	0.5987939
245	0x3ef8f22b	0.4862226
246	0xc00da83a	-2.2133927
247	0x3ea48a47	0.32136747
248	0x3e9d1a5b	0.3068417
249	0x3d3bc870	0.04584545
250	0xc0109e66	-2.2596679
251	0x3f05b704	0.52232385
252	0xbebccf93	-0.36877117
253	0x3feddc06	1.8582771
254	0x3fee0fca	1.8598568
255	0x3f5a913b	0.85377854

fc2.bias f4 [36]
0	0xbd4a31ac	-0.049363777
1	0x3ea06619	0.31327894
2	0x3ec56114	0.38550627
3	0x3f407bf7	0.75189155
4	0x3e377a88	0.17917836
5	0x3f08d8be	0.5345572
6	0x3f8051f2	1.0025008
7	0x3eabae29	0.3353131
8	0x3f21052c	0.62898517
9	0x3f3b1ede	0.73093975
10	0x3e98d975	0.29853407
11	0xbdd98dd4	-0.10622755
12	0x3efeeb81	0.4978905
13	0x3eef3b20	0.46724796
14	0x3cd21eac	0.025649391
15	0x3f5c8ea0	0.8615513
16	0xbdc63b9f	-0.096793406
17	0x3db2bc21	0.08727289
18	0x3f405755	0.7513326
19	0x3e3e34cc	0.18574828
20	0x3ee0b5a3	0.43888578
21	0x3f1be69f	0.60898775
22	0xbdd5d0b2	-0.10440196
23	0x3bc7ae95	0.00609381
24	0x3e784431	0.24244763
25	0x3f1cd954	0.61269116
26	0x3f4fb367	0.8113312
27	0x3f25ca04	0.64761376
28	0x3f2e02f8	0.6797328
29	0xbc8502bb	-0.016236654
30	0x3eda0c67	0.42587587
31	0x3f113ddc	0.56735015
32	0x3bc501dd	0.006012185
33	0x3da3d8b6	0.08000319
34	0xbd59c763	-0.053168666
35	0x3f0bc3bb	0.54595536

out.weight f4 [4, 36]
0	0x3dd81412	0.10550703
1	0xbfa6c88a	-1.302995
2	0xbf985c47	-1.1903161
3	0xbea7c25d	-0.32765475
4	0x3d825994	0.06364742
5	0xbf128b56	-0.5724386
6	0xbf410abc	-0.75407004
7	0x3f159ece	0.5844544
8	0xbf356318	-0.7085433
9	0xbf397972	-0.72450936
10	0xbfca8a8c	-1.5823531
11	0x3c937bd8	0.01800339
12	0x3e9012d9	0.2813938
13	0x3f7dcb73	0.99138564
14	0xbe4ec533	-0.20192413
15	0xbf1df2dd	-0.61698705
16	0x3f97cdaa	1.1859639
17	0x3f1f9c6b	0.6234805
18	0xbf2d6909	-0.67738396
19	0x3dcb2ba0	0.0992043
20	0xbf9deb5b	-1.233745
21	0xbed4c841	-0.41559032
22	0x3f1adafa	0.6049038
23	0x3f3a5932	0.7279235
24	0x3fd293ff	1.6451415
25	0xbf1d14b9	-0.61359745
26	0xbf4175ca	-0.75570357
27	0x3fadbab5	1.3572603
28	0xbec97700	-0.39348602
29	0x3d2497ad	0.04018371
30	0x3f52ce6d	0.8234623
31	0xbf60ddf7	-0.8783869
32	0xbdb1e53b	-0.086863
33	0xbf6a4da0	-0.91524696
34	0x3da367a6	0.07978754
35	0xbf04f7a2	-0.5194036
36	0x3e122175	0.14270575
37	0xbfd75467	-1.6822633
38	0xbf416ad5	-0.7555364
39	0xbf4df19d	-0.804468
40	0x3f090081	0.53516394
41	0xbf2d4b77	-0.67693275
42	0xbf514621	-0.81747633
43	0x3f8605b1	1.0470487
44	0xbf1ec68c	-0.6202171
45	0xbeb6f06c	-0.35730302
46	0xbfcf0502	-1.6173403
47	0xbd9bdafe	-0.07610129
48	0x3ea315f3	0.31852683
49	0x3f8cba93	1.0994438
50	0xbf0a46a7	-0.54014057
51	0xbf27f2bd	-0.65604764
52	0x3ee89e8f	0.4543347
53	0xbea43a4a	-0.3207572
54	0xbf463abc	-0.7743337
55	0xbe347735	-0.17623599
56	0xbf8d38d4	-1.1032968
57	0xbf31cd7c	-0.6945417
58	0xbda2dece	-0.07952653
59	0x3f4326ba	0.7623097
60	0x3f92fb49	1.1482936
61	0xbf12ed66	-0.5739349
62	0xbf2334df	-0.6375255
63	0x3f3f72e3	0.7478468
64	0xbf302429	-0.68805176
65	0x3d79ae53	0.060957264
66	0x3fc57763	1.5427059
67	0xbed2acba	-0.41147405
68	0x3e160a5b	0.14652388
69	0xbf791890	-0.97303104
70	0xbd01ddea	-0.031705774
71	0xbed635b7	-0.41837856
72	0x3c5e80b0	0.013580486
73	0xbd9b0a2f	-0.07570302
74	0xbfc3590f	-1.5261554
75	0xbf42d89f	-0.7611179
76	0x3eb0c0a6	0.3452198
77	0xbee2ec62	-0.4432097
78	0xbed009bd	-0.4063243
79	0x3f68dc85	0.90961486
80	0xbf63381e	-0.88757503
81	0xbf55c017	-0.8349623
82	0xbfbf7e99	-1.496051
83	0x3e0f8a3d	0.14017577
84	0x3fa7dfd4	1.3115182
85	0x3f819cde	1.0125997
86	0xbf440d0d	-0.76582414
87	0xbf5a5008	-0.8527837
88	0x3f7a2387	0.9771046
89	0x3f7e4c65	0.9933532
90	0xbeca1763	-0.39470968
91	0xbf1734d3	-0.5906498
92	0xbfd3b62c	-1.653997
93	0xbe941129	-0.28919342
94	0x3f686b0c	0.9078834
95	0x3e9ef7e0	0.3104849
96	0x3f8a7624	1.0817304
97	0xbec30516	-0.38089818
98	0xbea19bab	-0.31564078
99	0x3fe6d6bc	1.8034282
100	0xbe8ea681	-0.27861407
101	0x3e6aa36c	0.22913903
102	0x3ead6fd0	0.3387437
103	0xbf756d2d	-0.95869714
104	0x3ddd510a	0.108064726
105	0xbf396d18	-0.7243209
106	0xbd42c841	-0.04755426
107	0xbf7fe3eb	-0.9995715
108	0x3e27ebdd	0.16398568
109	0xbf7b00f1	-0.9804831
110	0xbfdab669	-1.7086917
111	0xbe94b5e7	-0.2904503
112	0xbe22de03	-0.15905003
113	0xbf8ca55c	-1.0987964
114	0xbea3a904	-0.31964886
115	0x3fa3ce1e	1.2797277
116	0xbf3c0ec3	-0.73460025
117	0xbf29aa45	-0.66275436
118	0xbf994e2c	-1.1976981
119	0xbe1d76b3	-0.15377311
120	0xbf062341	-0.52397543
121	0x3f391263	0.7229368
122	0x3e8e0fcd	0.2774643
123	0xbf0e20ea	-0.5551897
124	0x3fc2509c	1.518085
125	0xbfa49235	-1.2857119
126	0xbf363d7b	-0.7118756
127	0x3f001441	0.50030905
128	0xbf9ae634	-1.2101502
129	0xbf3fe2af	-0.74955267
130	0xbfb18550	-1.3868809
131	0x3f8e11c0	1.1099167
132	0x3ffbc1a6	1.9668472
133	0xbf9356c4	-1.1510854
134	0xbed8064b	-0.421923
135	0x3f215053	0.6301319
136	0xbf9199e6	-1.1375091
137	0x3d98ba96	0.074574634
138	0x3f94d4b5	1.1627413
139	0xbe98f725	-0.29876056
140	0xbd1529cc	-0.036416814
141	0xbfe3543a	-1.7760079
142	0x3d8d8c78	0.06911558
143	0xbf032068	-0.51221323

out.bias f4 [4]
0	0xbe48d541	-0.196126
1	0x3c8e4886	0.017368566
2	0x3d8ef1ff	0.06979751
3	0x3da2419c	0.0792267
