Lunar Lander V2 Hau Zheng Yi/models/episode_0.pth (torch, 9503 bytes, 6 tensors)

fc1.weight f4 [36, 8]
000000 62 0a 55 be c0 0f 94 3d a0 bb 67 3c 50 3c 36 3d
       -0.20804742 0.072295666 0.014143854 0.044491112
000010 97 d2 a7 3e c0 bd 68 bd 41 d9 4b be 72 36 14 3e
       0.32777855 -0.056821585 -0.19907095 0.14473894
000020 38 13 1e bd 9b 50 8c be e9 13 88 3e 91 e0 b1 3e
       -0.038592547 -0.27405247 0.2657769 0.34741643
000030 cc 3b db bd 04 89 e8 3d 68 e4 e0 3d 30 57 2a 3d
       -0.10704765 0.11354259 0.10981065 0.041587055
000040 74 45 c4 3d 48 5e 9d be a7 56 b3 be a8 82 a0 bd
       0.0958356 -0.30735993 -0.35027048 -0.07837421
000050 5c 11 97 be 8d a6 81 3e 6c d0 ef 3d 50 ca a8 be
       -0.29505432 0.2532238 0.11709675 -0.32966852
000060 d6 a2 46 3e 58 14 75 be fe 75 5c be ae cf 73 3e
       0.19398054 -0.23933542 -0.21529385 0.23809692
000070 66 80 8a be 32 0d 69 be 9b ff 9b be 7c c7 6d be
       -0.27051085 -0.2275894 -0.3046845 -0.23220628
000080 e0 66 76 3d f6 2b b3 be 7a 01 38 be 18 9b 29 bd
       0.060156703 -0.34994477 -0.17969313 -0.041407675
000090 d0 bf 72 3d 92 5b 7d 3e 75 db 9e be eb 29 35 be
       0.059264958 0.24741963 -0.31026807 -0.17691772
0000a0 8a 81 50 3e ba 26 50 be c4 24 38 be ae 32 7b 3e
       0.20361915 -0.20327273 -0.17982775 0.24531052
0000b0 e0 21 e8 3d 80 61 14 be f8 15 b7 bd 00 17 f3 3b
       0.11334586 -0.14490318 -0.08939737 0.0074185133
0000c0 95 ea ed 3d 0c c9 ea bd e8 87 b3 3e f4 1b 8c be
       0.116170086 -0.11464128 0.35064626 -0.27365077
0000d0 db a7 93 3e 9b 1a 89 3d 80 c9 85 bb 3e 69 00 3e
       0.28839 0.06694528 -0.0040828586 0.12540147
0000e0 f8 3c 9f b9 c1 fe b3 be f4 17 73 be 5b 86 2b be
       -0.00030372269 -0.351553 -0.23739606 -0.16750471
0000f0 ce de ba bd 01 c9 6d 3e 97 35 8b 3e 03 7c 80 bd
       -0.09124528 0.23221208 0.27189323 -0.06273653
000100 0a d1 88 be 84 7d 98 bd a0 b9 39 bd c3 c8 ab 3e
       -0.26721984 -0.07445815 -0.04534304 0.33551607
000110 89 2c ac be 6c 02 a7 bd 12 77 4b 3e 78 fa b6 bd
       -0.33627728 -0.08154759 0.1986964 -0.08934492
000120 ee 08 9b 3e ae 82 b9 3e 8f 68 4d bd af b2 1e be
       0.3028025 0.36232513 -0.050148543 -0.1549785
000130 82 31 c0 bd 6e 32 75 3e 36 dc 8b be e3 46 22 be
       -0.09384443 0.23945019 -0.27316445 -0.15847354
000140 66 63 a2 3d fd 56 2e 3d 5d ae 4e 3d 41 d1 e9 bd
       0.07929115 0.042563427 0.050459255 -0.11416865
000150 29 b4 71 be eb 1a b9 be 00 6c 6b 3a 64 b9 62 3e
       -0.23603882 -0.3615335 0.0008980632 0.22141033
000160 dd c6 02 be 00 60 87 3c 77 ac b2 be 2f 43 a8 3e
       -0.12771173 0.016525269 -0.34897205 0.32863757
000170 b0 03 aa bd a0 31 83 3c 32 18 27 3e dd 2d 00 be
       -0.083014846 0.016014874 0.16317824 -0.12517495
000180 a2 ca b5 be da b9 50 3e d6 ea 0d bd 0a 6b 32 3e
       -0.3550616 0.20383397 -0.034647785 0.17423645
000190 03 a3 96 3e 1a c2 c2 3b 1e 80 22 be fa f7 78 be
       0.29421243 0.005943549 -0.15869185 -0.24313346
0001a0 f3 ec 43 be fa 8a 12 3e 50 f7 98 3d b0 60 cc 3d
       -0.19133358 0.14310828 0.07469046 0.09979379
0001b0 8f df b2 be 92 d5 77 3e cc a5 95 be ee 1f 3b be
       -0.34936187 0.24202564 -0.29228055 -0.18273899
0001c0 79 26 83 3e 07 97 8a be ab db a3 3e 36 68 3d 3e
       0.2561529 -0.2706835 0.3200353 0.18496785
0001d0 85 ed 8e 3e 91 7b 20 be d2 84 2d 3e 5d e4 90 be
       0.27915588 -0.15672137 0.16945198 -0.28299227
0001e0 7c 96 98 3c 5c 33 ae 3d 53 12 84 be 84 51 a1 be
       0.018626444 0.0850589 -0.2579523 -0.31507504
0001f0 45 cd cc bd 8d 01 43 3e 86 9e 1a 3e 82 3d a0 3e
       -0.100000896 0.1904356 0.15099534 0.31296927
000200 00 80 36 bb 26 07 87 be 94 8a ef 3d e8 e3 16 bd
       -0.002784729 -0.2637264 0.116963536 -0.036838442
000210 70 b3 07 3d 22 68 7f be a2 2e 6d 3e 2e 9a 75 be
       0.03313011 -0.24942067 0.2316232 -0.23984596
000220 e1 fb a9 3e 22 4c ee bd a0 92 5f 3c 95 f8 33 be
       0.3319998 -0.11635615 0.013645798 -0.17575295
000230 10 58 27 bd 64 e7 91 bd f0 cf e7 bd c2 ad e6 bd
       -0.040855467 -0.071242124 -0.11318958 -0.112636104
000240 c3 2e 02 be 60 72 19 be c2 e4 b5 be e1 12 02 be
       -0.1271315 -0.14985037 -0.3552609 -0.12702514
000250 c9 9a 26 3e d0 19 f8 bd 40 57 d4 bb 94 1e 4f 3e
       0.16269983 -0.12114298 -0.0064801276 0.20226508
000260 1b 79 36 be 98 1d 7d 3d c4 f0 67 3c 00 a9 20 be
       -0.17819636 0.0617958 0.014156524 -0.15689468
000270 57 87 99 3d 4b 1b c2 bd 3d 00 a0 3e 04 76 db bd
       0.07496517 -0.09477862 0.31250182 -0.10715869
000280 be ba 21 3e df 3c bf bc 15 3a a4 be 3e eb 8f 3d
       0.15793893 -0.023344455 -0.32075563 0.07027291
000290 07 b5 80 3e 75 fb 99 3e 2b ca 87 3e d8 a3 51 3e
       0.25138113 0.3007466 0.2652143 0.20472658
0002a0 98 35 1f 3e 47 f3 96 3e ca 06 95 3d a7 ea 55 be
       0.15547788 0.2948248 0.072766855 -0.20890294
0002b0 6f 1d 10 3e 62 42 b5 be 57 0b 85 be 5a d5 82 be
       0.14073728 -0.3540221 -0.25985214 -0.255534
0002c0 86 45 c0 be fd f9 be bd ad 05 0c be fb 2b 16 bd
       -0.37553042 -0.09325025 -0.1367404 -0.036663037
0002d0 82 1e 9a bc f4 f1 4c bd 60 04 42 bc de f4 32 3b
       -0.018813375 -0.050035432 -0.011841863 0.0027306597
0002e0 dd 48 38 bc 17 12 ac 3d 43 1b 16 3e 09 05 23 3e
       -0.011247841 0.08401888 0.14658837 0.1591989
0002f0 7f c5 d5 bd a3 39 5a bd 18 ac d3 3d de da 8e 3e
       -0.1043806 -0.053277623 0.10335559 0.27901357
000300 fb 31 32 3e 57 81 fb bd 11 10 30 3d d8 1b 90 be
       0.17401879 -0.12280529 0.042984072 -0.28146243
000310 1b ac 49 3e ce bd e6 bd 80 68 c8 bb 78 5c ab be
       0.1969456 -0.11266671 -0.006115973 -0.33468986
000320 41 37 08 be 7c af bb 3e 6d 68 3c 3e 86 b1 a4 3d
       -0.13302328 0.3665732 0.1839921 0.080416724
000330 53 b5 5b be 55 5d 1d 3d 72 ec a3 be ff 05 96 3e
       -0.21455888 0.038419086 -0.3201633 0.2930145
000340 11 04 e0 3d 85 18 64 be 3b 7e b0 3d 6a fd df 3c
       0.109382756 -0.22274978 0.086178266 0.027342517
000350 c6 59 0a 3e 60 e2 96 be c0 6d 90 bc fe 00 82 3e
       0.13510808 -0.29469585 -0.017630458 0.25391382
000360 ef 50 48 bd 3d 2f 05 3e 5a d9 36 3e b7 e5 e0 ba
       -0.04890531 0.13006301 0.1785635 -0.0017158304
000370 d9 8b 35 bd ee 54 75 3e d0 73 da 3d c4 a5 ae bd
       -0.044322822 0.2395818 0.10666621 -0.08527711
000380 8e 3c 68 bd b7 c4 c7 3d f5 b4 fc bb 0a 7e 10 3e
       -0.056698374 0.09754317 -0.0077120014 0.1411058
000390 8c 54 af bd 43 d8 a6 3c 30 5b 0c be 68 7e 9c 3e
       -0.08561048 0.020366793 -0.1370666 0.3056519
0003a0 ff 06 72 3d 32 d9 aa be 80 8f 02 be 76 e6 6f 3d
       0.059088703 -0.33368832 -0.12750053 0.058569394
0003b0 09 45 72 3c e5 d5 87 3c 92 7d 0c be ba bf 9e 3e
       0.014786967 0.016581485 -0.13719776 0.3100565
0003c0 48 cb 2a 3d 76 9c 83 be 90 54 91 3d 4f 20 ae 3e
       0.04169777 -0.25705308 0.07096207 0.34009025
0003d0 a9 73 5c be 39 d2 8f 3e 1e 24 0d 3e ee 8f 71 3e
       -0.21528496 0.28090075 0.13783309 0.23590061
0003e0 25 65 a8 bd b3 c1 8a be f6 fb 95 be b9 7b 17 bd
       -0.08222417 -0.27100906 -0.29293793 -0.036983225
0003f0 d0 84 bb 3e bb 8b 40 be 9b 7e ac 3e f8 5a 32 3e
       0.36624765 -0.18803303 0.33690342 0.17417514

fc1.bias f4 [36]
000000 10 bf aa be f4 5a 9f 3d 90 23 8d be 38 d2 c9 bd
       -0.33348894 0.0778102 -0.27566195 -0.09854549
000010 f6 95 90 be c9 21 94 3e 7f e3 24 3e fd b9 d5 bd
       -0.2823941 0.28932026 0.16102408 -0.10435865
000020 26 e7 1d 3e 68 3f 9e be 0d 44 b0 3c 34 07 c3 3d
       0.15420207 -0.3090775 0.021516824 0.09522858
000030 69 cc 87 bc b4 72 3c be 20 e8 b3 bd 28 a1 3a be
       -0.016576963 -0.18403131 -0.08784509 -0.18225539
000040 84 42 aa be 1d e2 8a be 38 6a 69 3d bf c1 51 be
       -0.33253872 -0.27125636 0.056986064 -0.20484065
000050 18 27 af 3d ba 1f 67 3e 29 cd 7f 3e 5e 6a 6e 3e
       0.085523784 0.22570696 0.24980606 0.23282763
000060 40 47 9d 3e ee 37 5a be e9 10 ad 3e 45 cc 7e 3d
       0.30718422 -0.21310398 0.33801964 0.062206525
000070 00 e0 63 3e 7f 6b 22 ba 90 b3 8f 3c 80 47 93 3e
       0.22253418 -0.0006195828 0.017541677 0.28765488
000080 f8 59 ca 3d b5 50 30 3d 43 60 58 bd 8d 4d 16 3c
       0.098804414 0.04304572 -0.052826177 0.009173763

fc2.weight f4 [36, 36]
000000 f4 c6 01 be ec bd 33 3d 6a 87 bd 3d d6 45 d9 bd
       -0.12673551 0.043882295 0.09254344 -0.10609023
000010 cc 51 75 bd 7b a0 a3 bd 13 26 de bd 90 0b 68 3d
       -0.05989246 -0.079895936 -0.10847106 0.05665165
000020 33 87 98 bd 80 f8 20 bc 20 8a b4 bb f2 b4 ad 3d
       -0.07447662 -0.009824872 -0.00550963 0.08481778
000030 80 32 40 3d d8 eb 08 be f0 58 44 3d c0 3a ca bd
       0.04692316 -0.13371217 0.04793638 -0.09874487
000040 46 fc 67 bd a4 50 79 3d 12 51 0d be 30 fe 57 bc
       -0.05663707 0.06086792 -0.13800457 -0.013183162
000050 cb 28 0d be e0 02 f7 bd 64 63 58 3d 66 1e 8a 3d
       -0.13785093 -0.12061095 0.05282916 0.06744079
000060 3e eb cd bd 28 91 25 be 2e 47 a7 bd 7c 7c 54 3d
       -0.100546345 -0.16168654 -0.08167873 0.05187653
000070 8c 7d 11 be 22 01 f3 3d f8 62 d5 3c f0 14 d0 bd
       -0.14208049 0.118654504 0.026048169 -0.101602435
000080 16 64 d7 bd d8 a2 ba bd 62 e9 c4 3d e6 fe b8 bd
       -0.10517137 -0.09113091 0.09614827 -0.09032993
000090 4a 7e ef 3d a8 2c 91 3d 54 d5 0b be 16 50 8f bd
       0.116940096 0.07088596 -0.13655597 -0.06997697
0000a0 21 c2 14 3e 84 1b 14 be 71 b6 e1 3d 69 0a aa bd
       0.1452718 -0.14463621 0.11021126 -0.08302767
0000b0 b8 f5 ad bc a8 bf 23 3e 9c c1 03 3e 15 20 10 3e
       -0.021235332 0.1599108 0.12866825 0.14074738
0000c0 35 6a 1f 3e c0 e3 03 3c 60 8b 8b bb b7 59 37 3c
       0.15567859 0.008049905 -0.004258558 0.011190823
0000d0 40 ab 65 3c f4 dd 54 3d c6 d9 0c 3d 7a 39 13 be
       0.01401788 0.051969483 0.034387372 -0.14377394
0000e0 a7 9e b2 3d 15 93 a8 3c d3 dd 64 bc ff 81 5b bd
       0.08721667 0.020577947 -0.013968903 -0.05359077
0000f0 b3 45 aa bd 7b 9a 2c 3d 35 ff 9f bc fe af 1f 3e
       -0.08314075 0.04213951 -0.019530872 0.1559448
000100 c5 14 b0 bd 7c 07 94 3c a9 55 1b 3e 6b f6 df 3d
       -0.085977115 0.018069975 0.15169396 0.109356724
000110 d0 92 b6 bd a9 da 0d be 83 c3 02 bd 3a 15 76 3c
       -0.08914721 -0.13852943 -0.031924736 0.015019709
000120 96 9b e1 bd d8 88 85 3c d4 04 29 bd 00 6e 88 3b
       -0.11016004 0.016300604 -0.04126437 0.0041635036
000130 80 b7 8d bc 80 15 18 bc 06 3f 5b bd 1c fc 14 3d
       -0.017299414 -0.00928247 -0.0535269 0.036373243
000140 20 a9 be bd 3b 29 0f be dc 39 79 bd f4 70 6b 3d
       -0.09309602 -0.13980572 -0.060846195 0.057480767
000150 2d 96 21 3e e0 e1 8f 3d d0 e4 51 3d 3b 89 0b be
       0.15779944 0.07025504 0.051243603 -0.13626568
000160 37 41 09 be f4 c2 50 3d 3c 51 75 bd 08 0b de 3c
       -0.13403784 0.05096717 -0.059891924 0.02710487
000170 dc 4c 76 bd 7c c4 1b 3d 50 1b 0d be 7e 45 b5 bd
       -0.060131893 0.03802918 -0.1377995 -0.08851145
000180 fe c2 90 bd 3f ad 28 3e e0 1f 60 bd cc 67 64 3d
       -0.07068442 0.16472338 -0.0547179 0.05576305
000190 d0 94 2f bc 14 a0 14 be 7e e0 bb bd 0e 95 23 be
       -0.010716632 -0.1451419 -0.09173678 -0.15974829
0001a0 40 33 a1 3d 0b 27 95 bd ad 0e 1e 3e fc 58 2a 3d
       0.07871103 -0.072828375 0.15435286 0.04158877
0001b0 92 22 ac 3d e0 ea d8 bc d0 24 cc bd 18 75 9d bd
       0.08405031 -0.026479185 -0.09967959 -0.076883495
0001c0 e7 c3 09 3e c1 6a 04 3e 1b db 02 be 91 fc 04 3e
       0.13453637 0.12931348 -0.12778895 0.12986971
0001d0 3a b1 de 3d e3 89 29 be c0 c7 bb bd a1 4b 13 3e
       0.10873647 -0.16556506 -0.09168959 0.14384319
0001e0 34 e9 74 3d 80 4f 84 3a c0 a4 2c 3c 80 f0 eb bb
       0.059792712 0.0010094494 0.010537326 -0.0072003007
0001f0 be 98 c3 3d 00 a8 c5 3c a6 47 7d bd 1e bb 9f bd
       0.09550618 0.02412796 -0.061835907 -0.07799362
000200 c0 9b 2b bb a0 da 1c 3d 08 01 c2 bc d0 94 2d bd
       -0.0026185364 0.038294435 -0.023682132 -0.042378247
000210 93 3c a7 bd a0 97 0e 3d 73 99 da bd 95 db 22 3e
       -0.081658505 0.03481257 -0.10673799 0.15904076
000220 9e 7a 21 be 66 83 e2 3d 10 fb 23 bc e0 c8 11 be
       -0.15769431 0.110602185 -0.010008588 -0.14236784
000230 ca db db 3d b0 46 51 bd 82 ab cc 3d eb ca be bd
       0.10735281 -0.051092803 0.0999365 -0.09316047
000240 08 c0 f2 3c e2 94 db 3d 22 db 8b 3d ea bd 9e 3d
       0.029632583 0.107217565 0.06828906 0.07751067
000250 02 a1 19 be c9 1b 0b 3e 7e 9b ea bd 48 88 a2 bd
       -0.15002826 0.13584818 -0.11455439 -0.0793615
000260 b4 34 10 be 70 ac 28 bc dc 49 54 bd f8 26 f4 3c
       -0.14082605 -0.010295019 -0.05182825 0.029803738
000270 e3 a8 f1 bd e4 95 10 be d4 64 07 be 96 96 bf bd
       -0.11799791 -0.14119679 -0.13222057 -0.09354894
000280 62 cc c9 3d ee 1c bb bd f8 c5 a6 bd 56 f9 67 bd
       0.09853436 -0.09136377 -0.08143228 -0.05663427
000290 c0 d3 3a 3b c8 91 e8 bc 0a f4 8b 3d c1 12 21 3e
       0.002850756 -0.028389826 0.06833656 0.1572981
0002a0 5e 0f ce 3d 56 e4 93 bd d4 07 15 be 83 0e 82 bd
       0.10061525 -0.07221286 -0.14553767 -0.06350424
0002b0 80 d0 58 3c e0 e3 a4 3d fe 8e bf bd 1c 5f 7d bd
       0.013233304 0.08051276 -0.093534455 -0.06185828
0002c0 2c ba 5f 3d f1 81 12 3e a0 e0 e6 bb 11 78 01 3e
       0.054620907 0.14307381 -0.0070458204 0.12643458
0002d0 ea c3 ee 3d e5 f7 11 3e e6 eb e9 bd 4c db 54 bd
       0.116584614 0.1425472 -0.11421947 -0.05196695
0002e0 f3 1d 25 be 92 9e 0d be 12 db ef 3c c8 21 04 be
       -0.16124706 -0.13830021 0.029279266 -0.12903512
0002f0 e2 db 8d 3d 4e 15 38 3c bd 75 62 bb 60 b4 90 3c
       0.06926705 0.011235548 -0.003455504 0.017664135
000300 45 e4 be 3d 86 36 4a bd 74 81 00 bd d5 b7 c8 3b
       0.09320883 -0.049368404 -0.031373456 0.00612543
000310 c2 0c ef 3d 20 e9 70 3d b3 71 8f 3c 5f ec cb bd
       0.11672355 0.058816075 0.01751027 -0.099571936
000320 5d 49 25 3e ff 36 15 3e 1f 8f b4 bd 44 47 5a 3b
       0.16141267 0.1457176 -0.08816361 0.0033306638
000330 b7 35 db bd f3 d4 f4 3d c0 94 50 bc 36 23 37 3e
       -0.10703605 0.11954679 -0.012730777 0.17884526
000340 2f 1e 46 3e ec ed 74 3d 38 8e 0a be 7f 14 06 be
       0.19347452 0.059797212 -0.13530815 -0.13093756
000350 52 9f 13 be 06 fd 9f 3d 68 34 d3 bc fb c3 b9 bd
       -0.14416245 0.07811932 -0.025781825 -0.090705834
000360 16 ab 46 bd 06 2d 57 bd 83 73 ba bd 06 de cc 3d
       -0.048503004 -0.052533172 -0.09104063 0.10003285
000370 48 47 c7 bd 6c dd 72 3d 2d ec bc 3d 1d 65 d6 3d
       -0.09730393 0.059293196 0.092247345 0.104685046
000380 a0 1c 83 bc da c4 fd 3d 15 d5 83 3d 40 90 e9 bc
       -0.01600486 0.12391062 0.064371265 -0.028511167
000390 c0 f4 d5 bc 20 57 8a bb d3 43 a5 bd 60 00 3e bd
       -0.026117682 -0.004221812 -0.08069577 -0.046387076
0003a0 15 7b 21 3e d0 31 a9 3d 35 5d d6 3d fb 31 14 3e
       0.15769608 0.08261454 0.104669966 0.14472191
0003b0 af a9 f0 bb 69 25 24 be e9 86 19 3c 35 fe f1 3d
       -0.0073444466 -0.16029896 0.009370544 0.11816064
0003c0 00 3a 41 bd 7c 18 4a bd 4a 0d 64 3d b0 6c f2 bd
       -0.047174454 -0.049339756 0.055676736 -0.11837137
0003d0 f6 29 20 bd 8d 52 00 3e 99 e5 17 3e 6c 39 ce bc
       -0.039102517 0.1253149 0.14833678 -0.025173865
0003e0 da b2 0f be a1 ee 85 3d 00 9e 03 bd 0b 36 00 3e
       -0.1403307 0.065396555 -0.032133102 0.12520616
0003f0 7e 01 2a be 5c 7b 10 3d e8 7b 85 bc a0 8d f7 bb
       -0.16602132 0.035273895 -0.016294435 -0.007554725

fc2.bias f4 [36]
000000 ac 31 4a bd 32 18 25 3e b3 d4 b9 bd 00 67 c5 bb
       -0.049363777 0.16122511 -0.09073772 -0.0060242414
000010 46 9d 33 bd f8 f5 6e bd 55 e4 ac bd f7 52 00 be
       -0.04385116 -0.058340043 -0.084419884 -0.12531649
000020 91 79 d1 bc fb b1 f3 3d 26 6c fd bd f8 84 98 bd
       -0.025570663 0.118991815 -0.12374143 -0.07447237
000030 00 2e 69 bd 2e eb c5 bd fa bc 06 be 9d 47 13 3e
       -0.056928635 -0.096639976 -0.13158026 0.14382787
000040 68 b4 8c bd bb 24 10 3e 47 7c e7 bd 30 00 2c bd
       -0.06870347 0.14076512 -0.11303001 -0.041992366
000050 1c ae 62 3d 3d cd 31 3d 7a 45 d5 bc 1f 61 b5 3d
       0.055341825 0.04340862 -0.026034106 0.08856415
000060 1d ee d1 bd 60 68 6a 3d c6 89 db 3d c8 5f ee 3c
       -0.10250495 0.057228446 0.107196376 0.029098406
000070 98 57 25 3e 95 ab 32 3d 3e 74 b2 3b e7 b4 d8 bd
       0.16146696 0.043620665 0.005445986 -0.105813794
000080 f8 85 bf 3c 16 8c ed bd d8 94 9c 3c 85 1f 4e 3d
       0.023379311 -0.11598985 0.019113943 0.050323028

out.weight f4 [4, 36]
000000 12 14 d8 3d 88 fe a6 bd 8e 6f e7 3d 68 6d 93 3d
       0.10550703 -0.08154017 0.11300574 0.07198602
000010 83 20 2a be 46 ea 6d bc e0 c0 81 bd 15 c8 06 3e
       -0.16613965 -0.014521187 -0.06335616 0.13162263
000020 92 f6 89 bd 86 d3 46 be 8b 9d 0c 3e 80 cf 4b 3d
       -0.06736483 -0.19416627 0.13731973 0.049758434
000030 00 70 e1 ba 4b ad e4 bd 98 43 af bc f1 a1 13 bd
       -0.0017199516 -0.111658655 -0.021394536 -0.03604311
000040 8d 42 1e 3e 01 35 c2 3d f2 dd e7 bd a7 65 0e be
       0.15455075 0.09482766 -0.113216296 -0.13905965
000050 92 14 c8 3d cc 2d 25 3d 09 8c 70 3d e5 23 b5 3d
       0.097695485 0.04032688 0.058727298 0.08844737
000060 5e dc fc 3d 18 9a a9 bd 47 d4 4a bd 2d bb 12 3e
       0.12346719 -0.08281344 -0.04951885 0.14329214
000070 14 5d 63 3c e0 c6 40 3b fb 6a aa 3d e3 bb d1 bd
       0.013877172 0.0029415414 0.08321186 -0.10240915
000080 e0 5e d5 bd 88 8d a1 bd a6 67 a3 3d 32 98 98 bd
       -0.104184866 -0.07888323 0.07978754 -0.07450904
000090 75 21 12 3e 3a 45 d7 3d 02 8c f6 3d a3 f4 f5 bd
       0.14270575 0.10511251 0.12038423 -0.120095514
0000a0 5b 4c 02 3e 70 e4 4a bd dd 19 09 be 32 41 fd 3d
       0.1272444 -0.04953426 -0.13388772 0.12365951
0000b0 70 8b 62 3c f6 92 8e 3d 9c 56 33 3d fe da 9b bd
       0.01382719 0.06961624 0.04378377 -0.07610129
0000c0 4e fe 0a be 3a ec d9 3d c0 cb 18 bd 31 da 5d bd
       -0.13573572 0.1064076 -0.037303686 -0.05416316
0000d0 00 cb 73 ba c5 fa 3e be e9 9e eb bd d8 7a 8d 3d
       -0.0009299964 -0.18650348 -0.11504919 0.06908196
0000e0 0d 1c 9f 3d e5 25 e5 bd 4b 20 8a 3c 5b a9 04 3e
       0.07769022 -0.111888684 0.016861102 0.12955229
0000f0 b0 74 f1 3d 53 94 16 3d 5e 02 00 3d 76 93 ad 3d
       0.117898345 0.036762547 0.031252258 0.084753916
000100 e6 2e 10 be b1 c8 07 3e 2f cb 07 3e 89 04 ce 3d
       -0.1408039 0.13260151 0.13261102 0.10059459
000110 5b 0a 16 3e d6 dc 43 bd 86 83 93 bd 09 7c 1d 3d
       0.14652388 -0.047818027 -0.072028205 0.038448367
000120 b0 80 5e 3c 85 76 11 3d 10 aa c7 bd 22 45 a6 3d
       0.013580486 0.03551342 -0.09749234 0.08118655
000130 06 21 f4 3d be a1 1e 3e 70 95 71 3d 16 48 be 3d
       0.11920361 0.15491387 0.058980405 0.09291093
000140 cd cc 8d bd 87 0c e3 bd 42 9e 0c be 3d 8a 0f 3e
       -0.06923828 -0.11086374 -0.13732246 0.14017577
000150 e9 de 12 3e 0a 5c ec 3d 0b a4 f4 bd a0 b7 93 bd
       0.14342846 0.115409926 -0.11945351 -0.07212758
000160 02 2b b4 3d f9 31 3e 3e f3 59 87 3d bb 1c 91 bd
       0.087972656 0.1857375 0.06608953 -0.07085558
000170 60 59 fb bd e4 5d ed 3d ca de 8a 3d 12 f1 be bd
       -0.12272906 0.11590174 0.06780775 -0.09323324
000180 a1 5c b0 3d 34 d1 c6 3d ca da 01 3e b9 db 25 3e
       0.086114176 0.09707871 0.12681118 0.16197099
000190 38 f9 d6 3d 30 29 24 3e 04 7b a5 bd 08 37 05 3d
       0.104967535 0.16031337 -0.08080104 0.032523185
0001a0 0a 51 dd 3d 34 62 79 3d d8 70 a2 bd 17 d2 d4 bd
       0.108064726 0.06088467 -0.079316795 -0.10391634
0001b0 dd eb 27 3e 1f 5f dd bd 88 d2 ff bd b3 88 0c be
       0.16398568 -0.108091585 -0.124913275 -0.13724022
0001c0 5e de 8d bd f9 8b 27 be a1 81 05 3e a0 19 63 bd
       -0.06927179 -0.16361989 0.13037731 -0.05544436
0001d0 d8 4f 18 be 16 5a 17 be f1 4c 7c bd b3 76 1d be
       -0.14874208 -0.14780459 -0.061596815 -0.15377311
0001e0 60 1a 0d bd 68 d4 e1 3c cf 43 23 3e ee 23 c4 bd
       -0.03444898 0.027567104 0.15943836 -0.095771655
0001f0 16 81 cf 3d cf af cb 3a af 4e 7c bc 84 cc 55 3d
       0.10132043 0.0015540066 -0.015399619 0.052196994
000200 7e 39 52 3c 10 8a 1d bd 73 d2 d5 bd a9 02 5a 3b
       0.01283109 -0.038461745 -0.10440531 0.0033265746
000210 e2 90 b1 bd 46 6a 18 be 68 ec 8c 3d 80 c3 1e 3c
       -0.08670212 -0.1488429 0.068810284 0.0096901655
000220 34 7d 10 be 00 48 73 3d 35 89 32 3d 97 46 b8 3c
       -0.14110261 0.059394836 0.043587882 0.022494597
000230 cc 29 15 bd 18 38 a8 3d 78 8c 8d 3d b9 dc 32 be
       -0.036416814 0.08213824 0.06911558 -0.17467012

out.bias f4 [4]
000000 83 12 bd 3d bc 7f f7 3c 0c ae d1 bd 6e 3d 91 3d
       0.092320465 0.030212276 -0.10238275 0.07091795
