Lunar Lander V2 Hau Zheng Yi/models/episode_100.pth (torch, 9503 bytes, 6 tensors)

fc1.weight f4 [36, 8]
0.32120523 0.2676116 0.46656734 -0.120981626 1.00198 1.2391181 -0.28696814 0.24700522
-1.0949954 -3.3192165 0.91128784 0.47468653 -0.38260683 0.96219003 0.25228688 0.7438094
0.74836355 0.3999598 -1.6059995 -0.48971966 0.84364575 0.010144451 -0.64744455 -0.44190425
0.43648726 0.7293448 -0.7666133 -0.72264796 -0.705133 -1.5664039 -0.78742796 -1.2951918
-0.14738554 -0.656363 -0.28923672 -0.18704922 0.76989996 1.2458736 -0.00054607674 -1.0106823
0.3125075 0.62381124 0.08886821 0.8536479 0.550882 1.0956787 0.018083297 -0.29639214
-0.72563094 -1.0822484 0.112087466 -0.13489458 0.43667087 0.6487446 0.21948959 0.4893224
-0.9895652 -1.370903 -0.7802787 -0.2016848 0.5047218 0.5148417 0.49351183 0.034070782
-0.15602352 0.84924835 -0.7879562 -0.3322319 -0.7216261 -1.3797143 -0.5282646 0.33901173
0.27427062 -0.3285552 -0.26659298 -0.663363 0.5995182 1.2782081 0.65262896 0.14323322
0.19218981 1.364397 -0.6416099 -0.17472066 -0.14880425 -1.832974 -1.45069 -0.74947625
-0.6737538 -0.06218114 -0.71274894 0.24703194 0.53988004 0.6395911 0.10749149 -0.9222192
-0.49378997 0.097244225 -0.3498225 -0.016969424 1.1011204 1.0287495 0.21880496 -1.0345224
-0.46581993 -0.025408179 0.3944195 0.75160444 -1.1082941 -0.9388282 -0.034228396 1.5651983
0.005683041 0.16292778 0.32441184 -0.7637711 1.155292 -0.4058871 0.43385884 -1.0621912
0.8444797 0.10331951 -1.6496016 -0.24553016 0.48423538 0.880277 0.47431606 0.89721394
-1.3603944 -3.4814076 0.95682704 0.20000269 -0.0071644466 -0.0009879404 0.1516908 -0.5976275
0.96432626 -0.5324891 0.4687589 -0.24269876 -1.0924706 -1.034304 0.5207654 0.95281774
-0.09884752 0.12327775 -0.39996937 -0.2914732 0.5155711 0.5158096 -0.1567695 0.37750894
-0.97836334 -1.7212833 -0.3051487 -0.33320573 0.84539956 0.15114368 0.5970539 -0.15925023
0.48474774 -0.45843753 -0.11444343 0.44939587 0.89939 1.0797932 0.47757286 0.46356198
0.06812104 1.5214112 0.20569524 0.025280217 1.0956917 2.1324298 0.3095744 -0.66520894
-0.9668437 -0.61653656 -0.4361455 -0.5682239 -0.44847453 0.7591279 -0.28338426 0.008520428
-0.06855962 -0.34698066 0.20988683 0.041414186 0.13569444 0.94920903 0.6724797 1.2762357
-0.8274923 -1.4708315 0.29868674 -0.27256 0.8543884 0.37055743 -0.023116175 -0.27272448
-0.09232616 1.1388352 -0.22298647 -0.26376545 -0.7169864 -0.7214567 -1.486722 0.67861867
-0.7030382 -1.8590955 -0.70365137 -0.5917001 0.11242008 -0.3280019 -0.6072383 1.1301744
-0.057235148 -0.20647743 0.2923495 -0.12148004 0.46651953 1.3688575 0.7908711 0.48773628
0.10136631 0.026085202 0.43732446 0.35858998 0.13450615 1.0786737 0.63582706 1.0301112
-1.0345583 -1.2366868 -0.8049405 -0.23817652 0.16882698 0.0941744 0.09563697 0.960144
-0.7620295 -3.118156 -0.1298654 0.63207376 -0.50294006 0.70323706 0.04902912 0.73691285
-0.43484062 -1.0194688 -0.4676335 -0.043840855 0.73888886 0.10771423 0.5713334 0.2927121
00000000: 0375 a43e 6304 893e eae1 ee3e 37c5 f7bd
00000010: e140 803f 6c9b 9e3f 7ded 92be f0ee 7c3e
00000020: cf28 8cbf 0b6e 54c0 294a 693f 1d0a f33e
00000030: 0be5 c3be 1652 763f bf2b 813e 4b6a 3e3f
00000040: c194 3f3f 88c7 cc3e 6491 cdbf 89bc fabe
00000050: 2bf9 573f e934 263c edbe 25bf 4641 e2be
00000060: 427b df3e 57b6 3a3f c540 44bf 75ff 38bf
00000070: 9983 34bf ec7f c8bf e194 49bf d8c8 a5bf
00000080: 3cec 16be 6807 28bf d616 94be d589 3fbe
00000090: 2a18 453f c978 9f3f 9726 0fba 0a5e 81bf
000000a0: fc00 a03e 18b2 1f3f 8900 b63d ab88 5a3f
000000b0: 9a06 0d3f 333f 8c3f 6c23 943c b6c0 97be
000000c0: f3c2 39bf 1e87 8abf 1d8e e53d ce21 0abe
000000d0: 5393 df3e 2014 263f e1c1 603e 7788 fa3e
000000e0: 2554 7dbf c079 afbf 58c0 47bf 7686 4ebe
000000f0: 7335 013f aacc 033f 95ad fc3e ce8d 0b3d
00000100: a1c4 1fbe 5768 593f 7fb7 49bf 4d1a aabe
00000110: 7dbc 38bf 7a9a b0bf 593c 07bf f292 ad3e
00000120: 336d 8c3e 6338 a8be e07e 88be 28d2 29bf
00000130: 067a 193f 539c a33f b112 273f bbab 123e
00000140: 68cd 443e 90a4 ae3f 8c40 24bf f9e9 32be
00000150: 2460 18be e49e eabf 36b0 b9bf addd 3fbf
00000160: 217b 2cbf a7b1 7ebd b776 36bf f1f5 7c3e
00000170: 9435 0a3f 3ebc 233f 8024 dc3d 8f16 6cbf
00000180: 0ad2 fcbe fb27 c73d ef1b b3be 7603 8bbc
00000190: 83f1 8c3f 10ae 833f 680e 603e 3b6b 84bf
000001a0: f37f eebe d024 d0bc 5af1 c93e 2669 403f
000001b0: 95dc 8dbf 0b57 70bf 1333 0cbd 6b58 c83f
000001c0: ce38 ba3b 8ad6 263e 4f19 a63e 8186 43bf
000001d0: 9ce0 933f 6fd0 cfbe bf22 de3e e2f5 87bf
000001e0: d22f 583f 2e99 d33d 2526 d3bf 426c 7bbe
000001f0: b3ed f73e d559 613f 8ed9 f23e d0af 653f
00000200: 6721 aebf 62cf 5ec0 9ef2 743f 81cd 4c3e
00000210: bcc3 eabb c77d 81ba d554 1b3e 1efe 18bf
00000220: 16de 763f 3551 08bf 2b01 f03e 0686 78be
00000230: 14d6 8bbf 1364 84bf e250 053f ddeb 733f
00000240: 9270 cabd 0c79 fc3d c9c8 ccbe fa3b 95be
00000250: 78fc 033f 190c 043f 2f88 20be da48 c13e
00000260: 0576 7abf 0353 dcbf 733c 9cbe f199 aabe
00000270: 1b6c 583f 69c5 1a3e 86d8 183f 7e12 23be
00000280: db30 f83e 53b8 eabe 5161 eabd 3717 e63e
00000290: 6c3e 663f aa36 8a3f 6e84 f43e ff57 ed3e
000002a0: 0b83 8b3d 9abd c23f c6a1 523e 7518 cf3c
000002b0: a03f 8c3f bb79 0840 8980 9e3e 224b 2abf
000002c0: 1283 77bf 57d5 1dbf 774e dfbe 1f77 11bf
000002d0: 749e e5be 3556 423f be17 91be 4499 0b3c
000002e0: fc68 8cbd 73a7 b1be 93ec 563e eca1 293d
000002f0: 7cf3 0a3e 5dff 723f a127 2c3f b15b a33f
00000300: 89d6 53bf 3544 bcbf 78ed 983e fc8c 8bbe
00000310: 33b9 5a3f b4b9 bd3e 225e bdbc 8ba2 8bbe
00000320: 7f15 bdbd 5ac5 913f 9156 64be 440c 87be
00000330: 6c8c 37bf 63b1 38bf e84c bebf f4b9 2d3f
00000340: 50fa 33bf d7f6 edbf 7f22 34bf a879 17bf
00000350: 803c e63d ddef a7be f873 1bbf 8ea9 903f
00000360: 676f 6abd d26e 53be d5ae 953e 87ca f8bd
00000370: a6db ee3e b936 af3f 8776 4a3f 92b8 f93e
00000380: 2499 cf3d a2b0 d53c fee8 df3e 1b99 b73e
00000390: fbbb 093e fb11 8a3f 90c5 223f afda 833f
000003a0: 686c 84bf c14b 9ebf 9510 4ebf 8ce4 73be
000003b0: fbe0 2c3e 82de c03d 51dd c33d ffcb 753f
000003c0: 5e14 43bf de8f 47c0 6ffb 04be 96cf 213f
000003d0: aec0 00bf 5807 343f c2d2 483d 52a6 3c3f
000003e0: 6ea3 debe f47d 82bf a86d efbe 7892 33bd
000003f0: d227 3d3f 4799 dc3d e842 123f 5cde 953e

fc1.bias f4 [36]
0.12961116 0.6610272 -0.6580753 0.26139814 0.1743349 0.76025563 0.6771799 0.363237
0.92591256 -0.1928654 0.41148704 0.15339297 0.08078318 0.60297 -0.357284 -0.57461035
0.18136035 0.36413026 0.7720188 0.01239626 0.21858431 1.6572288 0.64024687 0.6193773
1.0724376 0.36402884 0.81211126 0.46534035 0.6697971 0.6860514 0.25174835 0.61688256
0.36514947 -0.40219375 0.3357499 0.19179043
00000000: cab8 043e 1439 293f 9f77 28bf fad5 853e
00000010: d984 323e 1da0 423f a95b 2d3f 33fa b93e
00000020: 9b08 6d3f 827e 45be 6eae d23e 0c13 1d3e
00000030: a771 a53d 3e5c 1a3f eeed b6be aa19 13bf
00000040: 87b6 393e 486f ba3e 06a3 453f af19 4b3c
00000050: 91d4 5f3e 1320 d43f 38e7 233f 838f 1e3f
00000060: a345 893f fd61 ba3e 86e6 4f3f 1741 ee3e
00000070: d377 2b3f 11a1 2f3f 29e5 803e 04ec 1d3f
00000080: dff4 ba3e 57ec cdbe 69e7 ab3e b664 443e

fc2.weight f4 [36, 36]
-0.12673551 0.043882295 0.09254344 -0.10609023 -0.05989246 -0.079895936 -0.10847106 0.05665165
-0.07447662 -0.009824872 -0.00550963 0.08481778 0.04692316 -0.13371217 0.04793638 -0.09874487
-0.05663707 0.06086792 -0.13800457 -0.013183162 -0.13785093 -0.12061095 0.05282916 0.06744079
-0.100546345 -0.16168654 -0.08167873 0.05187653 -0.14208049 0.118654504 0.026048169 -0.101602435
-0.10517137 -0.09113091 0.09614827 -0.09032993 1.0918812 0.3614547 -2.1329377 1.0769727
0.5825575 -0.4570065 -0.22429673 -0.9260532 0.539827 0.34256676 0.04849388 -0.22164656
1.1158581 1.1609967 0.3961742 -1.3431513 -0.4577675 1.0624344 0.23716232 -1.3843206
0.1796198 -0.3236372 -0.37303826 0.25358248 -1.062181 -0.059708558 -0.030318642 0.77987725
-0.11123891 -0.9717427 -0.16396378 -0.43510607 -1.1774266 -1.68735 0.27815968 -0.74880487
1.6180638 0.8888546 -0.6181703 1.002313 -3.3520255 -0.098518915 -1.0565963 -0.88140744
0.67475986 -0.7237124 0.6978587 0.036309883 1.2067357 1.2954097 -2.4836826 -2.0200067
-0.02419957 1.2004902 -1.1539028 -1.5077245 -2.9758205 -0.18767287 -0.5619959 0.7299923
-1.4926792 0.9812636 0.104416825 1.5096296 0.7210189 -0.48605627 -0.05684608 -1.2051023
-0.9023237 -0.18891098 0.80155206 -0.99918926 0.3800944 -1.2810187 -0.9614477 -0.35150045
0.4041954 0.45124537 0.058923975 0.7791135 -0.2152406 -0.18512347 -0.56745946 0.909833
0.6260337 -0.1776625 -0.9886569 -0.24534081 -2.0645154 0.6984106 0.39678362 0.55030257
0.09633029 0.54948574 0.5226441 0.33294263 0.19426899 0.0039188867 0.47508827 0.50653756
0.2587199 0.6458102 -0.85498995 0.25255808 0.258399 -0.8230389 0.06381294 -0.06405537
0.072491325 0.22027774 1.1639972 -0.17345242 -0.36120474 0.3025454 -0.11629443 -0.32608822
-0.1558011 0.40473887 0.1602707 -0.20081758 -0.34180832 0.28611526 0.8366005 0.8366913
0.492011 -0.87204784 0.07339523 -0.22929785 0.32149437 0.6031144 0.025441524 0.31978443
-0.004991091 0.32542017 -0.6404377 0.08937964 0.31806856 -0.15220308 -0.12909152 -0.12511349
0.050822593 0.61794955 0.20600496 0.21110201 0.63471335 -2.2051916 -1.1918424 -3.2152495
0.08667079 0.2704816 0.5845202 0.40911415 -2.412287 0.42472112 -2.0455918 0.023399942
0.30678132 -2.0531437 -1.1789815 0.32149065 -1.726328 0.24781412 0.43237323 0.3758898
0.79736984 0.5774261 0.4385978 0.75931686 0.34011605 -0.5591034 0.58672976 0.8319196
1.0201766 0.75289834 -2.5053298 0.36856613 0.23999964 0.120215565 -2.5083897 0.34457886
0.33637226 -2.264448 -1.098282 -2.4906237 0.2265705 0.6030419 0.49191517 0.61900735
-1.3540492 0.40949637 -1.6194297 0.5661988 0.41765162 -1.7687001 -0.6808347 -0.24380785
-1.4576544 0.17230032 0.46588245 0.6502825 0.24776852 0.6006971 0.5927131 0.55960625
0.56320816 -0.327387 0.31127468 0.44409305 0.55254376 0.5261734 -2.5098586 0.33985364
0.45892042 0.009722548 -2.3830612 0.68988246 -0.40739492 2.0105221 1.943996 0.7086315
00000000: f4c6 01be ecbd 333d 6a87 bd3d d645 d9bd
00000010: cc51 75bd 7ba0 a3bd 1326 debd 900b 683d
00000020: 3387 98bd 80f8 20bc 208a b4bb f2b4 ad3d
00000030: 8032 403d d8eb 08be f058 443d c03a cabd
00000040: 46fc 67bd a450 793d 1251 0dbe 30fe 57bc
00000050: cb28 0dbe e002 f7bd 6463 583d 661e 8a3d
00000060: 3eeb cdbd 2891 25be 2e47 a7bd 7c7c 543d
00000070: 8c7d 11be 2201 f33d f862 d53c f014 d0bd
00000080: 1664 d7bd d8a2 babd 62e9 c43d e6fe b8bd
00000090: c3c2 8b3f 9710 b93e 0d82 08c0 3eda 893f
000000a0: 7d22 153f c2fc e9be 0bae 65be d311 6dbf
000000b0: 1a32 0a3f e964 af3e 85a1 463d 51f7 62be
000000c0: 70d4 8e3f 8a9b 943f 58d7 ca3e 62ec abbf
000000d0: 8060 eabe dafd 873f aeda 723e 6b31 b1bf
000000e0: 41ee 373e c6b3 a5be dffe bebe 90d5 813e
000000f0: 8cf5 87bf f690 74bd cd5e f8bc 09a6 473f
00000100: 3ad1 e3bd 21c4 78bf 1fe6 27be 39c6 debe
00000110: eab5 96bf 16fb d7bf f26a 8e3e adb1 3fbf
00000120: b71c cf3f fa8b 633f 6940 1ebf cb4b 803f
00000130: 9687 56c0 49c4 c9bd 8c3e 87bf eba3 61bf
00000140: 10bd 2c3f 3745 39bf dea6 323f acb9 143d
00000150: 5176 9a3f fccf a53f a8f4 1ec0 ca47 01c0
00000160: 2d3e c6bc aaa9 993f 16b3 93bf 1efd c0bf
00000170: d873 3ec0 512d 40be f7de 0fbf c6e0 3a3f
00000180: 1d10 bfbf 1734 7b3f 7dd8 d53d 8b3b c13f
00000190: b294 383f 5edc f8be 6fd7 68bd cb40 9abf
000001a0: b0fe 66bf e171 41be 8432 4d3f deca 7fbf
000001b0: bc9b c23e 6cf8 a3bf 7021 76bf def7 b3be
000001c0: b3f2 ce3e a209 e73e 445a 713d fb73 473f
000001d0: 0868 5cbe 0291 3dbe 0645 11bf d1ea 683f
000001e0: bf43 203f 29ed 35be 9e18 7dbf 9f3a 7bbe
000001f0: 0521 04c0 09cb 323f 3927 cb3e a1e0 0c3f
00000200: d148 c53d 19ab 0c3f 01cc 053f 7577 aa3e
00000210: 73ee 463e 016a 803b c53e f33e 72ac 013f
00000220: ef76 843e d153 253f 9fe0 5abf 4b4f 813e
00000230: e04c 843e adb2 52bf 5cb0 823d 762f 83bd
00000240: 5576 943d 7d90 613e dcfd 943f 839d 31be
00000250: d4ef b8be 3be7 9a3e c62b eebd 09f5 a6be
00000260: 538a 1fbe ef39 cf3e 011e 243e 20a3 4dbe
00000270: 8001 afbe b37d 923e 732b 563f 6731 563f
00000280: dee8 fb3e 873e 5fbf 3d50 963d 0ecd 6abe
00000290: e99a a43e b565 1a3f be6a d03c c9ba a33e
000002a0: 4e8c a3bb 799d a63e baf3 23bf ac0c b73d
000002b0: e2d9 a23e 20db 1bbe 9130 04be c01d 00be
000002c0: 5a2b 503d f131 1e3f f7f2 523e 202b 583e
000002d0: 937c 223f dc21 0dc0 4b8e 98bf a6c6 4dc0
000002e0: 7580 b13d 907c 8a3e 1ea3 153f 6977 d13e
000002f0: e962 1ac0 0c75 d93e faea 02c0 3cb1 bf3c
00000300: 7112 9d3e b566 03c0 dee8 96bf 6c9a a43e
00000310: 51f8 dcbf fcc2 7d3e 0660 dd3e a174 c03e
00000320: 6e20 4c3f 32d2 133f e48f e03e 9762 423f
00000330: b123 ae3e 6721 0fbf ec33 163f aff8 543f
00000340: 2695 823f f2bd 403f 5357 20c0 b3b4 bc3e
00000350: 77c2 753e 9433 f63d 7589 20c0 a46c b03e
00000360: fc38 ac3e b7ec 10c0 8194 8cbf 6166 1fc0
00000370: 1902 683e f460 1a3f 4edc fb3e 4477 1e3f
00000380: 7c51 adbf 82a9 d13e 7949 cfbf 68f2 103f
00000390: 6fd6 d53e c464 e2bf 2f4b 2ebf c4a8 79be
000003a0: 6b94 babf 7f6f 303e 2588 ee3e ea78 263f
000003b0: 08b7 7d3e 49c7 193f 0cbc 173f 5b42 0f3f
000003c0: 692e 103f 459f a7be 655f 9f3e 2a60 e33e
000003d0: 8273 0d3f 4db3 063f 86a1 20c0 4c01 ae3e
000003e0: 9ef7 ea3e 524b 1f3c 1384 18c0 239c 303f
000003f0: 1196 d0be 65ac 0040 dcd4 f83f e068 353f

fc2.bias f4 [36]
-0.049363777 0.4084171 0.4814519 0.9188857 0.14646743 0.5044853 1.1540244 0.26871666
0.61968774 0.55682147 0.21041545 -0.10622755 0.5302151 0.3794627 0.12127618 0.87191427
0.04595548 -0.06480039 0.84512687 0.08292484 0.4167834 0.6862798 -0.32333773 -0.070796214
0.16685326 0.53092176 1.0278491 0.592212 0.62416667 -0.016236654 0.27202517 0.54184777
0.006012185 0.29774746 -0.053168666 0.5193064
00000000: ac31 4abd 0c1c d13e dd80 f63e 183c 6b3f
00000010: 8ffb 153e f325 013f 12b7 933f 3b95 893e
00000020: dba3 1e3f da8b 0e3f 2677 573e d48d d9bd
00000030: 2dbc 073f ef48 c23e a55f f83d c635 5f3f
00000040: d03b 3c3d 11b6 84bd 3c5a 583f 80d4 a93d
00000050: a264 d53e 08b0 2f3f 868c a5be 9bfd 90bd
00000060: 95db 2a3e 7dea 073f 8f90 833f 359b 173f
00000070: 63c9 1f3f bb02 85bc e246 8b3e 89b6 0a3f
00000080: dd01 c53b 5b72 983e 63c7 59bd 44f1 043f

out.weight f4 [4, 36]
0.10550703 -1.4132229 -1.2925756 -0.50065744 0.23499107 -0.6304254 -0.82000303 0.6479846
-0.73997027 -0.75938535 -1.5743887 0.01800339 0.26523644 1.0778692 -0.4225055 -0.6526397
1.5271188 0.90504754 -0.76001585 0.16559562 -1.2960019 -0.5000783 0.9584925 0.92983127
1.7305139 -0.70661896 -0.85059404 1.3943259 -0.48378143 0.04018371 0.88072824 -0.9323756
-0.086863 -1.2674212 0.07978754 -0.53048295 0.14270575 -1.8135644 -0.7659663 -0.84007657
0.8792066 -0.6780673 -0.9284357 1.161667 -0.63258255 -0.41222978 -1.6847076 -0.07610129
0.39258692 1.2568842 -0.5796294 -0.69395685 0.59973955 -0.27796698 -0.86677366 -0.42788583
-1.1889223 -0.74367183 0.044931196 1.0851353 1.2838992 -0.5795298 -0.76731426 0.83167714
-0.6943956 0.060957264 1.7388678 -0.44848326 0.14652388 -1.0763134 -0.031705774 -0.4308111
0.013580486 -0.07006684 -1.5449929 -0.8073098 0.50170296 -0.560885 -0.38893956 1.043234
-0.97421455 -0.9402449 -1.4637921 0.14017577 1.3438839 1.1224424 -0.94694334 -0.93616265
1.2110416 1.1049849 -0.4290163 -0.7739332 -1.6510075 -0.36299753 1.0147136 0.51319116
1.2263799 -0.4759667 -0.3571017 1.9163271 -0.36200213 0.22913903 0.42903712 -1.0553094
0.108064726 -1.1240034 -0.04755426 -1.0931336 0.16398568 -1.2165549 -1.7368772 -0.45264342
-0.094753504 -1.1986626 -0.21872419 1.3695968 -0.8400063 -0.68263716 -1.2557981 -0.15377311
-0.37600014 0.8367898 0.07618961 -0.6173885 1.6122903 -1.4110217 -0.6546642 0.6255241
-1.1275553 -0.7591498 -1.5612472 1.1502 2.0530293 -1.2502888 -0.2724177 0.75912875
-1.2281451 0.074574634 1.2297714 -0.37807268 -0.036416814 -1.8148328 0.06911558 -0.6293278
00000000: 1214 d83d 7de4 b4bf 1e73 a5bf 162b 00bf
00000010: 80a1 703e 8f63 21bf b8eb 51bf 52e2 253f
00000020: b16e 3dbf 1467 42bf 9285 c9bf d87b 933c
00000030: 12cd 873e 9ef7 893f a452 d8be 6513 27bf
00000040: a178 c33f 32b1 673f 6690 42bf e691 293e
00000050: 64e3 a5bf 2205 00bf c45f 753f 6c09 6e3f
00000060: 7b81 dd3f fbe4 34bf 88c0 59bf 4579 b23f
00000070: 33b2 f7be ad97 243d 6877 613f 2bb0 6ebf
00000080: 3be5 b1bd dc3a a2bf a667 a33d bbcd 07bf
00000090: 7521 123e e122 e8bf 5e16 44bf 420f 57bf
000000a0: af13 613f d295 2dbf f6ad 6dbf 81b1 943f
000000b0: eef0 21bf c80f d3be 80a4 d7bf feda 9bbd
000000c0: 2701 c93e 95e1 a03f 9862 14bf 28a7 31bf
000000d0: 8888 193f b051 8ebe e1e4 5dbf da13 dbbe
000000e0: 9b2e 98bf 4761 3ebf c609 383d b7e5 8a3f
000000f0: cf56 a43f 115c 14bf b56e 44bf cbe8 543f
00000100: e9c3 31bf 53ae 793d 3893 de3f 999f e5be
00000110: 5b0a 163e a3c4 89bf eadd 01bd 4693 dcbe
00000120: b080 5e3c 347f 8fbd 54c2 c5bf dbab 4ebf
00000130: 9b6f 003f 2996 0fbf 1623 c7be b188 853f
00000140: 2066 79bf e4b3 70bf 8a5d bbbf 3d8a 0f3e
00000150: 6304 ac3f 31ac 8f3f e16a 72bf 5ba8 6fbf
00000160: 6903 9b3f 2570 8d3f 06a8 dbbe 7c20 46bf
00000170: 3754 d3bf d0da b9be 23e2 813f 7f60 033f
00000180: 04fa 9c3f e8b1 f3be 09d6 b6be 354a f53f
00000190: 5858 b9be 6ca3 6a3e c1aa db3e 6114 87bf
000001a0: 0a51 dd3d 58df 8fbf 41c8 42bd cdeb 8bbf
000001b0: ddeb 273e 12b8 9bbf fe51 debf e1c0 e7be
000001c0: 200e c2bd c76d 99bf 3cf9 5fbe f34e af3f
000001d0: a70a 57bf 4fc1 2ebf febd a0bf b376 1dbe
000001e0: 1783 c0be db37 563f 4c09 9c3d 2c0d 1ebf
000001f0: 875f ce3f 5c9c b4bf 1398 27bf 5922 203f
00000200: bb53 90bf a457 42bf f3d6 c7bf c139 933f
00000210: d564 0340 7709 a0bf 557a 8bbe 4356 423f
00000220: dc33 9dbf 96ba 983d 2669 9d3f be92 c1be
00000230: cc29 15bd 714c e8bf 788c 8d3d a01b 21bf

out.bias f4 [4]
-0.29241928 -0.11347519 0.07308643 0.048911482
00000000: fbb7 95be ae65 e8bd 57ae 953d 6857 483d
