Lunar Lander V2 Hau Zheng Yi/models/episode_250.pth (torch, 9503 bytes, 6 tensors)

fc1.weight f4 [36, 8]
1.068338 0.45234513 1.0599822 -0.3840393 0.1966488 1.3767138 -1.1145134 0.04596308
-0.50357133 -1.254651 -0.1882808 -1.162002 0.2399306 0.9799492 0.23652755 0.32647583
0.87311083 0.36979073 -0.48658642 -1.0087243 1.6233989 0.3116355 -0.6014553 -0.08729172
-0.11590519 0.93047255 -0.9731387 -0.20374227 -0.41747236 -1.0043582 -1.2506983 -1.3256675
0.2822558 -0.38603523 -0.64584494 -0.75451154 1.0116086 0.77739215 0.33472058 -1.4859972
0.8330507 0.30883506 0.9036867 1.9797751 -0.49691722 0.63369113 0.38416818 -0.5937282
-1.5618024 -0.15031154 -0.38003385 -0.14318864 -0.039328832 0.6601221 0.47613236 0.8779603
-1.3981328 -0.80797994 -1.6929494 -0.7297082 0.9001175 0.9838004 0.66273063 0.36298802
-0.17150827 1.3381256 -0.21386181 -0.42472324 -0.45840946 -1.3638886 -0.055624176 0.12402395
0.36912662 -0.040072918 -0.12118648 -0.8752962 1.3411493 1.7520028 0.2861226 -0.024348013
0.09933257 1.2905729 -0.53666943 -0.16930188 0.38627508 -2.7043772 -2.0619798 -1.6384169
-1.3120098 0.6185276 -1.5082963 1.283979 1.0907491 0.8192753 0.13775684 -0.6796288
-0.544456 0.09952173 0.25515407 -0.02899922 1.6188618 2.0415273 0.17926985 -1.0221394
0.17164776 -0.13557875 0.5525796 1.7753297 -0.9774618 -1.3467721 -0.07928194 1.2597703
-0.6776898 0.2690261 1.1010306 -0.22962017 0.010231102 0.6363519 0.7709206 -1.4051802
1.118976 0.34309024 -0.6225694 -1.8007587 1.2761508 0.50857276 0.5287481 1.3639874
-1.5020775 -2.6051552 0.85064304 0.66106635 0.17576343 -0.70954204 -0.49028426 -0.51595986
1.2950276 -2.373642 0.27903253 -1.4362655 -0.9607333 -1.8202249 -0.09072429 1.1151978
-0.30070707 -0.043443818 -0.42966115 -0.10367564 0.12591594 0.7755267 0.10363542 1.0588605
-1.4714487 -1.5078425 -0.69176716 -0.62605584 1.0953116 0.07787702 0.63450974 0.14281294
0.061851412 -0.07765754 2.3278244 1.0378869 0.28441975 -0.03513697 1.1512742 1.0405153
0.31488797 1.3181437 0.17784701 0.01508614 0.8949205 1.9689591 0.2444141 -1.0975713
-1.4263731 -0.18824683 -2.1429856 -0.51175135 -0.5074585 0.7587092 0.40046108 0.5341302
-0.44645965 -0.38508603 1.3916969 0.21364093 -1.044477 0.20700257 0.22690223 1.1321846
-0.418382 -0.88491553 -0.001895827 -0.7358232 1.6818275 -0.23200299 -0.0554633 -0.4259793
-0.029084673 1.4107027 0.78993535 -0.5504441 -0.45717677 -0.67393667 -2.1157055 0.5929614
-1.3053149 -2.0295336 -1.1551381 -0.7541143 0.5606504 0.19184946 -0.31575155 1.2632874
-0.49046278 -1.0144482 0.16535176 -0.65167594 -0.78003496 1.2404975 0.10919184 0.08348927
-0.06271665 0.07977145 1.9215931 1.0381712 -1.6094259 0.11568834 0.19883694 0.42037416
-1.3843004 -1.1586108 -1.3329958 -0.6564043 0.5589436 0.43781394 0.30205205 1.2413368
-0.6093331 -0.8772946 -1.0294205 -0.56044084 -0.3485965 0.48888692 -0.6814681 0.35457912
-0.5022997 -0.28216428 -0.41915843 -0.47717625 2.318326 0.29111925 1.2613395 0.8727365
00000000: 4dbf 883f c899 e73e 7fad 873f cda0 c4be
00000010: 4e5e 493e 2838 b03f 60a8 8ebf c843 3c3d
00000020: 0dea 00bf 6798 a0bf afcc 40be 7bbc 94bf
00000030: 5eb0 753e f3dd 7a3f 4734 723e d727 a73e
00000040: 3184 5f3f 3655 bd3e db21 f9be e11d 81bf
00000050: 89cb cf3f b08e 9f3e f9f8 19bf 00c6 b2bd
00000060: b35f edbd 7333 6e3f 9e1f 79bf d0a1 50be
00000070: f0be d5be cf8e 80bf e216 a0bf 79af a9bf
00000080: d583 903e 69a6 c5be 1856 25bf ab27 41bf
00000090: 647c 813f 2c03 473f 7f60 ab3e 2835 bebf
000000a0: d042 553f a11f 9e3e 0358 673f 4569 fd3f
000000b0: ef6b febe 9539 223f b1b1 c43e 92fe 17bf
000000c0: 24e9 c7bf 45eb 19be cc93 c2be 0ba0 12be
000000d0: 4517 21bd c3fd 283f 9fc7 f33e 02c2 603f
000000e0: 04f6 b2bf c6d7 4ebf 91b2 d8bf 28ce 3abf
000000f0: 1a6e 663f 58da 7b3f b7a8 293f 91d9 b93e
00000100: dd9f 2fbe b347 ab3f 97fe 5abe 5375 d9be
00000110: a5b4 eabe e793 aebf 2dd6 63bd 4500 fe3d
00000120: 2afe bc3e 8023 24bd 9e30 f8bd 6913 60bf
00000130: c8aa ab3f a141 e03f a97e 923e 7c75 c7bc
00000140: e06e cb3d 7e31 a53f 2b63 09bf 795d 2dbe
00000150: d9c5 c53e 8414 2dc0 7af7 03c0 a5b7 d1bf
00000160: f0ef a7bf d357 1e3f da0f c1bf 6d59 a43f
00000170: ab9d 8b3f 07bc 513f 2110 0d3e 27fc 2dbf
00000180: 7861 0bbf 0cd2 cb3d 8ea3 823e c68f edbc
00000190: dd36 cf3f 62a8 0240 8492 373e 77d5 82bf
000001a0: 6ec4 2f3e 28d5 0abe db75 0d3f 013e e33f
000001b0: f03a 7abf 0763 acbf 925e a2bd 2740 a13f
000001c0: 147d 2dbf cabd 893e 92ee 8c3f 8d21 6bbe
000001d0: 5aa0 273c f5e7 223f 0d5b 453f f2dc b3bf
000001e0: 9b3a 8f3f 86a9 af3e b560 1fbf 437f e6bf
000001f0: e958 a33f d331 023f 095c 073f 2497 ae3f
00000200: 1344 c0bf ddba 26c0 bec3 593f a53b 293f
00000210: 54fb 333e 8ca4 35bf 8a06 fbbe f215 04bf
00000220: 77c3 a53f c0e9 17c0 5add 8e3e 8cd7 b7bf
00000230: 9ef2 75bf 21fd e8bf a8cd b9bd cdbe 8e3f
00000240: 47f6 99be 25f2 31bd 8cfc dbbe e553 d4bd
00000250: 1cf0 003e eb88 463f cf3e d43d be88 873f
00000260: 6e58 bcbf fc00 c1bf a717 31bf 3245 20bf
00000270: 2c33 8c3f fd7d 9f3d 3b6f 223f 8e3d 123e
00000280: e857 7d3d eb0a 9fbd 13fb 1440 7ad9 843f
00000290: 779f 913e c9eb 0fbd f45c 933f 9b2f 853f
000002a0: ff38 a13e efb8 a83f 871d 363e db2b 773c
000002b0: 8319 653f da06 fc3f b147 7a3e 377d 8cbf
000002c0: 6593 b6bf c7c3 40be ad26 09c0 2302 03bf
000002d0: cde8 01bf c43a 423f 3c09 cd3e c2bc 083f
000002e0: 5c96 e4be ff29 c5be 2023 b23f b0c4 5a3e
000002f0: 6cb1 85bf 7bf8 533e 0f59 683e 6deb 903f
00000300: 2a36 d6be d389 62bf 667d f8ba e95e 3cbf
00000310: 2046 d73f 3192 6dbe 7c2d 63bd f519 dabe
00000320: fb42 eebc e891 b43f 3439 4a3f e8e9 0cbf
00000330: 1313 eabe 1d87 2cbf b867 07c0 51cc 173f
00000340: 8f14 a7bf e1e3 01c0 91db 93bf a20d 41bf
00000350: c986 0f3f 2f74 443e 30aa a1be 67b3 a13f
00000360: f01d fbbe 70d9 81bf f951 293e 3cd4 26bf
00000370: 5fb0 47bf 9fc8 9e3f f99f df3d 6cfc aa3d
00000380: 9671 80bd 375f a33d c3f6 f53f cbe2 843f
00000390: ab01 cebf 02ee ec3d e99b 4b3e 483b d73e
000003a0: c130 b1bf 5c4d 94bf 9b9f aabf 1d0a 28bf
000003b0: ee16 0f3f 2629 e03e 91a6 9a3e 20e4 9e3f
000003c0: 41fd 1bbf 6196 60bf 0dc4 83bf 0d79 0fbf
000003d0: 3e7b b2be 634f fa3e b274 2ebf 658b b53e
000003e0: b796 00bf d677 90be ef9b d6be 7250 f4be
000003f0: 745f 1440 950d 953e 9373 a13f a96b 5f3f

fc1.bias f4 [36]
0.412567 1.3383554 -0.60251945 0.017934492 0.10781409 1.1356238 0.44570127 0.06492622
1.3732262 -0.3227909 0.5964911 -0.06906146 -0.21338913 0.88695925 -0.49265394 -0.86988384
0.01931184 0.8217626 0.5269296 0.1247955 0.11233027 1.829963 0.2738628 0.61903876
0.7875 0.60178965 0.66811836 0.83052963 0.97576964 0.37014255 0.17488329 0.38716206
0.2812626 -0.7920049 0.37191263 0.14420164
00000000: fb3b d33e 3b4f ab3f b73e 1abf 5beb 923c
00000010: a2cd dc3d 1f5c 913f f532 e43e 0af8 843d
00000020: e0c5 af3f d944 a5be a4b3 183f 1870 8dbd
00000030: ae82 5abe c30f 633f 233d fcbe b5b0 5ebf
00000040: dd33 9e3c 095f 523f dce4 063f c894 ff3d
00000050: 6a0d e63d 3a3c ea3f bf37 8c3e 5379 1e3f
00000060: 9a99 493f e30e 1a3f ce09 2b3f 979d 543f
00000070: 0acc 793f 5383 bd3e 9b14 333e 1b3a c63e
00000080: a701 903e d5c0 4abf 556b be3e 98a9 133e

fc2.weight f4 [36, 36]
-0.12673551 0.043882295 0.09254344 -0.10609023 -0.05989246 -0.079895936 -0.10847106 0.05665165
-0.07447662 -0.009824872 -0.00550963 0.08481778 0.04692316 -0.13371217 0.04793638 -0.09874487
-0.05663707 0.06086792 -0.13800457 -0.013183162 -0.13785093 -0.12061095 0.05282916 0.06744079
-0.100546345 -0.16168654 -0.08167873 0.05187653 -0.14208049 0.118654504 0.026048169 -0.101602435
-0.10517137 -0.09113091 0.09614827 -0.09032993 1.4211315 0.9622691 -1.1169902 1.0089006
0.3484245 -0.2774959 0.0752875 -1.2144715 0.399944 0.9426708 -0.0034451797 -1.0546566
1.8741372 1.15525 -0.8348089 -1.6151732 -0.32087904 0.98233896 0.4778289 -1.21677
-0.6358621 -0.26531473 -1.1987325 0.29937714 -0.86934024 -0.09213974 0.35166672 1.0384885
0.40371686 -0.7905071 0.7898176 -1.4096526 -1.0395722 -2.5363364 -0.42365298 -0.8477593
2.1658652 0.798975 0.55330366 1.1765648 -6.461581 0.09275439 -0.7944619 0.66371506
0.7535403 -1.5538201 0.8857783 0.674993 2.189907 1.3766304 -1.9426522 -1.4248024
-0.58980227 1.5289907 -0.8724728 0.17440139 -3.971814 0.10921485 -0.48244283 0.8744677
-1.8837879 1.2167286 0.79059064 2.111652 0.70116264 0.32260874 -0.16825266 -1.689278
-1.3617004 -0.12768608 0.27113 -0.7500635 0.607639 -1.3710386 -0.86295843 -0.17243487
-0.50207037 0.22708546 0.41173968 1.654982 0.062902726 -0.84681195 -0.4828711 1.4440418
1.3257698 -0.054751176 -0.55186373 -0.6722443 -1.6020263 1.7299893 0.6026489 1.0371234
-0.4818085 0.5151205 0.86641514 0.34024513 -0.39774907 0.2824706 0.88377523 0.80077773
0.054481752 1.3071017 -0.18367669 0.36853674 0.00066279195 -1.5248505 -0.5060409 -0.7340706
-0.15126477 -0.07738001 0.949632 -0.04416944 -0.2584516 0.3475648 -0.25136307 -0.7120759
-0.10725006 0.5413245 0.33245465 -0.36636376 -0.9263181 0.11032173 0.87860894 0.5934245
-0.26969695 -2.143986 -0.12913427 -0.4257707 1.0390855 0.51816285 0.21982738 0.5012584
0.22357671 0.26249206 -0.8750585 -0.2625424 0.37200716 -0.43796262 -0.8390099 -0.022642989
1.0632596 1.3418537 0.38264027 0.79786247 0.70848507 -2.1088843 -1.435923 -4.043782
-0.0100355055 0.41563305 0.5939449 0.38553426 -3.5100937 0.36034995 -3.0320914 -0.0129797915
0.2946772 -2.2966049 -1.3407342 0.02619367 -1.0035379 -0.48240036 0.19193411 0.4024714
0.73186314 0.46429726 0.48651552 0.74987566 0.06768947 -1.754981 0.47251347 0.82071525
0.96865314 0.7047614 -2.006888 0.028528856 0.52246255 -0.18711978 -3.3700857 0.3335631
0.20239848 -2.1702526 -0.7500233 -1.1964223 -0.27655652 -0.45119777 0.70154965 1.0012789
-0.5423971 -0.12992984 -1.3767343 1.3446919 0.4794881 -1.4685159 -1.3825401 -0.01169811
-0.2985926 1.8410059 0.7045472 0.86786234 -0.5181923 0.37285197 1.4068996 0.17836161
0.32659942 -0.0670046 0.5537228 0.411863 -0.76184386 0.9600676 -2.1023147 0.45100808
0.86799145 -0.95410275 -3.1278937 0.036498256 -0.8157424 1.7353158 1.609846 0.49525946
00000000: f4c6 01be ecbd 333d 6a87 bd3d d645 d9bd
00000010: cc51 75bd 7ba0 a3bd 1326 debd 900b 683d
00000020: 3387 98bd 80f8 20bc 208a b4bb f2b4 ad3d
00000030: 8032 403d d8eb 08be f058 443d c03a cabd
00000040: 46fc 67bd a450 793d 1251 0dbe 30fe 57bc
00000050: cb28 0dbe e002 f7bd 6463 583d 661e 8a3d
00000060: 3eeb cdbd 2891 25be 2e47 a7bd 7c7c 543d
00000070: 8c7d 11be 2201 f33d f862 d53c f014 d0bd
00000080: 1664 d7bd d8a2 babd 62e9 c43d e6fe b8bd
00000090: a3e7 b53f 4557 763f 89f9 8ebf a823 813f
000000a0: b264 b23e f113 8ebe 5530 9a3d cd73 9bbf
000000b0: 76c5 cc3e e052 713f 86c8 61bb fdfe 86bf
000000c0: bae3 ef3f 3bdf 933f 09b6 55bf ffbd cebf
000000d0: 424a a4be 917a 7b3f fda5 f43e 1fbf 9bbf
000000e0: dcc7 22bf 55d7 87be 1170 99bf f647 993e
000000f0: 158d 5ebf c3b3 bcbd a90d b43e 31ed 843f
00000100: fab3 ce3e ac5e 4abf 7c31 4a3f 7f6f b4bf
00000110: b410 85bf 5653 22c0 0be9 d8be c106 59bf
00000120: 899d 0a40 a089 4c3f 4fa5 0d3f ad99 963f
00000130: 46c5 cec0 03f6 bd3d db61 4bbf 3be9 293f
00000140: 04e8 403f 94e3 c6bf 5ec2 623f 57cc 2c3f
00000150: 7027 0c40 6d35 b03f d4a8 f8bf ed5f b6bf
00000160: 48fd 16bf f8b5 c33f 615a 5fbf 4796 323e
00000170: 3332 7ec0 09ac df3d bf02 f7be 1ddd 5f3f
00000180: f61f f1bf c3bd 9b3f 2664 4a3f 4e25 0740
00000190: 657f 333f f92c a53e 6d4a 2cbe 433a d8bf
000001a0: 334c aebf 24c0 02be 8dd1 8a3e 2904 40bf
000001b0: 3b8e 1b3f 317e afbf d8ea 5cbf c492 30be
000001c0: af87 00bf 1789 683e 8bcf d23e 73d6 d33f
000001d0: 25d3 803d abc8 58bf e13a f7be 5dd6 b83f
000001e0: d3b2 a93f c542 60bd f146 0dbf 3418 2cbf
000001f0: 330f cdbf 4a70 dd3f 3347 1a3f 76c0 843f
00000200: 9baf f6be f0de 033f 62cd 5d3f 9c34 ae3e
00000210: c4a5 cbbe fd9f 903e 183f 623f c5ff 4c3f
00000220: 4228 5f3d 1c4f a73f be15 3cbe d9b0 bc3e
00000230: 37bf 2d3a 4d2e c3bf e58b 01bf 0dec 3bbf
00000240: 27e5 1abe 6979 9ebd 151b 733f 04eb 34bd
00000250: c553 84be 03f4 b13e a9b2 80be 9b4a 36bf
00000260: eba5 dbbd 3e94 0a3f 7f37 aa3e 0894 bbbe
00000270: 2f23 6dbf 5cf0 e13d 84ec 603f abea 173f
00000280: b815 8abe 1137 09c0 c63b 04be 9efe d9be
00000290: c100 853f 52a6 043f 6e1a 613e 7852 003f
000002a0: 4bf1 643e 5c65 863e d503 60bf f56b 86be
000002b0: b977 be3e a33c e0be 5ac9 56bf ca7d b9bc
000002c0: e418 883f ddc1 ab3f 6de9 c33e b740 4c3f
000002d0: 475f 353f f6f7 06c0 53cc b7bf aa66 81c0
000002e0: f66b 24bc dbcd d43e c60c 183f bf64 c53e
000002f0: 60a5 60c0 ca7f b83e c90d 42c0 31a9 54bc
00000300: eedf 963e 93fb 12c0 2e9d abbf 1c94 d63c
00000310: ee73 80bf 2efd f6be 608a 443e bb10 ce3e
00000320: 625b 3b3f 5fb8 ed3e 9018 f93e daf7 3f3f
00000330: c7a0 8a3d 38a3 e0bf 49ed f13e 651a 523f
00000340: a7f9 773f 3e6b 343f da70 00c0 59b5 e93c
00000350: 1bc0 053f 549c 3fbe 7caf 57c0 c8c8 aa3e
00000360: 8c41 4f3e 6be5 0ac0 8701 40bf 5e24 99bf
00000370: d198 8dbe 6503 e7be c298 333f e829 803f
00000380: 89da 0abf 540c 05be d438 b0bf dd1e ac3f
00000390: 777f f53e 54f8 bbbf 13f7 b0bf 6ea9 3fbc
000003a0: 21e1 98be 15a6 eb3f 355d 343f 3a2c 5e3f
000003b0: 40a8 04bf 74e6 be3e 4915 b43f 6da4 363e
000003c0: 0a38 a73e b539 89bd c7c0 0d3f b5df d23e
000003d0: 3308 43bf fdc6 753f 538c 06c0 88ea e63e
000003e0: b034 5e3f 1440 74bf 692f 48c0 327f 153d
000003f0: 7ed4 50bf d41e de3f 6f0f ce3f a692 fd3e

fc2.bias f4 [36]
-0.049363777 0.6051195 0.6428047 0.8405775 0.40443572 -0.033462144 1.1257132 0.32205805
0.45223734 0.7556216 0.08625688 -0.13914226 0.7914342 0.42321268 -0.047005527 0.47235066
0.210176 -0.3863954 0.55461586 0.1518872 0.78703344 0.5609705 -0.48188406 -0.09360839
0.24607146 -0.027255164 1.39838 0.68832725 0.2078242 -0.016236654 0.30319956 0.06427678
0.07489817 -0.17300175 -0.053168666 0.74165606
00000000: ac31 4abd 1de9 1a3f d98e 243f 1630 573f
00000010: 3312 cf3e 9a0f 09bd 5f17 903f cbe4 a43e
00000020: a78b e73e 6b70 413f 72a7 b03d 4f7b 0ebe
00000030: 6f9b 4a3f 55af d83e de88 40bd f2d7 f13e
00000040: 6138 573e 9ed5 c5be 4efb 0d3f 5188 1b3e
00000050: 067b 493f c39b 0f3f 82b9 f6be c1b5 bfbd
00000060: 28fa 7b3e 3946 dfbc 1efe b23f 3736 303f
00000070: decf 543e bb02 85bc f93c 9b3e 8ba3 833d
00000080: 3664 993d 5f27 31be 63c7 59bd 2cdd 3d3f

out.weight f4 [4, 36]
0.10550703 -1.5343982 -2.0345807 -0.63145906 0.63792974 -0.7385158 -0.38663745 1.1996173
-0.96060234 -0.9531534 -2.142553 -0.044977885 0.8128934 1.4905889 -0.5582359 -0.8854141
2.242178 1.0203477 -0.81233066 0.06908861 -2.1618967 -0.53348184 2.0441625 2.4520705
2.0490746 -0.95397437 -0.49093917 1.7526575 -0.72147423 0.04018371 1.5764302 -1.4281474
-0.0148891825 -2.044107 0.07978754 -0.79634136 0.14270575 -1.9543166 -1.4876356 -1.1976212
1.1956764 -0.64817345 -0.96246845 1.5412651 -0.7625854 -0.5953531 -2.0878232 -0.15614541
1.9489924 1.5463121 -1.0005687 -0.7317391 1.2928305 0.82002515 -0.94100004 -0.96411246
-2.0423164 -0.76845884 0.41169003 3.0056581 1.5251086 -0.5464435 -0.64557827 1.0330704
-0.7499479 0.060957264 1.9697456 -0.4559329 1.2170955 -1.8248724 -0.031705774 -0.66399
0.013580486 -0.5742578 -1.7123848 -0.88136196 0.7567311 -0.49085984 -0.8207511 1.3868217
-0.5934144 -0.65695024 -1.7938703 0.07078736 1.8940742 1.4528654 -0.89957947 -0.67941535
1.3706844 1.4049805 -0.20087719 -1.368887 -2.4457269 0.0034940927 0.67352664 3.0967772
1.6224177 -0.3585696 -0.61217415 2.3243628 -0.33513197 0.22913903 0.68127126 -1.2594
-0.55343074 -1.4115447 -0.04755426 -0.7493875 0.16398568 -2.004682 -2.0818453 -0.5276114
0.5451773 -1.3291461 -0.8452075 1.8261982 -0.96052223 -0.9445268 -2.026707 -0.100986876
0.59968 1.2508107 -0.21767177 -0.71905315 2.0279944 -0.7013323 -0.7050021 0.6759427
-2.195837 -0.7613855 -2.212705 2.0102656 2.5096238 -1.3902421 -0.45618075 1.3075076
-1.3556815 0.074574634 1.4772104 -0.45783654 -0.20851098 -1.905933 0.06911558 -0.75145024
00000000: 1214 d83d 2967 c4bf 9236 02c0 4da7 21bf
00000010: 5d4f 233f 5f0f 3dbf 58f5 c5be 0f8d 993f
00000020: 09ea 75bf dc01 74bf 971f 09c0 bb3a 38bd
00000030: c819 503f 9ecb be3f 8ce8 0ebf 80aa 62bf
00000040: d87f 0f40 c19a 823f e7f4 4fbf 547e 8d3d
00000050: 845c 0ac0 4492 08bf 8fd3 0240 b9ee 1c40
00000060: 0a24 0340 aa37 74bf 615c fbbe 1557 e03f
00000070: 89b2 38bf ad97 243d 77c8 c93f 89cd b6bf
00000080: c2f1 73bc a6d2 02c0 a667 a33d 07dd 4bbf
00000090: 7521 123e 0c27 fabf d86a bebf a74b 99bf
000000a0: ed0b 993f b2ee 25bf 5564 76bf 2d48 c53f
000000b0: cc38 43bf 1069 18bf e59e 05c0 95e4 1fbe
000000c0: 9578 f93f 8eed c53f a312 80bf 4153 3bbf
000000d0: 787b a53f 2bed 513f 61e5 70bf 13d0 76bf
000000e0: 50b5 02c0 b8b9 44bf 09c9 d23e b45c 4040
000000f0: c236 c33f b9e3 0bbf 9e44 25bf a73b 843f
00000100: 96fc 3fbf 53ae 793d a020 fc3f 0970 e9be
00000110: c9c9 9b3f 6b95 e9bf eadd 01bd 40fb 29bf
00000120: b080 5e3c 8f02 13bf 6d2f dbbf f0a0 61bf
00000130: 21b9 413f fb51 fbbe be1c 52bf 6083 b13f
00000140: 02ea 17bf e42d 28bf 8b9d e5bf f7f8 903d
00000150: 0671 f23f 7ef7 b93f d74a 66bf 2aee 2dbf
00000160: 9672 af3f 67d6 b33f c0b2 4dbe b037 afbf
00000170: ca86 1cc0 26fd 643b 3e6c 2c3f 9931 4640
00000180: 62ab cf3f 6f96 b7be 72b7 1cbf 5cc2 1440
00000190: 6b96 abbe 6ca3 6a3e cb67 2e3f 0534 a1bf
000001a0: a3ad 0dbf 7fad b4bf 41c8 42bd dcd7 3fbf
000001b0: ddeb 273e b64c 00c0 f43c 05c0 8a11 07bf
000001c0: bd90 0b3f 7621 aabf 855f 58bf ddc0 e93f
000001d0: c9e4 75bf 82cc 71bf 91b5 01c0 35d2 cebd
000001e0: a184 193f 911a a03f 59e5 5ebe de13 38bf
000001f0: a9ca 0140 838a 33bf 057b 34bf 950a 2d3f
00000200: 9888 0cc0 29ea 42bf f59c 0dc0 31a8 0040
00000210: ad9d 2040 74f3 b1bf 8690 e9be 695c a73f
00000220: f986 adbf 96ba 983d 3b15 bd3f 8d69 eabe
00000230: e783 55be 9df5 f3bf 788c 8d3d 0b5f 40bf

out.bias f4 [4]
-0.30006102 -0.46717128 0.4289693 0.21054724
00000000: 99a1 99be 1331 efbe dda1 db3e b299 573e
