Lunar Lander V2 Hau Zheng Yi/models/model_280_2.pth (torch, 47903 bytes, 6 tensors)

fc1.weight f4 [100, 8]
0	0xc03eb4fc	-2.9797964
1	0xbfb4806e	-1.4101694
2	0xbf8e6d6c	-1.1127143
3	0xbf4f7e91	-0.810525
4	0xbe9d7805	-0.3075563
5	0xbdc7857b	-0.09742256
6	0xbe53a29c	-0.206675
7	0x3ddd869f	0.108166926
8	0xbf538d61	-0.826376
9	0x3e94399d	0.28950205
10	0x3efe625d	0.4968442
11	0xbdce0e39	-0.100613065
12	0x3c0702b8	0.008240394
13	0xbf723b1d	-0.9462145
14	0xbf6aae70	-0.9167242
15	0x3db123cd	0.086494066
16	0x3eaf9e21	0.3430033
17	0x3f84f359	1.0386764
18	0x3d9cc16e	0.07654081
19	0x3e48b679	0.19600858
20	0x3eb18ca0	0.346776
21	0x3f981533	1.188147
22	0x3f01e7a7	0.507441
23	0xbfb3da0c	-1.4050918
24	0x3e5b078f	0.21389602
25	0xbf1aa489	-0.6040731
26	0xbf3dd24f	-0.7414903
27	0x3f92fb3e	1.1482923
28	0x3e1839c4	0.14865786
29	0x3d3bf831	0.04589099
30	0x3e8b1c5b	0.2717007
31	0xbf9cc9a3	-1.2249035
32	0x3f64672e	0.8921994
33	0x3f145b56	0.5795187
34	0xbe3dcddc	-0.1853556
35	0xbf0b396c	-0.54384494
36	0x40028bba	2.0397782
37	0xbd38895d	-0.045052875
38	0x3e5d6c30	0.21623302
39	0x3eac6e72	0.33678013
40	0xbf2e6298	-0.6811919
41	0xbf244552	-0.64168274
42	0xbd2afef2	-0.04174704
43	0xbf13a38f	-0.57671446
44	0xbeb99573	-0.36246833
45	0x3d11ffb2	0.03564424
46	0xbfa39f29	-1.2782947
47	0x3d938e7e	0.072049126
48	0xc001b7d5	-2.0268452
49	0xc009773f	-2.1479032
50	0xbf215a80	-0.6302872
51	0x3f48ca49	0.7843366
52	0x3f1d9691	0.6155787
53	0xbf22c19e	-0.63576686
54	0xbec27bfe	-0.37985224
55	0xbde8fba6	-0.11376123
56	0x4001d2cc	2.028491
57	0xbea27de6	-0.31736678
58	0xbe679cc9	-0.22618403
59	0x3d3a9e0c	0.04556088
60	0xbfdabedd	-1.7089497
61	0xbf82c45f	-1.0216178
62	0xbdef93e0	-0.11698127
63	0x3e1ed1d4	0.1550973
64	0xbf8ee2f9	-1.1163017
65	0xbfee979c	-1.8640018
66	0x3fc356ed	1.5260903
67	0xbfb892bd	-1.4419781
68	0x3e30af34	0.17254335
69	0xbe13b5fe	-0.14424893
70	0xbec3ee3a	-0.3826769
71	0xbf0bcc1d	-0.5460833
72	0x3fc776db	1.5583147
73	0xbdc65585	-0.0968428
74	0x3f5a77ae	0.85338867
75	0xbf6f380c	-0.93444896
76	0xbfc11d56	-1.5087078
77	0xbf074b02	-0.5284883
78	0x3ba62082	0.005069793
79	0x3f094087	0.53614086
80	0xbeaf8aee	-0.34285682
81	0xbeb508c4	-0.3535825
82	0x3eae8bde	0.34091085
83	0x3f89eadd	1.07748
84	0x3f003db1	0.50094134
85	0x3f3c64f7	0.7359156
86	0x3d7e25ae	0.062047653
87	0xbef1afc4	-0.4720441
88	0x3cacae14	0.0210791
89	0x3d0a7920	0.03380692
90	0xbf3114e6	-0.69172513
91	0xbecd1780	-0.40056992
92	0xbe50aaff	-0.2037773
93	0xbfc9fe61	-1.5780755
94	0xbecf75de	-0.40519613
95	0xbd1e306b	-0.038620394
96	0x3f872e4d	1.0561005
97	0x3da0d219	0.07852573
98	0xbf9de6a1	-1.2336007
99	0xbf63e74d	-0.8902481
100	0xbf96c05a	-1.1777451
101	0xbfcadaf5	-1.584807
102	0xbefc3d6d	-0.49265614
103	0xbf8a9213	-1.0825828
104	0x3e244ff6	0.16046128
105	0x3ed486b3	0.41509017
106	0xbf6fc077	-0.93653053
107	0xbe1160cf	-0.14197086
108	0xbdbded98	-0.09273833
109	0xbfc310b0	-1.5239468
110	0xbfec1693	-1.8444389
111	0x3e905882	0.28192526
112	0xbf9b5c1f	-1.2137488
113	0xbeaac6b5	-0.33354726
114	0xbf33a4ce	-0.70173347
115	0x3ed55f77	0.41674396
116	0xbec85c02	-0.39132696
117	0xbed9a207	-0.4250643
118	0xbf0e2cbe	-0.5553702
119	0x3f04e4f7	0.5191187
120	0x3e8e9a90	0.27852297
121	0xbd95d879	-0.073166795
122	0x3da22775	0.07917682
123	0x3b9a0d35	0.0047012814
124	0x400b098c	2.1724577
125	0x3e996902	0.29962927
126	0x3e8963bc	0.26833904
127	0x3de30e37	0.11086696
128	0xbf860a17	-1.0471829
129	0xbe5f5ae5	-0.21812017
130	0xbf7f052b	-0.9961726
131	0xbf136d05	-0.57588226
132	0x3e7fe2d9	0.2498888
133	0x3f2da138	0.67824125
134	0xbf20a7c6	-0.62756
135	0xbece1ed9	-0.4025791
136	0x3f8deb5e	1.1087453
137	0xbf08e255	-0.53470355
138	0x3f61e9a6	0.88247144
139	0xbd923ec2	-0.07140876
140	0xbee47e04	-0.44627392
141	0xbf37eb61	-0.71843535
142	0x3dd541da	0.10412951
143	0x3e30f72c	0.17281789
144	0xbec4749b	-0.38370213
145	0xbf88f506	-1.0699775
146	0x3f0c1651	0.5472155
147	0xbfb1da42	-1.3894732
148	0xbf70f15f	-0.94118303
149	0xbf4f1922	-0.80897725
150	0x3da09eaa	0.07842763
151	0x3ebb8721	0.36626533
152	0x3dee1a72	0.11626138
153	0xbf1adc2e	-0.6049222
154	0xbe8daaae	-0.2766928
155	0xbf2aa965	-0.66664726
156	0x3eac879c	0.33697212
157	0x3de3a3a3	0.111151956
158	0x3dc38028	0.09545928
159	0xbef6df5f	-0.48217294
160	0xbf8ea075	-1.1142718
161	0x3f3bde52	0.7338611
162	0x3e335e93	0.17516546
163	0xbf237c1b	-0.63861245
164	0xbe581141	-0.21100332
165	0xbfbfac5b	-1.4974474
166	0xbee520f1	-0.44751695
167	0xbfa08aa1	-1.2542306
168	0x3f82de8a	1.0224164
169	0xbed16461	-0.40896896
170	0x3fe17448	1.7613611
171	0x3e76290b	0.24039094
172	0x3f822d73	1.017012
173	0x3f2aa3ad	0.66656
174	0xbc6ccb92	-0.014452832
175	0xbe193807	-0.14962779
176	0x3fbb2c2e	1.4622858
177	0xbcffe6c8	-0.031237975
178	0xbd73e3a8	-0.05954328
179	0xbf81a1c0	-1.0127487
180	0xbf881dac	-1.0634055
181	0x3f002e73	0.50070876
182	0xbf989947	-1.1921777
183	0xbf70a327	-0.9399895
184	0xbf981121	-1.1880227
185	0xbd85f2e2	-0.06540467
186	0xbf87a3d6	-1.0596874
187	0xbe613f39	-0.21996774
188	0x3f0a614f	0.5405473
189	0xbecce78d	-0.4002041
190	0xbd435304	-0.04768659
191	0x3f4dd1c9	0.8039823
192	0xbf4e8935	-0.8067811
193	0xbe9960ca	-0.29956657
194	0xbfae46a9	-1.3615314
195	0xbefda214	-0.49537718
196	0x3f8c74ed	1.0973183
197	0x3e721dc5	0.23644169
198	0x3f78aec8	0.97141695
199	0xbde0d7f5	-0.109786905
200	0xbeef8230	-0.46779013
201	0x3e5dad74	0.21648198
202	0x3f25dd9a	0.6479126
203	0xbf793975	-0.973533
204	0x3e4a675f	0.19765995
205	0x3e0ff635	0.14058764
206	0xbdc145ba	-0.094371274
207	0x3efa20ca	0.4885314
208	0xbf9c2354	-1.2198281
209	0xbf02420f	-0.5088205
210	0x3f635f8a	0.88817656
211	0x3f9579f2	1.167784
212	0xbe00c52d	-0.12575217
213	0xbf2bbe79	-0.67087513
214	0xbf54f997	-0.83193344
215	0x3ee24c31	0.44198754
216	0xbd650655	-0.05591424
217	0xbefddf3c	-0.49584377
218	0x3edfab0d	0.4368519
219	0x3fe032b8	1.7515478
220	0x400a852a	2.1643777
221	0x3d03762c	0.03209512
222	0xbf0c75b1	-0.5486708
223	0x3f2fb09e	0.6862887
224	0x3ffd93ee	1.981077
225	0x3eff3601	0.4984589
226	0xbf129a82	-0.5726701
227	0xbe2ff203	-0.17182164
228	0xbf8693b1	-1.0513822
229	0xbd43c905	-0.04779913
230	0xbe49212d	-0.19641562
231	0x3eb67fb9	0.3564432
232	0x3f105a4a	0.5638777
233	0xbf4aa568	-0.7915864
234	0xbe1e5437	-0.15461813
235	0x3dc5a308	0.09650236
236	0x3ea54981	0.32282642
237	0xbfe5e74e	-1.7961214
238	0xbeeb48d4	-0.45954
239	0xbe0504fd	-0.12990184
240	0xbf61baf5	-0.881759
241	0x3eaf21bf	0.34205434
242	0xbe15053e	-0.14552781
243	0xbf5d264c	-0.8638656
244	0xbf0af2be	-0.54276645
245	0xbf9a71c4	-1.2065969
246	0xbf7622b9	-0.9614673
247	0x3e18fa2b	0.14939182
248	0x3eb023ff	0.34402463
249	0xc007a107	-2.1192033
250	0x3f21decb	0.6323058
251	0xc005acda	-2.088675
252	0xbfa51ca7	-1.2899369
253	0xbf9742b4	-1.1817231
254	0xbf22e3d8	-0.6362891
255	0xbf3390d0	-0.7014284

fc1.bias f4 [100]
0	0x3cb8ce2c	0.022559248
1	0x3f3c2a8e	0.73502433
2	0xbeb324c9	-0.34989002
3	0x3f8543d2	1.0411322
4	0xbf1cf96d	-0.61318094
5	0x3f55c7ed	0.8350819
6	0xbef1a9df	-0.47199914
7	0x3f0b5da2	0.5443975
8	0xbf29ed71	-0.6637793
9	0xbf2a00aa	-0.66407263
10	0x3e8998e9	0.26874474
11	0x3f47570f	0.77867216
12	0x3e5236a2	0.20528653
13	0xbf21b1e5	-0.6316207
14	0x3ebe2212	0.3713537
15	0x3ea91d67	0.33030245
16	0xbf32efdb	-0.6989724
17	0x3f04c38e	0.5186089
18	0x3ecbdaf6	0.3981549
19	0xbf4e685c	-0.8062799
20	0x3e51f87c	0.20504946
21	0xbf45ed4d	-0.7731522
22	0xbca8b7f0	-0.02059552
23	0xbe6db9be	-0.23215386
24	0xbec6ff3a	-0.38866597
25	0x3f2ccc7a	0.67499506
26	0x3f05d4e8	0.52277994
27	0xbf1de4e9	-0.61677414
28	0x3e9c1465	0.3048431
29	0xbe13e1af	-0.1444156
30	0xbf61eeec	-0.8825519
31	0xbf49364a	-0.78598464
32	0x3f5a1959	0.8519493
33	0xbf21dff3	-0.63232344
34	0x3e733351	0.23750044
35	0x3f04baa3	0.51847285
36	0x3e044cc9	0.12919916
37	0x3cf54845	0.029941687
38	0xbd6d2b30	-0.057902515
39	0xbde2f891	-0.110825665
40	0x3e4429ce	0.19156572
41	0xbd47b700	-0.048758507
42	0xbf52c4f4	-0.82331777
43	0xbf44d6e0	-0.76890373
44	0xbe97318d	-0.29529992
45	0x3f1986b7	0.59971184
46	0x3e0c0b0c	0.13676089
47	0xbf1bd70b	-0.60875005
48	0x3f8dc5d0	1.1075993
49	0x3f3f91f2	0.7483207
50	0x3ed593da	0.41714364
51	0x3ead7075	0.3387486
52	0x3f300548	0.6875806
53	0x3e8b4fd2	0.27209336
54	0xbe88e40a	-0.2673648
55	0x3f4e029e	0.80472744
56	0x3d25fd1e	0.040524594
57	0xbe64f80e	-0.2236025
58	0xbe634169	-0.2219292
59	0xbc9f1a73	-0.019421792
60	0xbd7ca221	-0.061678056
61	0xbea5e228	-0.32399106
62	0x3e2982a3	0.1655374
63	0xbf15b2ae	-0.5847577
64	0x3ef9cc31	0.48788598
65	0xbd76257d	-0.060094345
66	0xbe94047d	-0.28909674
67	0x3eb93e28	0.36180234
68	0x3e1cf0a7	0.15326177
69	0x3e06ffa1	0.13183452
70	0x3d2ecb41	0.042674307
71	0xbc10a3ed	-0.008828145
72	0x3f4a2ded	0.7897633
73	0xbedee7e2	-0.43536288
74	0xbed92fee	-0.4241938
75	0x3e58145c	0.21101516
76	0xbf4a1881	-0.7894364
77	0x3e50a4d7	0.20375381
78	0x3f3263da	0.6968361
79	0x3f4db4db	0.8035409
80	0xbe965acf	-0.29366156
81	0x3f0c0c3c	0.5470617
82	0xbf4da127	-0.80324024
83	0x3e15faf4	0.14646512
84	0xbe825356	-0.25454205
85	0xbda5306d	-0.08065877
86	0xbde42402	-0.111396804
87	0x3d511140	0.05104184
88	0xbde36f53	-0.11105218
89	0xbeaa7612	-0.33293205
90	0x3d89d80c	0.06730661
91	0xbf0fdb1f	-0.5619373
92	0x3f627e86	0.8847431
93	0xbd0747e6	-0.033027552
94	0x3c1de7a4	0.009637747
95	0x3eb5406b	0.3540071
96	0x3e64a78f	0.22329544
97	0x3f600374	0.8750527
98	0x3e0bf8a4	0.13669068
99	0x3ec0c511	0.3765035

fc2.weight f4 [100, 100]
0	0xbf231c0d	-0.6371468
1	0xbec69175	-0.3878285
2	0xbf92897a	-1.1448205
3	0xbf2a33c4	-0.6648524
4	0xbf1fd507	-0.6243443
5	0x3f0f0948	0.5587354
6	0x3f88d956	1.0691326
7	0xbfa59f9c	-1.2939334
8	0x3eb7b602	0.35881048
9	0xbee6248f	-0.44949767
10	0xbeedf1a0	-0.46473408
11	0xbe8ef327	-0.27919886
12	0xbf9c9b20	-1.223484
13	0x3ea27194	0.31727278
14	0x3edc5d27	0.4303982
15	0x3f7deed2	0.99192536
16	0xbd36b288	-0.044603854
17	0xbea26de5	-0.31724468
18	0x3e12f2e9	0.14350475
19	0x3dfaebd3	0.12252011
20	0x3d17ca17	0.037057962
21	0x3c07c560	0.008286804
22	0xbf2343ff	-0.6377563
23	0x3eb67118	0.3563316
24	0xbc32a81b	-0.010904337
25	0xbe319ced	-0.17345019
26	0x3f2debb0	0.67937756
27	0xbf255ff3	-0.6459953
28	0xbeee2fb8	-0.46520782
29	0x3ef83203	0.48475656
30	0x3f560e27	0.83615345
31	0x3f13e38a	0.5776907
32	0xbf0575f6	-0.5213312
33	0xbd049bcb	-0.03237514
34	0xbe5d5fe5	-0.21618612
35	0xbd965bec	-0.073417515
36	0x3ead30c3	0.33826265
37	0x3f68f6fc	0.9100187
38	0xbea78406	-0.32717913
39	0x3f1e8288	0.61917925
40	0x3eebff07	0.46093008
41	0x3db17d72	0.08666505
42	0xbf963940	-1.1736221
43	0x3f192042	0.59814847
44	0x3f00fd44	0.5038645
45	0x3d067c4d	0.032833386
46	0xbf08df34	-0.5346558
47	0xbffd4d39	-1.9789191
48	0x3e8e658e	0.27811855
49	0x3f117b23	0.56828517
50	0x3f508e50	0.8146715
51	0xbebe44ad	-0.3716177
52	0x3df30189	0.11865527
53	0x3da4804f	0.080322854
54	0xbf2d4e27	-0.67697376
55	0xbe3c4b60	-0.18388128
56	0x3de2f335	0.11081544
57	0x3c491091	0.012272016
58	0xbe5d9ff1	-0.21643044
59	0x3e42af98	0.19012296
60	0x3f59dc47	0.8510174
61	0x3dad56fb	0.08463856
62	0x3e4e5811	0.20150782
63	0xbf07d32b	-0.5305659
64	0xbd674f15	-0.056471903
65	0xbf415f91	-0.7553645
66	0xbe42dba4	-0.19029099
67	0x3efbfe05	0.4921724
68	0x3afff1e9	0.0019527051
69	0x3e5befbf	0.21478175
70	0x3e2caffc	0.16864008
71	0x3d074e6f	0.033033784
72	0x3f070b6f	0.5275182
73	0xbe079e1b	-0.13243906
74	0xbf87963b	-1.0592722
75	0x3c37ccd6	0.01121827
76	0xbfd55c49	-1.6668788
77	0xbd0924e8	-0.033482462
78	0x3ea60335	0.32424322
79	0x3f91d92e	1.1394403
80	0x3e3bfea8	0.18358862
81	0x3d49c42a	0.049259342
82	0x3f37f935	0.71864635
83	0xbf40a8ea	-0.7525774
84	0xbe76941f	-0.24079941
85	0x3e5f5c04	0.21812445
86	0x3e97cee0	0.2965002
87	0x3d3f6287	0.046724822
88	0xbeca94ca	-0.39566642
89	0xbda213f4	-0.07913962
90	0xbeec14c7	-0.46109602
91	0x3ff137b1	1.8845121
92	0x3eb59a16	0.3546912
93	0x3dcc641b	0.09980031
94	0x3f9ae5d3	1.2101387
95	0x3f0156bb	0.50522965
96	0xbf04ff9c	-0.5195253
97	0x3f13718c	0.57595134
98	0x3db03e42	0.08605625
99	0xbe0d7040	-0.13812351
100	0x3f7dbfbb	0.9912068
101	0x3f0abf6e	0.5419835
102	0x3ef63c92	0.48093086
103	0xbfa880c5	-1.3164297
104	0xbd6df520	-0.058095098
105	0x3ed5d18a	0.41761428
106	0xbf1b8694	-0.60752225
107	0xbf78bdfc	-0.97164893
108	0x3f11a653	0.56894416
109	0x3dfc2ee7	0.123136334
110	0x3c014e90	0.007892266
111	0xbf26ac5a	-0.6510674
112	0x3f289072	0.65845406
113	0xbe3615bb	-0.17781727
114	0x3e7c2c3f	0.24626254
115	0xbf0bc73e	-0.54600894
116	0x3dcb34c4	0.099221736
117	0x3e3a21dd	0.1817698
118	0x3e0892ad	0.13337202
119	0xbee10a1b	-0.43953022
120	0xbfadf3f0	-1.3590069
121	0x3e27a2c7	0.16370688
122	0x3fed5c29	1.854375
123	0x3ec940fc	0.39307392
124	0x3d54b8f2	0.05193419
125	0x3efad602	0.489914
126	0xc0517da3	-3.2732933
127	0xbebbb9b0	-0.36665106
128	0xbe10d3b6	-0.14143261
129	0x3e9848ee	0.2974314
130	0xbd52ac26	-0.051433705
131	0x3eae47a3	0.3403903
132	0xbc471db5	-0.012153079
133	0xbe8c7501	-0.27433017
134	0xbe176de3	-0.14788012
135	0x3f2d00b2	0.67579186
136	0x3fdce1d9	1.7256423
137	0x3efad336	0.48989266
138	0xbf932516	-1.1495693
139	0xbe61aa56	-0.22037634
140	0xbf0a2fdf	-0.53979295
141	0x3f04c5ba	0.51864207
142	0x3f9d8507	1.2306222
143	0xbe1a445c	-0.1506514
144	0x3e2de7f7	0.16983019
145	0xc007b4bf	-2.1204069
146	0xbdff4707	-0.12464719
147	0xbeb20df9	-0.34776285
148	0xc066be27	-3.605356
149	0xbfd15ab7	-1.6355809
150	0xbffc0e10	-1.9691792
151	0x3d796487	0.060886886
152	0x3ec810f0	0.39075422
153	0x3f15c4a5	0.5850318
154	0x3de01b97	0.10942762
155	0x3ed9b6bb	0.42522225
156	0x3eb88132	0.36036068
157	0xbf7f9276	-0.99832857
158	0x3d132755	0.03592618
159	0xbd9d2721	-0.07673479
160	0x3dd09fe3	0.10186746
161	0xbd331236	-0.04371854
162	0x3f061522	0.52375996
163	0xbe01ff29	-0.12694992
164	0x3f551d1f	0.8324756
165	0x3f2be85b	0.6715142
166	0x3f05322e	0.52029693
167	0xbe60e6ad	-0.21962996
168	0x3f551f6a	0.8325106
169	0xbf3376df	-0.7010326
170	0x3eff210a	0.49829894
171	0x3f0ab9cc	0.54189754
172	0xc059bd33	-3.4021728
173	0xbe792825	-0.2433172
174	0x3fa61047	1.2973717
175	0xbe926de8	-0.28599477
176	0x3f9bcbd3	1.2171577
177	0xbf8f9650	-1.1217747
178	0xc00dee9b	-2.2176883
179	0xbd7a637c	-0.061130032
180	0x3e1e82ba	0.15479556
181	0xc0697197	-3.647558
182	0x3f2bca81	0.6710587
183	0xbf2bfdff	-0.6718444
184	0x3e5e3f68	0.21703875
185	0xc023688c	-2.553256
186	0xbd23200f	-0.039825495
187	0xbd8fb280	-0.07016468
188	0xbe4c4033	-0.19946365
189	0xbed9c32d	-0.4253172
190	0x3c22e689	0.009942659
191	0xbfa1f70f	-1.2653521
192	0xbfa79bb9	-1.3094398
193	0xbe92a366	-0.28640288
194	0xbf921bbb	-1.1414713
195	0x3f57f14b	0.8435256
196	0x3f068976	0.525535
197	0xbfe9eeab	-1.8275961
198	0xbcd3538d	-0.025796676
199	0x3d948841	0.07252551
200	0xbde43f7e	-0.11144923
201	0xbc6c0edf	-0.014407842
202	0xbd542300	-0.05179119
203	0x3d6caa11	0.057779375
204	0xbb3bff77	-0.0028686204
205	0x3c866368	0.016404822
206	0x3d24a35a	0.040194847
207	0x3d963e7d	0.073361374
208	0xbda8f0e5	-0.08249072
209	0x3d72098a	0.05909113
210	0x3c8c760a	0.01714613
211	0xbd0a517c	-0.033769116
212	0xbd72ed4d	-0.05930834
213	0xbd8a7d4a	-0.06762178
214	0xbdc90415	-0.09815232
215	0x3954313c	0.00020236237
216	0xbd3769a3	-0.044778477
217	0xbd7f0c57	-0.062267628
218	0xbdbd0d95	-0.09231106
219	0xbd99803c	-0.07495162
220	0x3ce888a1	0.028385462
221	0x3d1cd2bf	0.03828692
222	0x3d453082	0.048141964
223	0xbd90cf3d	-0.070707776
224	0x3cae3be6	0.021268796
225	0xbb0fbb47	-0.0021931694
226	0x3da64874	0.08119288
227	0xbca9e2f8	-0.02073811
228	0xbd7164b6	-0.058933936
229	0x3d387c5a	0.045040466
230	0x3b462ec0	0.0030240268
231	0x3abbbd80	0.0014323443
232	0xbe123ef7	-0.14281832
233	0xbd8ddfa3	-0.06927421
234	0xbd4ff045	-0.05076625
235	0xbd869e73	-0.065731905
236	0xbd9b4580	-0.075816154
237	0xbc878474	-0.01654265
238	0x3d9a5263	0.07535245
239	0xbc9fba47	-0.019498004
240	0x3cd36658	0.025805637
241	0x3cc41c18	0.023939177
242	0x3c98e902	0.018665794
243	0x3bf2805e	0.0074005565
244	0x3c32d2d6	0.010914525
245	0xbdcea594	-0.10090175
246	0xbdf0c3d6	-0.11756103
247	0xbcaf9b43	-0.02143634
248	0xbc203030	-0.009777114
249	0x3d6c981a	0.057762243
250	0xbd544e6a	-0.051832594
251	0xbc3cceb6	-0.011523893
252	0xbd98734c	-0.07443866
253	0x3d4505ec	0.04810135
254	0x3d313873	0.043266725
255	0xbdfefa87	-0.12450128

fc2.bias f4 [100]
0	0xbe8a0c67	-0.26962587
1	0x3f318ef9	0.69358784
2	0xbdbaaff8	-0.091155946
3	0x3ee28bf5	0.44247404
4	0xbcc0a765	-0.02351732
5	0x3f8462a9	1.0342609
6	0xbd28e890	-0.041237414
7	0x3e922745	0.28545585
8	0x3f159b56	0.5844015
9	0x3d657003	0.056015026
10	0x3ece6d3c	0.40317714
11	0xbc8c2ba6	-0.017110657
12	0x3e029c56	0.1275495
13	0x3f0ca300	0.5493622
14	0xbdfc5291	-0.12320436
15	0xbddca435	-0.107735075
16	0xbe1abbb4	-0.15110666
17	0xbda4c11d	-0.08044646
18	0x3e38204c	0.1798107
19	0xbdb16994	-0.086627156
20	0xbe5d3212	-0.21601132
21	0x3f1309ec	0.57437015
22	0xbda8e9e7	-0.08247738
23	0x3b88f6c9	0.0041798097
24	0x3ec3d2a6	0.3824665
25	0xbc2a81c6	-0.010406917
26	0xbe62fca3	-0.22166686
27	0x3efdccea	0.495704
28	0xbddee2e1	-0.108831175
29	0x3d3d6d71	0.04624695
30	0x3f10f228	0.566195
31	0x3f6b1c7a	0.91840327
32	0xbdf4b1e1	-0.1194799
33	0x3c20dcf6	0.009818306
34	0x3e86f2a9	0.2635701
35	0x3edf0bc8	0.43563676
36	0x3f5c1f92	0.8598567
37	0x3e268b74	0.16264135
38	0x3d5d78e2	0.05407036
39	0x3e824158	0.25440478
40	0x3f010dc0	0.50411606
41	0x3eaa4ce1	0.3326178
42	0xbdeb2d83	-0.1148329
43	0x3f396b54	0.72429395
44	0xbf1c1ab0	-0.6097822
45	0x3f589a86	0.84610784
46	0x3eedbe45	0.46434227
47	0x3e185f6b	0.14880149
48	0xbe9c24a6	-0.3049671
49	0x3ed24f58	0.4107616
50	0x3f16be20	0.5888386
51	0x3d996c1d	0.07491324
52	0xbe9b0316	-0.30275792
53	0x3eede77f	0.4646568
54	0x3e2442b9	0.16041078
55	0x3cae5966	0.021282863
56	0x3eb74561	0.3579512
57	0x3f24813b	0.6425969
58	0xbc28bb3a	-0.010298545
59	0x3f3e722c	0.7439296
60	0xbee1cfdd	-0.441039
61	0x3c736d85	0.014857654
62	0x3d5120e0	0.051056743
63	0x3f46e216	0.7768873
64	0x3ecff3e8	0.40615773
65	0xbbca36aa	-0.0061710672
66	0x3f05589a	0.5208832
67	0x3e9a5aff	0.3014755
68	0xbd87bc70	-0.066277385
69	0x3d4e493a	0.050362803
70	0x3f11cf94	0.56957364
71	0x3f2ef716	0.68345773
72	0x3ed5ad7d	0.41733924
73	0x3c0f5834	0.008749057
74	0x3d29c496	0.041447245
75	0x3dfeb188	0.12436205
76	0x3e18983f	0.14901827
77	0xbd9f701e	-0.077850565
78	0x3cfa2085	0.030533085
79	0x3ee430eb	0.4456857
80	0x3d5d9490	0.05409676
81	0x3e8f73f0	0.2801814
82	0xbf30b9b9	-0.6903339
83	0xbde64105	-0.1124287
84	0xbdf52d17	-0.11971491
85	0x3eced4e3	0.40396795
86	0x3ebe666e	0.37187523
87	0xbe6008a8	-0.21878302
88	0xbeff07bc	-0.49810588
89	0xbdf7a0be	-0.12091206
90	0x3f59fc44	0.8515055
91	0x3b8e4ea8	0.0043428726
92	0x3e9a7207	0.3016512
93	0xba21ebbb	-0.0006176789
94	0x3e8d3723	0.27581128
95	0x3f29a2a7	0.6626381
96	0x3f2faae8	0.6862016
97	0xbdcf9fac	-0.10137877
98	0xbdec56a0	-0.1153996
99	0xbedb512b	-0.42835364

out.weight f4 [4, 100]
0	0x3eb41d4e	0.35178608
1	0xbf34c6cc	-0.7061584
2	0xbd5fc90a	-0.054635085
3	0x400a2bb3	2.1589172
4	0x3ed83608	0.42228723
5	0x3f104836	0.56360185
6	0xbd7f7a10	-0.062372267
7	0x3f748403	0.95513934
8	0xbf310ec7	-0.69163173
9	0xbde2ebda	-0.11080141
10	0xbf55903c	-0.8342321
11	0x3c979fa9	0.01850875
12	0xbf6d88e1	-0.92786986
13	0x3f7fbfec	0.99902225
14	0xbc0a583d	-0.008443889
15	0xbc79a5e4	-0.015237305
16	0xbca93650	-0.020655781
17	0xbd8af23d	-0.067844845
18	0xbf3f93db	-0.74834985
19	0x3d8bd1fe	0.06827162
20	0xbf49320f	-0.7859201
21	0xbf05bad1	-0.52238184
22	0xbf8ed33a	-1.1158211
23	0x3e8fb9cf	0.28071448
24	0x3eb033d3	0.3441454
25	0x3eed9871	0.46405366
26	0xbfaec034	-1.3652406
27	0x3f42b1f5	0.7605279
28	0xbddf50d8	-0.109040916
29	0xbd5b5e1b	-0.053556543
30	0xbfa43547	-1.2828759
31	0x3f14bab2	0.58097374
32	0xbda0fb7a	-0.07860465
33	0x3e80ef2f	0.25182483
34	0xbf521247	-0.8205914
35	0xbf9073e6	-1.1285369
36	0x3e8113cf	0.25210425
37	0xbeb9af2d	-0.3626646
38	0xbf7aa734	-0.9791138
39	0xbf0b2488	-0.5435262
40	0xbfd7f935	-1.6872927
41	0x3f83a435	1.0284487
42	0x3bd6ba68	0.006552983
43	0xbf6c7dd2	-0.92379487
44	0xbd11083a	-0.035408236
45	0x3fb4fb5f	1.4139212
46	0x3fb87876	1.4411762
47	0xbf154a97	-0.5831694
48	0xbf335411	-0.7005015
49	0x3f633c4b	0.88763875
50	0xbf32ab46	-0.6979259
51	0xbdec6563	-0.115427755
52	0xbfb249de	-1.3928792
53	0x3f9795f5	1.1842638
54	0xbeba24fa	-0.36356336
55	0x3be6a51f	0.007038727
56	0xbeebdaed	-0.46065465
57	0xbf3960c2	-0.72413266
58	0xbd450930	-0.048104465
59	0xbfd91367	-1.6959046
60	0x3fe23120	1.7671242
61	0xbf415063	-0.75513285
62	0xbf8acdb6	-1.0844028
63	0x3f5f2f17	0.8718123
64	0xbfcc0918	-1.5940275
65	0xbf6e41a4	-0.9306891
66	0xbd7bf3de	-0.061511867
67	0x3f15e25f	0.5854854
68	0xbd1d8343	-0.03845526
69	0xbfbea696	-1.4894588
70	0x3ee13325	0.43984333
71	0xbfe629b9	-1.7981483
72	0xbf78a780	-0.97130585
73	0xbbdd01be	-0.0067445925
74	0xbd4a48e3	-0.049385916
75	0xbf4c8147	-0.7988476
76	0x3ebe75ab	0.3719915
77	0x3d84a01d	0.06475852
78	0x39ea2780	0.00044661388
79	0xbe0297c8	-0.12753212
80	0x3ed530a0	0.4163866
81	0x3f44cdd7	0.76876587
82	0x3f4561be	0.7710227
83	0x3d50096e	0.050790243
84	0xbc0b9d86	-0.008521443
85	0x3f04b35b	0.51836175
86	0xbf5444ec	-0.82917666
87	0xbe7c4e77	-0.24639307
88	0xbfa91052	-1.3208106
89	0xbc940332	-0.01806793
90	0x3f4b44a7	0.7940163
91	0x3fe8c92c	1.8186393
92	0x3f19daf3	0.60099715
93	0xbd59cfc3	-0.053176653
94	0x3f696e91	0.91184336
95	0xbfb8eccd	-1.4447266
96	0x3f43928d	0.76395494
97	0xbf5c25cb	-0.8599517
98	0xbd50a5fd	-0.05093955
99	0x3fb418d7	1.407008
100	0x3f189f56	0.5961813
101	0xbf80a553	-1.0050453
102	0xbd446ce9	-0.047955427
103	0x3f9c4d4d	1.221109
104	0xbe5576bc	-0.20846075
105	0x3f36906e	0.7131413
106	0x3d9d6f29	0.07687218
107	0x3f823be9	1.0174533
108	0xbf9f5338	-1.2447271
109	0xbda47cee	-0.08031641
110	0xbec69d55	-0.3879191
111	0xbddc8f8e	-0.107695684
112	0xbe29b71c	-0.16573757
113	0x3fa79eb3	1.3095306
114	0xbb99992f	-0.0046874504
115	0xbdb2ed01	-0.08736611
116	0xbcd4d0e3	-0.025978511
117	0x3db01d91	0.08599389
118	0xbf28b8db	-0.6590707
119	0xbda6cd89	-0.081446715
120	0xbfb6b0fd	-1.4272763
121	0xbed686a7	-0.41899607
122	0xbf3b5d28	-0.7318902
123	0x3fd20432	1.640753
124	0x3d424f63	0.04743899
125	0x3ec43c00	0.38327026
126	0xbf96ef23	-1.1791729
127	0xbea5a697	-0.3235366
128	0xbda627bc	-0.081130475
129	0xbc77507b	-0.015094872
130	0xbe6d8437	-0.23194967
131	0x3faabbc0	1.3338547
132	0xbd3e460a	-0.046453513
133	0xbebd73ba	-0.37002355
134	0xbf3ce204	-0.7378237
135	0xbf74575a	-0.9544579
136	0x3ef7efaa	0.48425037
137	0xbfa5e67c	-1.2960963
138	0xbf79f1ff	-0.9763488
139	0xbf2d31ec	-0.676543
140	0xbee13973	-0.43989143
141	0x3fbaece0	1.4603539
142	0x3c0286d5	0.007966717
143	0xbf673905	-0.9032138
144	0x3fb192c2	1.3872912
145	0x3fa2956e	1.2701852
146	0x3f734876	0.9503244
147	0xbee00c64	-0.43759453
148	0x3fb43555	1.4078776
149	0x3fa77e13	1.308535
150	0xbf9038d0	-1.1267338
151	0xbf13334c	-0.5750015
152	0xbf9de259	-1.2334701
153	0x3f9f593e	1.244911
154	0xbe9dc453	-0.30813846
155	0x3a5d6b14	0.0008446437
156	0xbf86fcde	-1.0545919
157	0xbf044577	-0.51668495
158	0x3d5490e2	0.051895984
159	0xbf32b323	-0.6980459
160	0xbdaba04b	-0.08380183
161	0xbfb64d3b	-1.4242319
162	0xbf5d1003	-0.86352557
163	0x3fa23eae	1.2675378
164	0xbf37ab9d	-0.71746236
165	0xbfa9a69e	-1.3253973
166	0x3e721634	0.23641282
167	0x3f47e554	0.780843
168	0xbd28c4f1	-0.041203443
169	0xbfb6ea79	-1.4290305
170	0x3f189bb0	0.5961256
171	0xbf37fdf6	-0.7187189
172	0xbf5ec835	-0.8702424
173	0x3d7f3932	0.062310405
174	0xbdad1cc5	-0.08452753
175	0xbf670ffd	-0.9025877
176	0x3ec02019	0.3752449
177	0xbb86239a	-0.0040935995
178	0x3d21d9d3	0.039514374
179	0xbf839fcc	-1.0283141
180	0x3ecb501b	0.39709553
181	0xbf80075a	-1.0002244
182	0x3f31fea8	0.695292
183	0xbcc31bbc	-0.023816936
184	0xbd8a0ee9	-0.06741125
185	0x3f531503	0.82453936
186	0xbf035efb	-0.51316804
187	0xbee163da	-0.44021493
188	0xbfbd50ed	-1.4790322
189	0x3d98cc30	0.07460821
190	0x3f109d17	0.564897
191	0x3ff76617	1.932803
192	0x3eaf5f3a	0.3425234
193	0xbd8d4abe	-0.068990216
194	0xbefad40a	-0.48989898
195	0xbfa35a1b	-1.2761873
196	0xbf8e177e	-1.1100919
197	0xbf76438d	-0.96196824
198	0x3d6e3f9f	0.058166143
199	0x3f9635d0	1.1735172
200	0xbd1ed0e3	-0.03877343
201	0xbe1e1625	-0.15438135
202	0xbd6a3c46	-0.057186387
203	0x3f8971da	1.073787
204	0x3eaf1b60	0.34200573
205	0x3f85ee9b	1.0463442
206	0x3d8ee8d1	0.06978
207	0x3f6557db	0.8958718
208	0xbed8affc	-0.42321765
209	0xbd6fb75b	-0.05852447
210	0xbfc5d69b	-1.5456117
211	0xbd92acf1	-0.07161892
212	0xbcb5ccce	-0.022192385
213	0x3f02f954	0.51161695
214	0xbc57c0fc	-0.01316857
215	0x3d3b7a8e	0.045771174
216	0x3d655eb3	0.055998515
217	0x3d46a73a	0.048499323
218	0xbf28baaf	-0.65909857
219	0xbdaa3c11	-0.08312238
220	0xbfccddf5	-1.6005236
221	0xbfd3567c	-1.6510768
222	0xbf0d2542	-0.55134976
223	0x3fd068e0	1.6282005
224	0x3f26a668	0.65097666
225	0x3df59f11	0.1199323
226	0xbfa73eb6	-1.3066013
227	0xbf3ba308	-0.7329564
228	0x3d4f1558	0.050557464
229	0x3d104e10	0.035230696
230	0xbf6f154f	-0.9339189
231	0x3fbaa54a	1.4581692
232	0x3c9af15b	0.018913915
233	0xbfc0a2df	-1.5049704
234	0xbf564611	-0.8370066
235	0xbf6eee5c	-0.9333246
236	0x3f11403b	0.5673863
237	0xbf5dc6ae	-0.86631286
238	0xbf8b5703	-1.0885929
239	0xbfe64ab2	-1.7991545
240	0x3fbdfc15	1.4842554
241	0x3fb5ffab	1.4218649
242	0x3d614264	0.054994956
243	0xbf6f809a	-0.93555605
244	0x3e2c6197	0.16834103
245	0x3fd0afe5	1.6303679
246	0x3fb9b9ea	1.4509861
247	0xbfe31772	-1.774153
248	0xbfc27802	-1.5192873
249	0x3f2f6695	0.685159
250	0xbe6668e6	-0.22500953
251	0xbec3f52c	-0.3827299
252	0xbf9a57ca	-1.2058041
253	0x3f66ee79	0.9020763
254	0xbf8b2f55	-1.087382
255	0x3cd495d9	0.02595036

out.bias f4 [4]
0	0x3d88152b	0.066446625
1	0x3e9039b0	0.28169012
2	0x3f60561e	0.87631404
3	0x3d0fb0f3	0.03508086
