Lunar Lander V2 Hau Zheng Yi/models/model_210621_202601.pth (torch, 9503 bytes, 6 tensors)

fc1.weight f4 [36, 8]
-2.2882707 -0.59710234 0.84077156 -0.3668922 3.4963071 0.97654957 -0.23593874 0.9516361
-1.3029896 1.1198972 -1.8627185 0.6215102 -1.7396022 -0.773768 -0.76563144 0.3384356
0.5470707 0.35023355 0.090665616 0.5901599 2.8064032 -0.042245362 0.20188403 -0.29374415
1.9563578 -0.01828377 1.3260932 -0.54803175 -2.222872 -1.0675036 0.021653794 0.22297597
-2.071538 -0.11245885 -1.0926394 -1.2732562 -2.7423449 0.2146738 0.032338064 0.9222204
2.1624618 -0.24739791 -1.8413705 1.6020402 1.5755413 0.6004032 0.48691902 0.2873843
-1.627385 0.3704218 -2.499329 -0.8149997 1.2774079 0.008667328 -0.0744066 0.4321613
-0.19731328 0.7258986 -0.5197852 2.1514149 0.5279391 2.4171834 1.7322212 0.26237512
-0.9992312 -1.7492791 -1.5242337 -1.8697479 0.5696276 -1.0784018 0.17907825 0.053781077
-1.9294777 0.75210595 -0.57226974 -2.172652 2.519567 1.3924004 0.6803215 -0.24474703
0.6121033 -0.7133183 1.0843482 1.0164539 1.5630977 2.7736042 1.4507731 -0.09082449
-2.2223508 -0.07601953 0.012529844 0.324705 2.8685205 -0.0027414837 0.13857488 0.84990513
-0.8864495 -0.35562262 -0.507997 0.084976844 -1.6316963 -0.3522463 -0.7856118 -2.6512752
-0.008896857 0.20440464 0.06580789 -0.25475818 1.8983849 1.5385011 -0.11555077 -0.59902084
0.6696761 -1.365567 1.964253 -1.2289754 -1.7310604 -0.18786824 0.3413191 0.38125396
-1.4667088 0.4910189 1.1063315 0.12086026 1.4599123 1.305969 -0.73336405 1.23898
-0.51845795 0.63034403 -1.9811422 3.1859848 1.4363147 1.0854243 -1.3430203 -1.2073612
-0.037381902 -0.75170815 -0.5525387 -2.7212088 -0.07824493 0.12539797 -2.1542106 -0.14356937
0.3260772 -0.7217049 0.8886441 -1.9063052 0.6312017 -0.9482213 0.06790157 0.43530154
-0.53027487 -0.016704448 -0.5676569 -0.77741206 1.2722379 1.4031504 -0.6684428 -0.80850726
2.0395725 -1.1251955 0.5814373 -1.4195901 0.25760537 -1.4615544 0.29495364 0.23317419
2.0397146 0.72178733 2.171746 -0.26642555 -1.1218916 -0.6377715 0.9365521 0.83799034
-0.8183309 -0.46554855 0.79520065 -1.3195615 0.82760596 0.9532759 -0.5218343 0.49260837
-1.7200634 -0.78541744 0.0038376008 -2.3575077 1.471056 0.30782828 0.25059754 0.15207587
-2.5013132 -0.6534436 -1.075848 -1.8519647 0.39836806 0.22219926 -0.0022294365 0.6274563
-0.63429725 0.14242576 1.1576369 -0.9200425 1.3697222 0.7726601 0.41913545 0.5712605
1.5382565 1.7641331 0.8710758 -0.109996565 1.0366712 0.4964543 -0.032800816 0.095259905
0.48696882 0.27588856 0.3447972 0.8135911 1.0075125 -0.67213255 -0.5451822 2.1082242
0.5289349 0.98971933 1.1683947 0.007097685 0.107585356 0.07288349 -0.38389957 -2.2094834
-1.1176229 1.1404499 0.585899 -1.6521083 0.087451175 0.62606466 -2.2485766 -0.7085335
-0.4547338 -1.1246179 -0.18253803 -2.2783976 -0.3115609 -1.4550982 0.35776415 0.8158518
2.0368164 0.73503596 -2.0083556 0.047201533 -1.7324122 -0.03377566 -0.41437733 -0.07988914
00000000: 0773 12c0 b3db 18bf ce3c 573f 4bd9 bbbe
00000010: 7fc3 5f40 27ff 793f ed99 71be 6c9e 733f
00000020: 5dc8 a6bf cb58 8f3f 8f6d eebf 4b1b 1f3f
00000030: 49ab debf a915 46bf 6c00 44bf 6e47 ad3e
00000040: d30c 0c3f d051 b33e e5ae b93d b814 173f
00000050: 1c9c 3340 7909 2dbd b0ba 4e3e a265 96be
00000060: ef69 fa3f d8c7 95bc 6cbd a93f cf4b 0cbf
00000070: 8943 0ec0 f5a3 88bf 4c63 b13c d053 643e
00000080: 1494 04c0 d350 e6bd 9cdb 8bbf 0ffa a2bf
00000090: 9482 2fc0 73d3 5b3e eb74 043d a316 6c3f
000000a0: c665 0a40 e155 7dbe 07b2 ebbf a70f cd3f
000000b0: 56ab c93f 06b4 193f 734d f93e 0924 933e
000000c0: 274e d0bf eda7 bd3e 02f5 1fc0 d2a3 50bf
000000d0: 1a82 a33f 6901 0e3c 7d62 98bd 3f44 dd3e
000000e0: 7e0c 4abe 7ed4 393f a510 05bf c8b0 0940
000000f0: 0427 073f 22b3 1a40 6db9 dd3f 0856 863e
00000100: 9ecd 7fbf 61e8 dfbf 171a c3bf e653 efbf
00000110: 1dd3 113f 1209 8abf 4a60 373e 8c49 5c3d
00000120: 20f9 f6bf 048a 403f 4580 12bf bb0c 0bc0
00000130: 9640 2140 2d3a b23f 8d29 2e3f f79e 7abe
00000140: cdb2 1c3f 079c 36bf eccb 8a3f 291b 823f
00000150: 9613 c83f bb82 3140 efb2 b93f 3102 babd
00000160: ff3a 0ec0 21b0 9bbd fa49 4d3c bc3f a63e
00000170: d795 3740 77aa 33bb 93e6 0d3e 6293 593f
00000180: 5bee 62bf 2b14 b6be 170c 02bf 5708 ae3d
00000190: 6ddb d0bf a159 b4be db1d 49bf 7eae 29c0
000001a0: 1fc4 11bc 734f 513e 49c6 863d aa6f 82be
000001b0: 47fe f23f 9bed c43f e2a5 ecbd 6e59 19bf
000001c0: e56f 2b3f e6ca aebf a46c fb3f 114f 9dbf
000001d0: 6393 ddbf 8860 40be 61c1 ae3e b833 c33e
000001e0: 1dbd bbbf d466 fb3e 459c 8d3f 9685 f73d
000001f0: 68de ba3f fe29 a73f bfbd 3bbf e696 9e3f
00000200: a9b9 04bf 3a5e 213f 1196 fdbf 2de7 4b40
00000210: 29d9 b73f 2fef 8a3f 17e8 abbf d08a 9abf
00000220: c41d 19bd f26f 40bf 2d73 0dbf 4928 2ec0
00000230: e13e a0bd 5368 003e 96de 09c0 d903 13be
00000240: 97f3 a63e a7c1 38bf 2e7e 633f cf01 f4bf
00000250: 6f96 213f a2be 72bf fa0f 8b3d d8df de3e
00000260: 18c0 07bf c4d7 88bc f651 11bf 7a04 47bf
00000270: b1d8 a23f 6f9a b33f 111f 2bbf 55fa 4ebf
00000280: 5b88 0240 6806 90bf 13d9 143f 21b5 b5bf
00000290: dae4 833e 3714 bbbf 2a04 973e 37c5 6e3e
000002a0: af8a 0240 0ec7 383f e3fd 0a40 ee68 88be
000002b0: 259a 8fbf fe44 23bf e1c1 6f3f 8986 563f
000002c0: 227e 51bf 615c eebe 4592 4b3f 64e7 a8bf
000002d0: fcdd 533f e409 743f ef96 05bf 2a37 fc3e
000002e0: 0a2b dcbf 1e11 49bf 4280 7b3b 68e1 16c0
000002f0: 904b bc3f ab9b 9d3e 524e 803e c7b9 1b3e
00000300: 8415 20c0 1448 27bf 63b5 89bf 2e0d edbf
00000310: e6f6 cb3e 3488 633e bd1b 12bb faa0 203f
00000320: 4e61 22bf 0fd8 113e 722d 943f e887 6bbf
00000330: 0f53 af3f 0dcd 453f ec98 d63e 213e 123f
00000340: 97e5 c43f 1dcf e13f d3fe 5e3f e145 e1bd
00000350: a4b1 843f 422f fe3e 265a 06bd a017 c33d
00000360: fa53 f93e 4441 8d3e 4289 b03e 8247 503f
00000370: 2bf6 803f e110 2cbf 1091 0bbf 25ed 0640
00000380: 4768 073f 3f5e 7d3f f58d 953f b293 e83b
00000390: b655 dc3d f043 953d 7c8e c4be 2d68 0dc0
000003a0: 440e 8fbf 43fa 913f 7afd 153f 4978 d3bf
000003b0: 9a19 b33d c645 203f aee8 0fc0 7462 35bf
000003c0: ded2 e8be 7bf3 8fbf 40eb 3abe 44d1 11c0
000003d0: e984 9fbe a840 babf dd2c b73e aadb 503f
000003e0: 335b 0240 512b 3c3f e688 00c0 6556 413d
000003f0: afbf ddbf 5958 0abd 4429 d4be eb9c a3bd

fc1.bias f4 [36]
0.37314662 -0.27471417 -0.31293347 -0.89636725 -0.0090812715 0.8988215 1.7091196 0.60054284
1.1534988 0.047611322 0.27605256 0.36735615 -0.23682077 -0.29479912 1.2915648 -0.17878991
1.131803 0.46409848 -0.47937855 -0.5690942 0.5145637 -0.46549785 -1.1727794 -0.703066
0.038756106 0.80173117 0.98016477 0.75388587 0.29516658 0.40632138 -1.6617217 0.13563448
0.5342003 0.48563117 0.82586324 -1.5018568
00000000: 130d bf3e 56a7 8cbe d138 a0be 5378 65bf
00000010: 9dc9 14bc 2a19 663f 6ec4 da3f 2dbd 193f
00000020: d9a5 933f 1704 433d c356 8d3e 1b16 bc3e
00000030: 2581 72be e9ef 96be ff51 a53f b414 37be
00000040: ecde 903f 519e ed3e 1b71 f5be 28b0 11bf
00000050: 72ba 033f bc55 eebe a31d 96bf 22fc 33bf
00000060: b9be 1e3d 413e 4d3f 14ec 7a3f aafe 403f
00000070: 1320 973e 5b09 d03e 4cb3 d4bf c4e3 0a3e
00000080: 5ac1 083f a6a4 f83e c66b 533f d83c c0bf

fc2.weight f4 [36, 36]
-0.46767685 1.0422381 -2.2140982 1.4031639 0.15193148 0.3583609 1.4577736 0.9279869
-1.3802989 -0.05973697 1.1238806 0.10576009 0.93840176 1.2071729 0.54492587 0.4074124
-0.49853897 -1.8873248 0.48438162 1.9047297 1.145959 0.61588657 1.3811338 1.9334756
1.1841348 -1.4150906 0.54291326 0.6280251 0.9039375 -2.0314643 -0.8055644 -0.28814852
0.15343939 0.88607925 0.32187572 1.8231868 0.7122048 -2.9125226 -1.9820223 -2.3859303
-1.6616821 1.0424937 -0.33196792 0.62959206 0.7517642 -1.185698 -0.27021736 0.559555
1.265256 -0.14632285 1.9135985 -1.1039473 2.1610436 -0.059262667 -0.7464972 -0.93038183
-2.5355074 -0.120151095 -2.4775188 -1.6289239 -0.2989333 -0.10369351 -0.17930141 0.8595482
-4.2603 -3.821865 -0.54344434 0.73284996 0.9166991 0.69050235 0.12345181 -1.4491166
-0.9453149 0.34983173 -1.7571756 1.7577658 0.6515691 0.7472747 -0.075026445 -0.7390846
0.06729779 0.70422876 -2.1647258 -0.30417073 1.6666764 0.30568805 -0.8817158 -1.6807941
-0.21341464 -0.8743906 0.87575036 1.4103329 0.63172776 0.7542262 -0.39724424 0.97902507
0.42807752 -2.0547078 0.24337451 -0.39614123 1.0301093 -1.1569611 -0.5728034 -0.030191455
0.18642807 1.138399 -0.121572286 0.66184914 -1.2848698 0.8065191 -2.8333328 1.9254491
0.6705747 0.15654713 0.44033873 0.8879885 -1.9987577 -0.2532093 1.1252015 -0.38396072
0.28083983 1.255836 0.21463756 -0.25021568 -0.19307224 -2.5152996 0.35172805 1.5295756
1.1056466 0.73437333 1.6195928 1.7427752 0.92332894 -1.3653786 0.11329586 0.15566401
1.0721605 -2.6265028 -1.3046172 -1.1165627 -0.9448657 1.2779311 -0.24144591 2.4474838
-0.54315835 1.4350712 0.4272575 1.0826868 0.83963054 -0.5999125 0.38794154 -2.800075
-0.037463423 -0.7086217 -3.5985544 0.8399371 1.007748 -2.3970783 0.50024635 -0.9079224
-0.48736656 -0.78281385 1.386702 -1.4859544 1.2825913 -0.27411982 -0.45367724 -0.49159232
0.037326142 -1.5811594 1.3883214 0.08557556 0.13393383 -0.79742664 1.4119006 -1.6145009
0.43768007 -2.5479546 0.9083773 -1.5885986 0.029723004 0.95944226 -1.5472138 1.2239844
-0.3093788 -0.0033978566 1.13628 -0.44030607 -1.4089011 -0.59470344 -0.09130903 0.24818732
-0.8216419 1.469934 -0.19067536 2.476978 -0.67310596 -1.4685681 -0.34265354 1.3832992
-0.31225482 1.4965298 1.6832472 1.7895066 0.8039336 -1.4253136 0.65698713 1.7093126
0.82104003 -0.008522687 -0.118796974 -1.5443357 -0.5220176 0.62885725 0.2864692 0.3631511
0.17176881 2.2175403 3.6948235 -0.049238093 -0.14907776 0.8080172 -1.6841481 0.35825863
-0.3621752 0.7469113 0.75475246 -1.4735976 0.5726925 0.003783988 0.122390285 -1.082035
0.8458679 -0.6292211 -3.497297 -1.2958511 -2.48637 -0.30865112 -2.0749836 -2.475829
-3.2370253 0.6016765 0.5440978 -1.0988847 0.50959176 1.5669843 -0.675468 2.5218875
-0.3213619 -0.028368719 -0.12525654 -0.684862 -0.43163216 -2.3424635 1.2102914 0.785566
00000000: 5773 efbe 0f68 853f c9b3 0dc0 e09a b33f
00000010: ed93 1b3e 147b b73e 5398 ba3f 8d90 6d3f
00000020: a2ad b0bf c1ae 74bd 52db 8f3f bf98 d83d
00000030: 193b 703f a484 9a3f 4380 0b3f 5c98 d03e
00000040: 8040 ffbe dc93 f1bf de00 f83e 2fce f33f
00000050: c9ae 923f beaa 1d3f fec8 b03f 217c f73f
00000060: bb91 973f b021 b5bf 5dfc 0a3f 41c6 203f
00000070: 7368 673f 8303 02c0 7839 4ebf 3488 93be
00000080: 371f 1d3e 17d6 623f e5cc a43e 2f5e e93f
00000090: 0e53 363f c566 3ac0 e8b2 fdbf 15b3 18c0
000000a0: 00b2 d4bf 6f70 853f b3f7 a9be f22c 213f
000000b0: 9e73 403f f4c4 97bf ee59 8abe ff3e 0f3f
000000c0: e9f3 a13f a8d5 15be ccf0 f43f 254e 8dbf
000000d0: 8a4e 0a40 69bd 72bd 711a 3fbf 812d 6ebf
000000e0: c145 22c0 c711 f6bd ab8f 1ec0 9480 d0bf
000000f0: c90d 99be 435d d4bd ca9a 37be 5a0b 5c3f
00000100: 6154 88c0 7099 74c0 2b1f 0bbf 0e9c 3b3f
00000110: cbac 6a3f c3c4 303f 4dd4 fc3d a77c b9bf
00000120: 2800 72bf 251d b33e 21eb e0bf 78fe e03f
00000130: 3ccd 263f 654d 3f3f 77a7 99bd a634 3dbf
00000140: 6cd3 893d 5648 343f de8a 0ac0 44bc 9bbe
00000150: a755 d53f 2583 9c3e 20b8 61bf 4324 d7bf
00000160: 5e89 5abe 10d8 5fbf 2d31 603f ca85 b43f
00000170: e9b8 213f f814 413f 9963 cbbe 63a1 7a3f
00000180: fa2c db3e 5580 03c0 2b37 793e 06d3 cabe
00000190: 9fda 833f 4d17 94bf 3ea3 12bf 1254 f7bc
000001a0: 00e7 3e3e 0fb7 913f e4fa f8bd f26e 293f
000001b0: 9d76 a4bf 0978 4e3f 5355 35c0 1e75 f63f
000001c0: c9aa 2b3f e44d 203e 1474 e13e 3753 633f
000001d0: 4bd7 ffbf a6a4 81be 9a06 903f 8096 c4be
000001e0: 3dca 8f3e 3cbf a03f f3c9 5b3e 451c 80be
000001f0: bbb4 45be abfa 20c0 b315 b43e 22c9 c33f
00000200: d485 8d3f e4ff 3b3f d14e cf3f 4213 df3f
00000210: 495f 6c3f bac4 aebf a907 e83d 6366 1f3e
00000220: 8e3c 893f 9f18 28c0 b2fd a6bf 87eb 8ebf
00000230: b8e2 71bf 3f93 a33f 993d 77be 93a3 1c40
00000240: 6d0c 0bbf 6ab0 b73f 7fc1 da3e 7b95 8a3f
00000250: 07f2 563f de93 19bf 46a0 c63e 6e34 33c0
00000260: 3f73 19bd 3b68 35bf b74e 66c0 1e06 573f
00000270: e3fd 803f bb69 19c0 2510 003f 9a6d 68bf
00000280: 1c88 f9be 7d66 48bf 737f b13f c133 bebf
00000290: f42b a43f 6f59 8cbe 6248 e8be fdb1 fbbe
000002a0: 4ce3 183d 6e63 cabf 84b4 b13f 3d42 af3d
000002b0: f325 093e 2724 4cbf 29b9 b43f f7a7 cebf
000002c0: 9a17 e03e b011 23c0 6a8b 683f 3357 cbbf
000002d0: a87d f33c 029e 753f 1a0b c6bf 85ab 9c3f
000002e0: e666 9ebe 93ae 5ebb 9f71 913f cc6f e1be
000002f0: df56 b4bf 7c3e 18bf 3b00 bbbd d124 7e3e
00000300: 2057 52bf cc26 bc3f 6740 43be cf86 1e40
00000310: ac50 2cbf 0afa bbbf 4970 afbe f30f b13f
00000320: dddf 9fbe 4a8e bf3f a574 d73f 8d0e e53f
00000330: 98ce 4d3f ad70 b6bf 4f30 283f c1ca da3f
00000340: ae2f 523f bda2 0bbc d44b f3bd cbac c5bf
00000350: f2a2 05bf cafc 203f 17ac 923e f1ee b93e
00000360: 2ae4 2f3e 2eec 0d40 fd77 6c40 e2ad 49bd
00000370: d7a7 18be 37da 4e3f 2a92 d7bf ad6d b73e
00000380: 076f b9be 9435 3f3f 7537 413f d99e bcbf
00000390: fa9b 123f c9fc 773b c2a7 fa3d 1f80 8abf
000003a0: cc8a 583f a214 21bf b7d3 5fc0 73de a5bf
000003b0: b020 1fc0 8507 9ebe 88cc 04c0 fb73 1ec0
000003c0: 6c2b 4fc0 7907 1a3f fe49 0b3f 41a8 8cbf
000003d0: 9b74 023f f192 c83f 79eb 2cbf 9b66 2140
000003e0: 8c89 a4be 8465 e8bc 4043 00be 1e53 2fbf
000003f0: e4fe dcbe ecea 15c0 d4ea 9a3f da1a 493f

fc2.bias f4 [36]
0.24793077 0.7425077 -1.0180402 -0.29304597 0.16408259 1.0091254 1.7302552 -0.8104914
-0.09810961 -1.1221328 0.35916397 -0.76710737 -0.90678537 0.88477296 -0.47968847 -0.6748493
-0.121786945 -1.5167238 0.60786355 -0.96202433 -1.719284 1.0585154 -0.17824365 0.68689996
-0.39163256 0.46928093 0.14690131 -0.06239437 0.5411958 -1.0475719 -0.15966886 1.1567831
-0.80734277 -0.69481057 1.34217 -0.14376068
00000000: 90e1 7d3e fc14 3e3f 244f 82bf 1f0a 96be
00000010: 4405 283e 052b 813f 0179 dd3f 5d7c 4fbf
00000020: b1ed c8bd 0ca2 8fbf 57e4 b73e 2661 44bf
00000030: 1623 68bf 7b80 623f ba99 f5be ecc2 2cbf
00000040: 6f6b f9bd 0124 c2bf f29c 1b3f 3a47 76bf
00000050: 8011 dcbf 6f7d 873f 8185 36be add8 2f3f
00000060: 1084 c8be 9745 f03e 4c6d 163e 3d91 7fbd
00000070: cf8b 0a3f d616 86bf 3c80 23be 7811 943f
00000080: 04ae 4ebf 1bdf 31bf 3acc ab3f 0036 13be

out.weight f4 [4, 36]
-1.0175781 2.0386155 -0.6757127 -1.605129 -1.2289433 -0.5374586 3.3265357 2.1253107
0.13926955 1.0697438 -1.1487242 -1.2522559 -0.20345944 2.8283591 0.69438666 -0.82599616
-0.0037956072 -1.5648491 2.2486167 0.24696098 0.7792354 4.4700804 2.441454 -0.63517356
-1.040666 2.6986008 -1.4988737 -0.13841166 1.4821126 -1.5313721 -0.10790914 5.6167674
-1.490651 -0.24964896 2.9532814 -1.2755655 -1.3495791 1.9522817 -1.3950441 -0.8076945
0.6069919 -0.2917625 3.3959084 2.3464491 -0.049794603 1.4510967 -1.2511845 -1.5362076
-0.056773122 2.600652 1.1031779 -0.28181595 0.18459575 -1.1483829 2.6361728 -0.29562032
-2.6677935 4.4167686 2.0499296 -0.80747443 -1.9248596 2.7457514 -0.9972121 0.12091632
1.431255 -1.7692606 -0.08687724 5.436303 -1.8395114 -1.0810719 2.810204 -0.4948545
-1.4214778 1.5866898 -1.4585328 -1.0968151 -0.51664376 -1.4274752 2.4685347 2.400917
0.093385756 2.5243778 -1.3658903 -1.086717 -1.4710835 2.9273684 1.790607 -0.53162634
0.054833286 -1.5974444 2.8550208 3.7297125 0.6479125 3.9426873 2.7706494 -1.1832727
0.6880625 2.6018019 -0.70037794 0.11050749 1.7967211 -1.5421517 -0.12531677 5.7622166
-0.11553715 0.53615487 2.6552343 -2.6076481 -0.9412423 2.029118 -1.0334388 -1.1437984
-1.5435592 -1.0109253 3.176946 2.7729764 0.0672818 -0.32205084 -1.3514446 -0.67456764
-0.74160516 2.619994 0.15099704 -0.83479714 -0.1369195 -1.4052577 2.163264 2.5797958
0.28312495 4.223015 2.6404126 -0.51850235 -0.27499756 2.5250099 -1.0182205 -0.02631613
1.7507776 -2.1766918 -0.03540136 5.705133 -0.9369856 0.53383136 2.7078369 -2.0069423
00000000: 0040 82bf ad78 0240 82fb 2cbf de74 cdbf
00000010: 044e 9dbf e396 09bf f6e5 5440 1705 0840
00000020: ad9c 0e3e 5ded 883f 6509 93bf ec49 a0bf
00000030: ac57 50be d603 3540 53c3 313f 7c74 53bf
00000040: b9bf 78bb fa4c c8bf 56e9 0f40 57e3 7c3e
00000050: f97b 473f e60a 8f40 c840 1c40 bc9a 22bf
00000060: 8b34 85bf e0b5 2c40 18db bfbf c9bb 0dbe
00000070: deb5 bd3f 0004 c4bf 78ff dcbd 8fbc b340
00000080: a7cd bebf faa3 7fbe 9002 3d40 bb45 a3bf
00000090: 02bf acbf 5ee4 f93f ce90 b2bf 11c5 4ebf
000000a0: d263 1b3f e561 95be 9056 5940 392c 1640
000000b0: 6df5 4bbd 89bd b93f d026 a0bf 73a2 c4bf
000000c0: ef8a 68bd 1571 2640 ef34 8d3f 2e4a 90be
000000d0: ab06 3d3e 36fe 92bf 0eb7 2840 8c5b 97be
000000e0: 21bd 2ac0 2b56 8d40 0c32 0340 a5b6 4ebf
000000f0: cd61 f6bf 64ba 2f40 4b49 7fbf faa2 f73d
00000100: 5d33 b73f 2277 e2bf b2ec b1bd 32f6 ad40
00000110: 1c75 ebbf 9060 8abf 62da 3340 925d fdbe
00000120: fcf2 b5bf a718 cb3f 34b1 babf 7064 8cbf
00000130: c442 04bf 82b7 b6bf 79fc 1d40 a0a8 1940
00000140: 0841 bf3d 688f 2140 7ed5 aebf 8b19 8bbf
00000150: 774c bcbf 015a 3b40 9c32 e53f aa18 08bf
00000160: de98 603d 0f79 ccbf a9b8 3640 9cb3 6e40
00000170: 98dd 253f fd54 7c40 5252 3140 7b75 97bf
00000180: dd24 303f ec83 2640 f84b 33bf c051 e23d
00000190: f5fa e53f 3a65 c5bf 0a53 00be 1464 b840
000001a0: be9e ecbd 7241 093f 5cef 2940 b5e3 26c0
000001b0: 41f5 70bf 12dd 0140 b947 84bf fc67 92bf
000001c0: 5993 c5bf 0066 81bf 1553 4b40 7278 3140
000001d0: 0acb 893d d9e3 a4be 23fc acbf 77b0 2cbf
000001e0: d6d9 3dbf fbad 2740 f89e 1a3e 44b5 55bf
000001f0: a034 0cbe 7cdf b3bf eb72 0a40 601b 2540
00000200: c1f5 903e f022 8740 85fc 2840 92bc 04bf
00000210: 7bcc 8cbe c399 2140 0d55 82bf ed94 d7bc
00000220: 7b19 e03f eb4e 0bc0 0401 11bd 7390 b640
00000230: 4ade 6fbf 2ca9 083f 334d 2d40 be71 00c0

out.bias f4 [4]
0.6928251 2.1963387 -0.96906734 0.07774064
00000000: fc5c 313f d090 0c40 cc14 78bf 7c36 9f3d
