Lunar Lander V2 Hau Zheng Yi/models/model_210621_204705.pth (torch, 9503 bytes, 6 tensors)

fc1.weight f4 [36, 8]
0	0xbfaa16ff	-1.3288268
1	0xbf10f0ca	-0.56617415
2	0x3e60c1c2	0.21948913
3	0xbea38ab7	-0.3194177
4	0x3ea72f5f	0.3265333
5	0xbce0e12b	-0.027451118
6	0xbef860e0	-0.4851141
7	0x3ebaae17	0.36460945
8	0xbf5936b7	-0.84849113
9	0x3ce7a3cf	0.028276352
10	0xbf2148e6	-0.6300186
11	0xbfc9f9a2	-1.5779307
12	0x3e294cae	0.16533157
13	0xbe86859b	-0.26273808
14	0x3dd260bd	0.102723576
15	0x3f05a834	0.5220978
16	0xbe0910fe	-0.13385388
17	0xbf572cae	-0.8405255
18	0x3fad317a	1.3530724
19	0xbf23ee73	-0.6403572
20	0xbf6ca8ec	-0.92445254
21	0x3f6dcb47	0.928883
22	0xbe748bfb	-0.23881523
23	0xbf3dd669	-0.7415529
24	0x3f6aa677	0.91660255
25	0xbd237adf	-0.0399121
26	0x3f040646	0.5157207
27	0xbf8d1369	-1.1021549
28	0xbf63b8ba	-0.88953745
29	0xc03be8a4	-2.9360743
30	0x3eb9b9ba	0.3627451
31	0x3d8ff256	0.07028644
32	0xbdaff2e4	-0.085912496
33	0x3f136ce8	0.5758805
34	0xbee1233c	-0.43972194
35	0x3f29e178	0.66359663
36	0x3fed4360	1.8536186
37	0x3ebada35	0.36494604
38	0xbd7ed189	-0.062211547
39	0xc00babdf	-2.1823652
40	0x3ea42096	0.3205611
41	0xbfc664e2	-1.5499537
42	0xbfae074e	-1.3595979
43	0xbf90b711	-1.1305867
44	0xbe3ee9d6	-0.18643889
45	0xbecd2a43	-0.40071306
46	0xbde2560f	-0.110515706
47	0xbe0996db	-0.13436453
48	0x3f7b9599	0.9827514
49	0xbe6c54ae	-0.23079178
50	0x3feff2ac	1.8745933
51	0x3b44031a	0.0029909075
52	0xbe9cff60	-0.30663586
53	0xbea4b5ee	-0.3217005
54	0x3fa62066	1.2978637
55	0x3f9bdb6b	1.2176336
56	0xbd5dbf60	-0.054137588
57	0x3ed496a2	0.41521174
58	0x3f35b460	0.70978355
59	0xbfec80cb	-1.8476804
60	0xbefcdd17	-0.49387428
61	0x3f35ce0e	0.7101754
62	0xbfdb97c9	-1.7155696
63	0x3f9806c4	1.1877065
64	0x3ec11c91	0.37717107
65	0xc029e50f	-2.6546056
66	0xbf9ac073	-1.2089981
67	0xbf148a26	-0.580233
68	0xbed8a2bb	-0.42311653
69	0x3fab2b81	1.3372651
70	0x3f21b0c1	0.6316033
71	0xbe239214	-0.15973693
72	0xbeb36139	-0.35035113
73	0x3e9ea347	0.30983946
74	0x3c9d252a	0.01918276
75	0xbf0152c2	-0.50516903
76	0x3db5d107	0.088777594
77	0x3f91ff6c	1.1406074
78	0x3feb3cc2	1.8377917
79	0x3f814d3c	1.0101695
80	0xbfd04844	-1.6272054
81	0xbe18d2b9	-0.14924134
82	0xbfb901c8	-1.4453669
83	0x3f8a762b	1.0817312
84	0xbec96f32	-0.39342648
85	0xbeeb525d	-0.45961276
86	0x3d8ac66e	0.06776129
87	0x3f914c02	1.1351321
88	0x3faeab4e	1.3646028
89	0x3ee51faf	0.44750735
90	0x3f1f7a90	0.6229639
91	0x3f0c6536	0.54841936
92	0x3f37057c	0.71492743
93	0x4007509a	2.1142945
94	0x3f168fd1	0.58813196
95	0x3dcebd5b	0.100947104
96	0xbe048f25	-0.1294523
97	0xbe69e207	-0.22840129
98	0xbf748a11	-0.9552317
99	0xc0086414	-2.1311083
100	0x3f18c329	0.5967279
101	0x3fa7ddb9	1.3114539
102	0x3fceb29d	1.6148258
103	0xbfe8bc86	-1.8182533
104	0xbf0d01a5	-0.55080634
105	0x3d2d880e	0.04236608
106	0xba20653a	-0.00061185996
107	0xbf3bf349	-0.734181
108	0xbf893596	-1.0719478
109	0xbfb5c42d	-1.4200493
110	0x3f25baf3	0.64738387
111	0xbf016fed	-0.5056141
112	0x3f3e0d21	0.74238783
113	0xbeaca756	-0.33721417
114	0x3f566613	0.837495
115	0xbf0c5936	-0.54823625
116	0x3fb15719	1.3854705
117	0xbe33c494	-0.17555457
118	0xbfc7ffc2	-1.5624926
119	0xbeacd959	-0.33759573
120	0xbe03e034	-0.12878495
121	0x3d3e1bec	0.046413347
122	0xbe9b775b	-0.30364498
123	0xbe214edb	-0.15752737
124	0xbfaaf601	-1.3356324
125	0x3fab5cd0	1.3387699
126	0xbf1549a8	-0.58315516
127	0x3dd43eb6	0.10363524
128	0x3fa640ac	1.2988486
129	0xbfb55851	-1.4167577
130	0x3f3c4623	0.7354452
131	0x3fbea291	1.4893361
132	0x3e27390d	0.16330357
133	0xc038aa00	-2.885376
134	0xc011955e	-2.2747416
135	0xbf15ccbe	-0.58515537
136	0xc00740b6	-2.1133246
137	0x3fa59208	1.293519
138	0xbea4101e	-0.32043546
139	0xbfc8b146	-1.56791
140	0xbfa5abb4	-1.2943025
141	0x3e93c1ae	0.28858703
142	0x3f3275c9	0.69710976
143	0x3ecfb4f0	0.40567732
144	0xbe7947f4	-0.24343854
145	0xbf4136bd	-0.7547415
146	0x3e602d1f	0.21892212
147	0xbe9e148b	-0.30875048
148	0xbf95b0f5	-1.1694628
149	0xbe29b356	-0.16572317
150	0xbea764f6	-0.32694215
151	0x3eeeefc2	0.46667296
152	0xc047cb2c	-3.1217756
153	0xbe9c59ca	-0.30537254
154	0xbf5bb69a	-0.858255
155	0xbeb1d30d	-0.3473133
156	0xbe8e3657	-0.27775833
157	0x3f3eef42	0.7458383
158	0xbf09f225	-0.5388511
159	0xbeece62f	-0.46269366
160	0xbfd4770e	-1.6598833
161	0xbebdf52f	-0.37101123
162	0x3fcf8086	1.6211097
163	0x3f83c1ee	1.0293558
164	0xbfbc9022	-1.4731486
165	0x3eb96388	0.3620875
166	0xbf188546	-0.5957836
167	0x3fe658bc	1.799583
168	0x3fae99c4	1.3640676
169	0x3e1c6514	0.15272933
170	0x40359417	2.8371637
171	0xbe2c4325	-0.16822489
172	0xbfdbc752	-1.7170203
173	0xbe08d28e	-0.1336157
174	0x3e85c2ab	0.26125082
175	0x3d96e213	0.07367339
176	0xbfc0569d	-1.5026432
177	0xbfcd05bd	-1.6017376
178	0xbffaa424	-1.9581342
179	0xbeda4640	-0.42631721
180	0x3db72f4d	0.08944569
181	0xbcf166ea	-0.029468019
182	0x3f209ae9	0.62736374
183	0x3ee4d78e	0.44695705
184	0x3da3c85d	0.07997201
185	0xbfac7b4f	-1.3475131
186	0x3fe1ab10	1.7630329
187	0xbee25799	-0.44207457
188	0xbf6f9bbd	-0.9359701
189	0x3ef0e5c1	0.47050288
190	0x3f9f9187	1.2466286
191	0x3f3c2dd9	0.7350746
192	0xbf34c8c5	-0.7061885
193	0x40618094	3.5234728
194	0x40445056	3.0674033
195	0x3f98cc68	1.193738
196	0xbfdf2ed8	-1.743617
197	0x3e60fc6b	0.2197129
198	0xbe20f23a	-0.15717402
199	0xbdb6aa32	-0.08919181
200	0xbc24d9a7	-0.010061658
201	0x3e0efd52	0.13963822
202	0x40214580	2.519867
203	0xbfd5106c	-1.6645637
204	0xbe7ccee4	-0.24688298
205	0xbe8027d4	-0.25030386
206	0xbf343916	-0.70399606
207	0xbe5acd24	-0.21367317
208	0xbe93447e	-0.28763193
209	0x3f380897	0.7188811
210	0x3c08c91b	0.0083487285
211	0x3fa4bbfd	1.286987
212	0xbe333a2d	-0.17502661
213	0xbf855894	-1.0417657
214	0xbf695934	-0.9115174
215	0x3fb2a311	1.3956014
216	0x3ea2cbdc	0.31796157
217	0x3f1d8667	0.61533207
218	0xbf84f8b6	-1.03884
219	0xbf8843ea	-1.0645726
220	0xbf48ac6e	-0.78388107
221	0x3fb89931	1.442175
222	0xbe1b6b21	-0.15177585
223	0x3ec54439	0.38528612
224	0x3eb79aa6	0.35860175
225	0xbf2d9890	-0.67810917
226	0xbcc8ff09	-0.024535673
227	0xc004d1b5	-2.0752995
228	0xbe882e36	-0.26597756
229	0x3f97f9dc	1.1873126
230	0xbd9a865a	-0.07545157
231	0x3ef841c1	0.48487666
232	0xbc55b5f8	-0.013043873
233	0x3f4117cb	0.7542693
234	0xbe7ee5da	-0.24892369
235	0x3fc08b37	1.5042485
236	0x3f833e75	1.0253435
237	0x3f15028a	0.58207
238	0x3f579290	0.8420801
239	0x3f5cb5a4	0.8621466
240	0x3fdf0515	1.7423426
241	0x3e03043f	0.12794589
242	0x400e8246	2.2267013
243	0x3e4524fc	0.1925239
244	0xc01adc33	-2.41969
245	0xbf0267d0	-0.50939655
246	0x3ee3a8cb	0.44464716
247	0xbe8ac16c	-0.27100694
248	0x3fc632fd	1.548431
249	0x3eb41b21	0.35176948
250	0x400a8b7d	2.1647637
251	0x3e7f2280	0.24915504
252	0x3edfaad8	0.4368503
253	0x3fcd59d0	1.6043034
254	0xc034f3f0	-2.8273888
255	0xbe73d52a	-0.23811784

fc1.bias f4 [36]
0	0x3f811b82	1.008652
1	0x3f78abeb	0.97137326
2	0x3eb55947	0.35419676
3	0xbf757dc4	-0.9589503
4	0x3f043ab1	0.51652056
5	0xbeafd955	-0.343455
6	0xbfa10ca1	-1.2581979
7	0x3f0275a2	0.50960743
8	0xbfe070ba	-1.7534401
9	0xbe0c6711	-0.13711192
10	0xbdee2ca9	-0.11629612
11	0xbd9ee174	-0.077578455
12	0xbfc72516	-1.5558193
13	0x3fa9be34	1.326117
14	0x3f8547fc	1.0412593
15	0x3f984874	1.1897111
16	0x3f5af829	0.8553491
17	0x3e60d1c6	0.21955022
18	0x3f53cec3	0.8273737
19	0x3e9470db	0.28992352
20	0x3e8b1bfd	0.2716979
21	0xbec3c0b9	-0.38232973
22	0xbf81570c	-1.010469
23	0x3e92741d	0.28604212
24	0x3f191df6	0.5981134
25	0xbd578d7d	-0.052625168
26	0x3f4ba3bd	0.7954672
27	0x3f4afda2	0.7929326
28	0xbfaa9be7	-1.3328828
29	0x3eb78052	0.35840088
30	0xbe4b133f	-0.1983156
31	0x3f1ce689	0.6128927
32	0xbf916937	-1.1360234
33	0x3e10106a	0.14068761
34	0x3f942c88	1.157609
35	0xbf465f09	-0.7748876

fc2.weight f4 [36, 36]
0	0x3f9a2634	1.2042909
1	0x3ea10056	0.3144557
2	0xbf5790a8	-0.842051
3	0xbfe1207e	-1.7588041
4	0xbdcf4165	-0.10119895
5	0x3f3cb03d	0.7370642
6	0x40010539	2.0159438
7	0x3d03df22	0.032195218
8	0x3f11edaa	0.5700327
9	0xbe83271e	-0.25615782
10	0x3f8479ae	1.0349634
11	0x3fb839dc	1.4392657
12	0x3eeca2b3	0.4621788
13	0xbf7e5c01	-0.99359137
14	0xbf27bc55	-0.65521747
15	0xbe1c3817	-0.15255772
16	0x3b8b7dd0	0.0042569414
17	0x3e99bee4	0.3002845
18	0xbf136c35	-0.57586986
19	0xbe542a9d	-0.2071938
20	0x3e902458	0.28152728
21	0xbee634c8	-0.44962144
22	0x3f9f6800	1.2453613
23	0xbfd1d9df	-1.6394614
24	0x3ed3604f	0.41284415
25	0xbee35ce8	-0.4440682
26	0x3e88f9aa	0.2675298
27	0x3f15b593	0.58480185
28	0x3f340036	0.7031282
29	0x3f99e9fe	1.2024534
30	0xbf008726	-0.5020622
31	0x3e7a5788	0.24447453
32	0x3ebed7d2	0.37274033
33	0xbef6c015	-0.48193422
34	0x3f88cf73	1.0688308
35	0xc06b469a	-3.6761842
36	0xbf579312	-0.84208786
37	0x3e925041	0.28576854
38	0x3d282b05	0.04105665
39	0xc00d7f09	-2.2108786
40	0xbfabc81d	-1.3420445
41	0x3d1a53b3	0.037677478
42	0xc00997d2	-2.1498914
43	0xbe0bf567	-0.13667832
44	0xbfd69d2f	-1.6766719
45	0xbec0c9cb	-0.37653956
46	0x3eff1454	0.49820197
47	0xbfb85bb5	-1.4402987
48	0xc01ebb20	-2.4801712
49	0x3e396a4e	0.18106958
50	0xbfa3470d	-1.2756058
51	0x3e2b5137	0.167302
52	0xbe142608	-0.14467633
53	0x3f3a75fd	0.72836286
54	0xc0250dd5	-2.5789692
55	0x3f1a56ac	0.602885
56	0xbf7194cd	-0.94367677
57	0xbf090973	-0.53530043
58	0xbc881b2d	-0.01661452
59	0xc001d23a	-2.0284562
60	0x3ec1bcf9	0.37839487
61	0x3fb7601d	1.4326206
62	0x3ef09396	0.469876
63	0x3fb9bb01	1.4510194
64	0x3ea53733	0.32268676
65	0xbf8c854a	-1.0978177
66	0xbf8c1947	-1.0945214
67	0x4011818e	2.2735324
68	0xbf0b89ca	-0.54507124
69	0x3fd6259b	1.6730226
70	0x3e23f8cf	0.16012882
71	0xbe56ac0a	-0.20964065
72	0x3f8c9607	1.0983285
73	0x3eb46d77	0.35239765
74	0xbe09878b	-0.13430612
75	0x3f1f5923	0.62245387
76	0x3df4c998	0.119525135
77	0x3fa2843a	1.2696602
78	0x3f915217	1.1353177
79	0x3e9e3f63	0.30907735
80	0x3f9c6b42	1.2220232
81	0x3ea2da06	0.31806964
82	0x3fbf103f	1.4926833
83	0x3f72a1f4	0.9477837
84	0x3f3675b7	0.7127337
85	0xbe8ca385	-0.27468506
86	0x3ea63009	0.32458523
87	0xbef6b52e	-0.48185104
88	0x3f1fcf73	0.6242592
89	0x3f47fb05	0.781174
90	0x3dada477	0.08478635
91	0x3f04fbdc	0.51946807
92	0x3d49c84c	0.049263284
93	0x3f9985df	1.1993979
94	0x3fdc77f4	1.7224107
95	0xbfafbb42	-1.3729022
96	0x3f947dda	1.1600907
97	0xbfaedea8	-1.3661699
98	0xbed54662	-0.4165526
99	0xbe507dfd	-0.2036056
100	0x3fba82ee	1.4571207
101	0x3f170045	0.58984786
102	0x3f802724	1.0011945
103	0x3e762ea5	0.24041231
104	0x3f713c64	0.94232774
105	0xbf32cbaf	-0.69842046
106	0x3e866964	0.26252282
107	0x3f014acb	0.5050475
108	0x3cab138f	0.02088335
109	0xbd3cff2b	-0.046141785
110	0xbd0fcfe9	-0.035110388
111	0x3e118e97	0.1421455
112	0xbccc2b37	-0.02492295
113	0x3e26d371	0.16291596
114	0xbdff346e	-0.12461172
115	0xbda58513	-0.080820225
116	0x3da150c8	0.07876736
117	0xbe07ee97	-0.13274609
118	0xbdd8150b	-0.10550889
119	0xbd4b23f7	-0.049594846
120	0xbe1fbc1b	-0.155991
121	0xbe08c849	-0.13357653
122	0xbe3d993c	-0.18515486
123	0xbc901e28	-0.017592505
124	0xbe161472	-0.14656237
125	0xbe17fce8	-0.1484257
126	0xbe1baf93	-0.15203695
127	0x3c9e140c	0.019296668
128	0x3dedf12e	0.11618267
129	0x3d9f7208	0.077854216
130	0xbe106d23	-0.14104132
131	0xbcb67342	-0.022271756
132	0xbd95b641	-0.07310153
133	0x3dea8094	0.114503056
134	0xbdfde9b8	-0.12398094
135	0xbdf15aab	-0.11784872
136	0x3c6b4530	0.014359757
137	0x3ce225c2	0.027605895
138	0xbd24e36c	-0.04025595
139	0xbd5ba15c	-0.05362068
140	0xbe14f98e	-0.14548323
141	0x3dad47ea	0.08460982
142	0xbdb6117e	-0.08890055
143	0xbd97755b	-0.07395431
144	0xbf7fcba6	-0.9992012
145	0x3f0b3953	0.54384345
146	0x4029ce9d	2.6532357
147	0xbf486e72	-0.78293526
148	0x3ecf2b3d	0.40462676
149	0xbf8038e1	-1.0017358
150	0xc0210c71	-2.5163844
151	0x3f07132d	0.52763635
152	0x3fb63a31	1.4236509
153	0xbfac8019	-1.3476592
154	0xc02d1ec9	-2.705004
155	0x3f0d0415	0.55084354
156	0x3eb31435	0.34976354
157	0x3fc468d0	1.5344486
158	0x3fce68a3	1.6125683
159	0x3f355a1c	0.7084062
160	0xbf8d4b24	-1.1038556
161	0xbeb40c0c	-0.3516544
162	0xbf4923b9	-0.78570133
163	0xbf974fa8	-1.1821184
164	0xbf1ea010	-0.61962986
165	0xc004dc3c	-2.075942
166	0x3dd7149f	0.1050198
167	0x3f67535b	0.90361565
168	0xc0085ac4	-2.13054
169	0x3eac1993	0.33613262
170	0x3f0e9892	0.55701554
171	0x3ea802d1	0.3281465
172	0x3fb042de	1.3770406
173	0xbf8c8c1a	-1.0980256
174	0xc0942632	-4.6296625
175	0x3ecbbf84	0.39794552
176	0xc05741e5	-3.363397
177	0xc038b4c8	-2.886034
178	0x3f594684	0.84873223
179	0xbfb0e4d3	-1.3819832
180	0x3ca0a3ba	0.01960932
181	0xbdedc513	-0.116098545
182	0xbe1877d9	-0.14889468
183	0xbdd21496	-0.10257833
184	0xbd26d35a	-0.040728904
185	0x3d2d5124	0.04231371
186	0xbe0090aa	-0.12555185
187	0xbe561300	-0.20905685
188	0xbe138a57	-0.14408241
189	0x3d04f98e	0.032464556
190	0x3d10ac80	0.03532076
191	0x3b8120a6	0.0039406596
192	0x3d6c68c1	0.05771709
193	0xbe843e6e	-0.2582888
194	0xbb9685d7	-0.0045935917
195	0xbd2a164c	-0.04152517
196	0xbc39cec9	-0.011340805
197	0xbd730e17	-0.05933961
198	0xbdcd8681	-0.1003542
199	0xbe2594d1	-0.1617005
200	0xbdb98c45	-0.090599574
201	0xbdd84d88	-0.10561663
202	0x3c0dac00	0.008646965
203	0x3d84d866	0.06486587
204	0xbd5d7bec	-0.05407326
205	0x3dc50b23	0.09621265
206	0xbda53863	-0.080673955
207	0x3d6d7709	0.05797485
208	0xbe279fea	-0.16369596
209	0xbe59d576	-0.21272835
210	0xbdd7055e	-0.104990706
211	0xbe5ef0a1	-0.2177148
212	0xbc94db00	-0.018170834
213	0xbe0b419c	-0.13599247
214	0xbde36949	-0.11104066
215	0xbd20247c	-0.039097294
216	0xbe14cce4	-0.14531285
217	0xbe0590a4	-0.13043457
218	0xbd4e4916	-0.05036267
219	0xbe0d1b39	-0.13779916
220	0xbe099de8	-0.13439143
221	0xbe232d2b	-0.15935199
222	0xbd0b95ae	-0.034078293
223	0xbdadfb28	-0.0849517
224	0x3e00021f	0.12500809
225	0x3d54cde7	0.051954176
226	0xbe3a7227	-0.18207608
227	0xbdb30098	-0.087403476
228	0xbe0ee757	-0.13955437
229	0x3d9a01da	0.075198844
230	0xbd89fcd8	-0.06737679
231	0xbe2317d6	-0.15927061
232	0xbdd0ac62	-0.101891294
233	0x3de0e7d9	0.109817214
234	0xbc5a4d80	-0.0133241415
235	0xbe0f8f13	-0.14019422
236	0xbcec54a0	-0.028848946
237	0x3d70cc67	0.058788683
238	0xbc1b74a7	-0.009488261
239	0xbe052bef	-0.1300504
240	0xbde90be5	-0.11379222
241	0xbdf1290a	-0.11775406
242	0xbd809f5a	-0.06280394
243	0xbde6d912	-0.112718716
244	0x3d43acc3	0.04777218
245	0x3d84a8b2	0.064774886
246	0x3d8960cf	0.06707918
247	0x3e0a10aa	0.1348292
248	0x3e0c6d3c	0.13713545
249	0xbe0c56b5	-0.13704951
250	0xbd3e0ea4	-0.04640068
251	0x3d416400	0.047214508
252	0xbf16cddb	-0.5890786
253	0xbe79ef7b	-0.24407761
254	0x3f7d8d9a	0.9904419
255	0x3f86f167	1.054242

fc2.bias f4 [36]
0	0x3cadf911	0.021236928
1	0x3dfa5ffb	0.12225338
2	0xbec6e57b	-0.38846955
3	0xbdc2a230	-0.09503591
4	0x3f293ff6	0.6611322
5	0xbd81cd2c	-0.063379616
6	0xbe294f97	-0.16534267
7	0x3f338453	0.70123786
8	0xbe719e03	-0.23595433
9	0x3f84199d	1.0320317
10	0xbf597603	-0.84945697
11	0xbeb98646	-0.36235255
12	0xbdca428b	-0.09875973
13	0xbe1455a1	-0.1448579
14	0x3d9a9849	0.07548577
15	0xbc68f23d	-0.01421791
16	0xbe6d1e3b	-0.23156063
17	0x3f2d9ed8	0.678205
18	0x3f80b667	1.0055665
19	0x3eae73e1	0.34072784
20	0xbea8e77d	-0.32989112
21	0xbe80fd6f	-0.25193354
22	0xbf031874	-0.5120919
23	0x3f3c8521	0.7364064
24	0x3e3dfeef	0.1855428
25	0xbdaaf8c5	-0.0834823
26	0x3faa96be	1.3327253
27	0x3ed58fba	0.41711217
28	0xbec8bcf4	-0.3920666
29	0xbecd7ba8	-0.40133405
30	0xbdc7dc66	-0.097588345
31	0x3c7d6eea	0.0154683385
32	0xbe09f3ea	-0.13471952
33	0x3fad52ae	1.3540857
34	0x3f38794c	0.72060084
35	0x3f060356	0.5234884

out.weight f4 [4, 36]
0	0xbf6d0a04	-0.9259341
1	0x40722c57	3.7839563
2	0xbf49cac5	-0.78825027
3	0xbd2a2a90	-0.041544497
4	0x403427d8	2.8149319
5	0x3c6c71ef	0.014431461
6	0x3df7c976	0.120989725
7	0x400f9aaa	2.243815
8	0xbf49ad17	-0.7877974
9	0x3ff373f5	1.9019762
10	0xbf28882f	-0.658328
11	0xbfbb32ac	-1.4624839
12	0xbf36fd8b	-0.71480626
13	0xbefc0bc8	-0.49227738
14	0x404798c5	3.1186993
15	0xbc6e1d79	-0.014533394
16	0xbf485986	-0.782616
17	0x3fa03d90	1.2518787
18	0x40250624	2.5784998
19	0x3f899bd7	1.0750684
20	0x3f42d45d	0.7610529
21	0x408eeeab	4.4666343
22	0xbd959025	-0.07302884
23	0xc00a4938	-2.160719
24	0x3f8a2f91	1.0795766
25	0xbfa90cbb	-1.320701
26	0x4031616f	2.7715719
27	0x3f8c9bd6	1.0985057
28	0xbf0c90cd	-0.5490845
29	0xbf51bf42	-0.8193246
30	0xbf2d61cc	-0.6772735
31	0x3faedde5	1.3661467
32	0xbf5380ed	-0.826186
33	0x40113bd7	2.2692773
34	0x4037d339	2.872267
35	0x4067ae25	3.620004
36	0xbffef962	-1.9919856
37	0x4066b428	3.6047459
38	0xbf0b3067	-0.5437073
39	0xbaa0b980	-0.0012262315
40	0x40459a40	3.0875397
41	0x3c9cd6c6	0.01914538
42	0x3db5593a	0.08854909
43	0x400fd10f	2.247135
44	0xbe4b44e9	-0.19850506
45	0x404337e3	3.050286
46	0xbfbba573	-1.4659866
47	0xbfa7c35d	-1.3106495
48	0xbeb3046d	-0.34964314
49	0xbf15c246	-0.5849956
50	0x407295c2	3.7903905
51	0x3db7cb02	0.089742675
52	0xbe89c1d9	-0.26905707
53	0x4008e2bf	2.1388395
54	0x401e1869	2.4702399
55	0x3ca514e2	0.02015156
56	0xbf0c56ee	-0.54820144
57	0x408a1c5f	4.3159633
58	0x3e11e6a1	0.14248134
59	0xc00f29c0	-2.2369232
60	0x3f0b325f	0.54373735
61	0xbfa0d4ec	-1.2564979
62	0x3fe6464c	1.7990203
63	0x3fe5a2ea	1.7940342
64	0xbf0e8207	-0.55667156
65	0xbf545a67	-0.82950443
66	0xbe660e16	-0.22466311
67	0x3f8ea651	1.1144506
68	0xbecbfb4f	-0.3984017
69	0x402029e2	2.5025563
70	0x40453f01	3.0819705
71	0x404b380a	3.1752954
72	0xbf5e7c90	-0.8690882
73	0x405c3aa8	3.44108
74	0xbf3ab2c6	-0.72929037
75	0x3b6e3c00	0.003635168
76	0x40429fdc	3.041007
77	0x3d73c100	0.05951023
78	0x3dcfb8b5	0.10142652
79	0x401bfb60	2.4372177
80	0x3f222eff	0.6335296
81	0x3ff234fd	1.8922421
82	0x3e47be9f	0.1950631
83	0xbfcfca0d	-1.6233536
84	0xbf88cd9d	-1.0687748
85	0xbf49cad0	-0.7882509
86	0x403bf536	2.9368415
87	0x3e14f04e	0.14544794
88	0xbf4514ff	-0.7698516
89	0x3fb95759	1.4479781
90	0x40136302	2.302918
91	0x3fefc1cf	1.8731021
92	0x3f74f9db	0.9569375
93	0x408989f7	4.2980914
94	0x3fa20b46	1.265969
95	0xbfccf58e	-1.6012437
96	0x3fb9eb57	1.4524945
97	0xbfcc55b1	-1.5963651
98	0x402abde3	2.6678398
99	0x3f76de33	0.964328
100	0xbf40bce8	-0.7528825
101	0xbf8219b0	-1.0164089
102	0xbf75e08c	-0.96045756
103	0x4000663e	2.0062404
104	0xbf8917d1	-1.0710393
105	0x3f1a687f	0.603157
106	0x4043306d	3.0498307
107	0x404e2e77	3.221586
108	0x3e30bf28	0.1726042
109	0x40722400	3.7834473
110	0xbf1130c9	-0.56715065
111	0xbdda8686	-0.106701896
112	0x402e1889	2.7202475
113	0x3d7fdee0	0.06246841
114	0x3ccb85b6	0.024844032
115	0x40042310	2.06464
116	0x3d0ccd37	0.034375396
117	0x3fb446f8	1.4084158
118	0xbf5837c2	-0.8446008
119	0xbfae48ef	-1.3616008
120	0xbf355e71	-0.7084723
121	0xbf635ccd	-0.8881348
122	0x404fb6c4	3.2455301
123	0xbdb5327b	-0.08847519
124	0xbf6cc80e	-0.9249276
125	0x3fe0cff8	1.7563467
126	0x40200c0c	2.5007353
127	0x3f8f931c	1.1216769
128	0x3f0fce5a	0.5617424
129	0x408a8241	4.3284
130	0xbee3ae22	-0.4446879
131	0xc006e002	-2.1074224
132	0x3f815ea4	1.0107007
133	0xbfc2d4fb	-1.5221246
134	0x405f9a32	3.4937863
135	0xbdc1aee4	-0.09457186
136	0xbf5ec926	-0.8702568
137	0xbf4d82fd	-0.80278
138	0xbf1db3d8	-0.61602545
139	0x3fe4c4b0	1.7872524
140	0xbf430824	-0.76184297
141	0x4010561a	2.2552552
142	0x4029669b	2.6468875
143	0x4073e176	3.810636

out.bias f4 [4]
0	0x3f3db241	0.7410012
1	0x3f2ff9a2	0.68740284
2	0xbf10954e	-0.5647782
3	0xbe87876b	-0.26470503
