Lunar Lander V2 Hau Zheng Yi/models/model_210619_123811.pth (torch, 9503 bytes, 6 tensors)

fc1.weight f4 [36, 8]
00000000: 7073 783f dd1d dbc0 0e54 163f 2a3b fcbf
00000010: bf75 3c3e e13a 77bd fbe8 7abe b9f5 47bd
00000020: 9c90 e33f 16ca 29c0 5e14 ab3e a629 21c0
00000030: 6ae2 9fbf 0eb4 833c 64dd 36bd 57fa b23e
00000040: 37d6 0ebe b614 093f 6332 e93e 7c25 803d
00000050: 8b8b ddbf c653 04bf 92a6 a9bf 308b a5bf
00000060: 69a9 65bf 4c5b 69bd 6945 8d3e 6817 83bf
00000070: 7a98 0bbf 7305 ec3e aece 05be 9344 1bbf
00000080: a3d6 2440 b907 bfbb 86de fe3e 9051 febd
00000090: 2249 adbf 99d7 07bf 8d83 37bf 25e8 283f
000000a0: a5a3 f73d 0eaf d63c 28d1 52be f891 653e
000000b0: fe03 db3f 9ca2 793d 330a e5be b65a 623f
000000c0: f602 193f 24d1 2b3f 609b b33f 157a 8c3f
000000d0: 9ce8 0040 3809 8bbf 1922 6fbf 1ada 213f
000000e0: 1bf0 7ebf f02c c33e 9a74 543f e8f6 703e
000000f0: dbd7 d93f f109 263f d18a 453f 92e1 733e
00000100: fcb7 7cbd d5da 943d b25f ddbe 990a 27c0
00000110: 4270 96bc 18e5 27bd 6219 b33e d981 8cbf
00000120: 0163 87bf 1539 4ebf 7457 8a3f 2585 53bf
00000130: 222c e7be 8049 12bf 0b66 e9be 54a4 543f
00000140: acc1 5dbe 02d1 96be fc85 81be f2db c9be
00000150: 6e35 ef3f cf31 4bbe 8f79 9fbe a076 7d3f
00000160: 7a90 3f3e 701f 8dbc 0e6e 8b3e cd71 e5bf
00000170: 7617 263f 59e6 8d3f caf7 773e 0a20 1bbf
00000180: 85d0 983f c10a 3b3f 3d52 9ebe 0f6f 82bf
00000190: 8833 f33e 3a48 a7be d54d 53bf ee1d b53f
000001a0: f2f6 303f 3a22 843e 20a1 bebe 1976 88bf
000001b0: c7ad 233e 7268 14bf 35cb 83be b43b f5be
000001c0: 2dce ab3e 57f4 aebd ca15 df3d 3cba 8b3d
000001d0: ba0b 95c0 421c f43e 9861 f6be 561c 4c3f
000001e0: d1bd d8bd 7259 fc3e 4b5b 6e3f 929d dcbf
000001f0: 0607 f5bd b901 d03d 06a4 f43e 0ee9 223f
00000200: 27a4 18bf fcb5 5dbf 2a52 bb3b 0809 08c0
00000210: 2f40 b03e e999 b73e c178 273f 7999 a83e
00000220: d412 80be b94b e33e 2179 89be 3ae4 ecbc
00000230: bd29 6e3f 19d3 3a3f 0e07 b53d 9c06 e5be
00000240: a85c 3cbe 97ed 373a 54ee 823f d21e f9bf
00000250: ce5a d7bf c0b0 893e b3b0 9ebf e83b cf3e
00000260: 2b87 c13e 80c3 0e3f 11bf 0c3c a494 a83f
00000270: 9762 da3f 50fa 0b3e 5e97 d1be cd69 6dbe
00000280: 12f4 e7bb 0f19 01be 0713 863f 59ee ebbf
00000290: 5f1c bcbf 58a0 79be 012a 7ebe 3e59 31bf
000002a0: 85a1 80bf 2f69 a83d 216d a3be 1c7c 38bf
000002b0: 1d81 8cbf 245e 253d 7040 9b3f aac2 b2bf
000002c0: 6f39 3ebf 29d1 993c 97d8 c23e 12b0 06be
000002d0: 4e38 5b3e 79b2 7b3e 4ed4 643d 212a c93f
000002e0: 7b3c 05bf d85e b83c 2b26 10bf 98e8 a73e
000002f0: 70d1 38bf 747b 75bf cf2c a73d 57e6 99be
00000300: 054a 293f c7ff 1ebf 9ef0 5b3e a10b 65bf
00000310: 8255 7bbf a34f bfbf c5ba 833e a749 6abe
00000320: c881 2dbf b9d6 3f3f 8091 ccbd 3bbd 27c0
00000330: db7d 3f40 159b 653f 79ca 4cbf 4c05 893d
00000340: 7d4c 7cbe a1d6 a23b 352b a03f 731f 8ebe
00000350: 60d1 81bf 0daf a33e 14ad 91be 2095 a63f
00000360: a78a b93d 9d08 2fbf 1afc e03e 4681 19bf
00000370: a2b3 c03e 95d0 75bf ea17 7ebf 62f8 b13d
00000380: 6d26 9fbf 2681 b3be be0c b2bf fa75 9fbf
00000390: ac6b 3ebf f8b7 66bf 68bf 28be f3aa 053c
000003a0: 54ba 6b3f d975 42bf c69c c33f 8d72 0b3f
000003b0: b270 213f f850 403f 359c fcbe c6cf 44be
000003c0: 34d1 2c3f 860b ff3e a159 bfbe d9f2 183f
000003d0: 5d26 1dbe a78d 98bf 732d 4a3e 0ad6 143f
000003e0: 2bff 7f3d 9030 aa3f 18da d13f fc87 df3e
000003f0: e842 59bf 3699 86be 2d0d f4be 2c31 bb3d
0.97051144 -6.8473954 0.5872201 -1.9705555 0.18404292 -0.060358886 -0.24502937 -0.048818324
1.7778506 -2.6529593 0.33413976 -2.518167 -1.2490971 0.016077068 -0.04464473 0.3495662
-0.13948904 0.5354723 0.45546255 0.062571496 -1.730821 -0.5169033 -1.3253958 -1.2933102
-0.89711624 -0.056971833 0.27592018 -1.0241518 -0.54529536 0.46097907 -0.13067123 -0.6065151
2.5756004 -0.005829778 0.49779147 -0.124179006 -1.3537943 -0.5306335 -0.71685106 0.65979224
0.120917596 0.02620652 -0.205876 0.22418964 1.7110593 0.060946092 -0.44734344 0.88419664
0.59770143 0.67116 1.4031792 1.0974756 2.0141973 -1.0862188 -0.93411404 0.6322342
-0.9958512 0.38120222 0.8299042 0.23531687 1.7018999 0.6485892 0.7716494 0.23816517
-0.0616989 0.072683014 -0.43237072 -2.6100218 -0.018364076 -0.040989965 0.34980303 -1.0977126
-1.0577089 -0.8055585 1.0807939 -0.8262504 -0.45150858 -0.571434 -0.45585665 0.83063245
-0.21655911 -0.29456335 -0.25297534 -0.39425617 1.868818 -0.19843219 -0.3114743 0.9900913
0.18707457 -0.017226905 0.27232403 -1.7925354 0.6487955 1.1085922 0.24215618 -0.6059576
1.1938635 0.73063284 -0.30922118 -1.0190142 0.47500253 -0.32672292 -0.8254064 1.4149759
0.6912681 0.25807363 -0.37232304 -1.066104 0.1598426 -0.5797187 -0.25740972 -0.47897112
0.33555737 -0.08542698 0.10892828 0.06822631 -4.6576815 0.4767781 -0.48121333 0.7973074
-0.105830796 0.4928699 0.9310805 -1.7235587 -0.1196423 0.101565786 0.4778139 0.63636863
-0.59625477 -0.8660581 0.005716582 -2.1255512 0.34423968 0.35859612 0.6541863 0.3292959
-0.25014365 0.4439371 -0.26850227 -0.02891742 0.9303244 0.7297836 0.08839236 -0.44731605
-0.1839472 0.00070162996 1.0228982 -1.9462531 -1.6824586 0.26892662 -1.2397674 0.40475392
0.37798437 0.5576706 0.008590476 1.3170362 1.7061337 0.13669705 -0.40935796 -0.23184891
-0.007078656 -0.12607215 1.0474557 -1.8432113 -1.4696158 -0.24377573 -0.2482071 -0.692768
-1.0049292 0.08223187 -0.31919196 -0.72064376 -1.0976902 0.040372983 1.212904 -1.3965657
-0.74306387 0.018776493 0.3805587 -0.13153103 0.21408197 0.245798 0.055866532 1.5715982
-0.5204541 0.022506163 -0.5630824 0.32794642 -0.72194576 -0.958915 0.081628434 -0.30058548
0.6612857 -0.62109035 0.21478507 -0.8947087 -0.9817735 -1.4946178 0.2572843 -0.22879659
-0.67776155 0.74937016 -0.099886894 -2.6209247 2.9920566 0.8968976 -0.7999645 0.066904634
-0.24638553 0.0049694334 1.2513186 -0.2775837 -1.0142021 0.3196949 -0.2845236 1.3014259
0.09059649 -0.6837252 0.43942338 -0.5996288 0.3763705 -0.96021396 -0.9925524 0.086899534
-1.2433602 -0.3505947 -1.3910139 -1.2457879 -0.74383044 -0.90124464 -0.16479266 0.008158433
0.9208119 -0.7596107 1.5282218 0.54471666 0.63062584 0.7512355 -0.49337927 -0.19219884
0.6750672 0.4981348 -0.3737307 0.59745556 -0.15346666 -1.1918229 0.197439 0.581391
0.062499207 1.329607 1.6394682 0.43658435 -0.84867716 -0.26288766 -0.47666302 0.09140238

fc1.bias f4 [36]
00000000: e7ce 943f 1dc0 c5be 6bb7 97bd 5ee1 68bf
00000010: 43d2 493e 59d5 d03e 5cda d03d e92d fcbe
00000020: 35c2 bbbd 99dc d33f 68ce 053f f0bf 75bf
00000030: 48b6 01bf 43a9 d53f b3ca d83d 2a31 b93e
00000040: 2345 3abf d919 97bf fa78 533f 8b3d 1f3f
00000050: d18f 513f db31 18bf f0d8 dbbe 9439 0a40
00000060: c83a 73bd b209 2a3f 6d38 4c3f ab76 b3bf
00000070: 10d5 653e 5883 d13e 93ac b53f 1bdf ea3e
00000080: 41c9 22bc 1ea8 6f3f 8428 09bf 3e0e c83f
1.1625642 -0.38623133 -0.07408031 -0.90968883 0.19709115 0.4078777 0.10197899 -0.49253777
-0.091679014 1.6551696 0.52268076 -0.95996 -0.50668764 1.669228 0.10585537 0.36170322
-0.72761744 -1.1804763 0.8260647 0.6220328 0.8186007 -0.59451073 -0.42938948 2.1597643
-0.05938223 0.66421044 0.797736 -1.402059 0.22444558 0.4092052 1.419329 0.4587334
-0.009935678 0.936159 -0.53577447 1.5629346

fc2.weight f4 [36, 36]
00000000: dfdf 7cbd 32b8 ff3d 56d3 c03d 9517 0a3e
00000010: 3243 0c3d 4b74 d8bd 64f3 63bc 2a5f 11be
00000020: e8ce c0bd fae7 173d dc00 febd 797d 9cbd
00000030: c3cf b13c 5fca a23b c097 e8bd 1724 013b
00000040: 68db 18be ba15 d0bd a9e0 dcbc d0fc adbd
00000050: e053 c73d 9658 61bd 1822 4d3d 129b 89bd
00000060: 728a 5bbd f7b6 b1bd e35e c5bc 282f 39be
00000070: 01e1 723d 2f64 cfbd 9e97 ccb9 55f8 d4bb
00000080: 7d4e ec3d 81c3 f63a 7833 12be 54e4 44be
00000090: 9490 973f 2f30 653f 32ee 3fbf ca36 d83e
000000a0: 2981 e33e d084 b13e 3682 c03e cbca fd3d
000000b0: 7382 17be b9fa 9f3e 55bc f93e 68b8 9c3e
000000c0: 9577 ddbd e550 383f e4e0 8ebc 0bf1 82bd
000000d0: 3113 3b3f 40d9 183e c70b 05bf 6945 d5bf
000000e0: 5884 ac3e 1bab 96bf 8223 6bbe b9c8 b53e
000000f0: 805b 113f 94ad 333f ba3c d2be e251 4b3f
00000100: 188d cebc 783c 8e3f 4ce5 c83e d1a3 9d3e
00000110: 73ee f83e 2efa 6f3f 78a0 be3e 9420 9f3d
00000120: ffba c9bf 4667 cd3f 3b85 1b3f 6f05 1440
00000130: bff3 e23f 3408 e7be b436 a7be 9211 c1bc
00000140: 8437 c1bf 7ea5 3bbf 1921 f4be 1997 433f
00000150: cad8 2ebf 493b 0f3f 8d13 a2bf 3bbd 193e
00000160: 5e3f 813d 553f a53f 3509 fc3e 5423 dc3d
00000170: d990 0e3f 0d08 803f ed70 e7bd 33c7 53be
00000180: 15af 113f ca97 4a3e 8741 0fbe 23bc 143f
00000190: f913 b23d 4b23 bf3e 7ea4 23bf 8976 493f
000001a0: 04b0 763f 903e 4dbe 219f ad3f f7f4 ad3e
000001b0: 3040 333c 9d27 133d d47c bb3c 082a 0c3e
000001c0: 7066 04be 2473 7fbd d4b8 87bd 7002 fbbc
000001d0: 446b cb3c 02a3 38be 2861 08be e6ff 09be
000001e0: 11c9 76bc ca43 823d d81e ebbc de5a 82bc
000001f0: c8c2 01be 4c37 f23d 195d c4bd b4b9 c9bd
00000200: cb4b 723d 62a0 e1ba f0fc 97bd c9fc 45bd
00000210: 187a c7bd a35a 28be 0a9e 2bbd 7b0c d33d
00000220: 70ab 63bc 9bb1 93bd 5644 7cbd ebb9 053d
00000230: 5b27 9dbc c4bd 2ebe 8c2f 4fbd c0fa 31be
00000240: 9670 053f 4766 fd3f c569 cd3e d00c 0240
00000250: 82bc b03f 9be1 f8bd bba6 91be e5a8 b6bf
00000260: 1df5 efbf a7a9 93bf f73e 933d 6db3 ac3e
00000270: 2e59 823d a1ec 4ebe cb3a cbbf ddf3 1ebc
00000280: fdcc 3e3f 0a2e aa3f 2873 933e 6751 1dbf
00000290: 6a26 963e dd04 1e3f 7b7b a53f 3a56 0bbe
000002a0: ded3 323f 4636 ea3d 0ca2 d7be adf6 4a3f
000002b0: 5f22 03bf 8aa5 b3bf cf0f 0ebf 4ce5 683f
000002c0: 9cbc b43f 92e1 5d3e be30 a93f 5130 15be
000002d0: 4438 a8bf 7696 b33f f714 e2be 9610 3abf
000002e0: 5ebd 9a3f cca5 c53e c28b 80be c0b9 673d
000002f0: d357 b5bf fc26 95bf e70a 623b 4131 143f
00000300: 73df 57bf e339 243e ecb8 1ac0 6323 dbbd
00000310: ffd7 8d3f 5115 7b3f 4894 113f 22b3 163e
00000320: b426 283e 6923 3f3e eb9b 3b3f 3532 023f
00000330: 9e1f 533f 364e da3d ad1a b9be f783 583e
00000340: dba2 0abf d131 783f 9c19 203f 6916 413f
00000350: cc35 6e3f a54a 7a3e bf8a 5b3f 75fb 0d3f
00000360: 535a 3fbf 88ff 1640 b4dd ac3e 3f45 c13f
00000370: 739f 8b3f b759 ce3e ab14 8ebf bc56 22bf
00000380: bbe6 f6bf ed04 78bf 82b8 be3e c8da 5c3f
00000390: a359 8ebf dcdb 083f 58f2 d7be ffd1 0e3f
000003a0: 440a b83f 23a7 cd3f 839a 683e eedf af3e
000003b0: 9f65 a23e 3984 023f 75eb 0e3f b94e 6cbe
000003c0: 02c2 503f 1fc6 7e3e ef2a cdbd 9afa 133f
000003d0: f568 313f 7059 a5be 350a 333e b333 793f
000003e0: 06c4 233f 7fe2 d83e 672e f33f aab5 0d3f
000003f0: de4f e8bd 9d63 0940 c601 8dbe 14f1 8f3f
-0.061736938 0.12486304 0.09415309 0.13485558 0.03424377 -0.10569056 -0.013913009 -0.14196458
-0.09414464 0.037086464 -0.12402508 -0.076411195 0.021705514 0.004967972 -0.11357069 0.001970535
-0.14927447 -0.10160394 -0.026962595 -0.08495486 0.09732795 -0.055016123 0.050081342 -0.067190304
-0.05359883 -0.08677476 -0.024093097 -0.18084395 0.05929661 -0.101265304 -0.00039022876 -0.00649933
0.11538408 0.0018826575 -0.14277446 -0.19227725 1.1840997 0.8952665 -0.7497283 0.422293
0.4443448 0.3467164 0.37599343 0.12392195 -0.14795856 0.31245974 0.48776498 0.3060944
-0.10813824 0.71998435 -0.01744122 -0.063936315 0.7307616 0.14926624 -0.51971096 -1.6661807
0.3369472 -1.1770967 -0.22962764 0.35504702 0.5678024 0.70186734 -0.41061956 0.7942182
-0.025213763 1.1112204 0.3923744 0.30789044 0.48619422 0.9374112 0.37231803 0.07769886
-1.5760192 1.6047142 0.6075017 2.3128316 1.7730635 -0.45123446 -0.32658923 -0.023567948
-1.5095067 -0.73299396 -0.47681502 0.7640243 -0.68299544 0.55949837 -1.2662216 0.15013592
0.063109145 1.2909952 0.49225774 0.10748926 0.5568977 1.0002457 -0.11300836 -0.20681457
0.5690778 0.19784465 -0.1398984 0.58099574 0.08695216 0.37331614 -0.6392287 0.78696495
0.9636233 -0.20043397 1.3564187 0.33975956 0.010940596 0.03592645 0.022886671 0.13687909
-0.12929702 -0.062365666 -0.0662705 -0.03064081 0.024831422 -0.18030933 -0.13318312 -0.13476524
-0.015062586 0.06360586 -0.02870123 -0.01591247 -0.1267196 0.11826953 -0.095880695 -0.09849873
0.059154313 -0.0017213935 -0.07421291 -0.048336778 -0.097400844 -0.16440825 -0.041898765 0.10305115
-0.013895854 -0.0721161 -0.061588608 0.03264801 -0.019183805 -0.17064577 -0.050582454 -0.1738081
0.5212492 1.9796838 0.40119758 2.032032 1.3807528 -0.12152406 -0.28447518 -1.4270293
-1.8746678 -1.1536149 0.07189744 0.3373064 0.06364666 -0.20207454 -1.5877317 -0.009701696
0.7453154 1.32953 0.28798795 -0.61452335 0.29326183 0.6172617 1.2928308 -0.13607112
0.69854534 0.11436133 -0.4211582 0.7928265 -0.5122432 -1.4034894 -0.5549287 0.9097488
1.4120059 0.2166808 1.3218 -0.14569212 -1.3142171 1.4030292 -0.4415662 -0.7268156
1.208904 0.38603055 -0.25106627 0.05657363 -1.4167427 -1.1652522 0.0034491362 0.57887655
-0.8432533 0.16037707 -2.4175367 -0.10700109 1.1081542 0.980794 0.56866884 0.14716771
0.16421014 0.18665852 0.73284787 0.5085786 0.8247012 0.10659449 -0.36153165 0.2114409
-0.5415475 0.96951014 0.62539077 0.7542482 0.9305084 0.24442537 0.85758585 0.5546182
-0.747472 2.3593464 0.33762896 1.5099257 1.0908035 0.40302822 -1.1100057 -0.63413596
-1.9289163 -0.96882516 0.37250143 0.86271334 -1.1121105 0.5346048 -0.4217708 0.5578918
1.4378133 1.6066631 0.22715192 0.34350532 0.31718156 0.50983006 0.5582803 -0.23076905
0.8154603 0.24880265 -0.100179546 0.5780426 0.69300777 -0.32294798 0.17484362 0.9734451
0.63970983 0.42360303 1.8998536 0.5535532 -0.113433585 2.146705 -0.27540416 1.1245446

fc2.bias f4 [36]
00000000: 9c2b 87bd 2319 43be e735 c4bd 9315 d0bc
00000010: 9fc1 34bf 51d0 b13e 0739 853d 0347 2bbe
00000020: b5ab fdbe 435d 113f 29e1 60be 6e6e 353f
00000030: a965 dfbd c81b 2d3f 3413 9ebd cd35 4e3f
00000040: e496 a83c 592c f43f 52db 483f 09b0 c43e
00000050: cf6a a53e b659 823e db60 acbe 7671 0dbc
00000060: 990a be3c a919 1e3e 6fc8 0e3d c35e aebd
00000070: 0b75 80be 25b9 54bf 6b05 dd3e 7dae d6bc
00000080: 035b 113d de90 34bf 2773 afbe e26b 403e
-0.06600115 -0.19052558 -0.095805936 -0.025400912 -0.7060794 0.34729245 0.06505018 -0.16726308
-0.49545065 0.5678293 -0.21960892 0.7087163 -0.10908062 0.67620516 -0.077185065 0.80550843
0.020579763 1.9076034 0.78459656 0.38415554 0.3230805 0.2545907 -0.33667645 -0.008633008
0.023198413 0.15439476 0.034859117 -0.08514168 -0.25089297 -0.8309501 0.43168196 -0.02620625
0.035487186 -0.7053355 -0.34267542 0.18791154

out.weight f4 [4, 36]
00000000: cdfc 233e c5a6 18be 5a04 9abf 28a8 ca3c
00000010: ac9a 36bf 0113 14bf b600 01bf e4d1 acbe
00000020: f041 53bf e041 963e 9a28 64bf 8b3c 333f
00000030: 4423 11bf 3c21 1140 c528 f4be eab6 c43d
00000040: fdad a6be 0749 3740 ad31 d13f 0973 dd3f
00000050: 8ca7 a43d d2df 5c3e 67d4 b8be a2b8 b23d
00000060: f3d3 f6bd e23d d3be 9fc3 1b40 d105 01bf
00000070: 17d1 d9be b572 03c0 f2a1 e43f 3d0f bdbe
00000080: 29dc f2bd 28ea 2abe ed2e dcbf 6127 86bf
00000090: 9050 8c3d 8082 6f3e 677c 2abf 8335 0f3e
000000a0: 75da 1f3e 1bd4 35bf 48a8 f5be 38de d0be
000000b0: 1358 85bf e86d 1cbf e97a 09bf 8122 0040
000000c0: 6381 f0be ae3d 2940 02c7 d3be 872c 81be
000000d0: 8a02 01bf 3163 5040 ea4d b83e a830 663f
000000e0: 60cb 7b3f 2644 9bbe aa1f d43e d832 a63d
000000f0: a196 a43d fcdb d0bd 8d9b e83f a38e 37bf
00000100: b154 27bf 4e43 6fc0 b862 a63f 2f23 09bf
00000110: 5d1c 743d 0395 cabd 66a8 1dbf ff4f f7bf
00000120: f07f 633c e77b 6a3f 600a 90bf e06c 1b3d
00000130: a4f2 e5be a67c 83bf 2c67 88be 3fcc 0bbf
00000140: c08e 5fbf bc75 4c3f f8c4 483f e2f8 46be
00000150: 1182 f7be 9424 0b40 0655 14bf 3785 8c3f
00000160: 3e57 68bf 8af3 1b40 ea6c 4fbe 1ca2 0f40
00000170: bb2b a2bf d08c 9abf 86a3 ffbe 4275 d83d
00000180: 288e 3a3c 1406 acbf 0a42 1a40 7961 4fbf
00000190: c357 6abe 4a3b 14c0 81ba 1940 143d 02bf
000001a0: 0052 de3d eab2 1ebf ff29 78bf f536 8bbf
000001b0: c59c cb3c d719 a9be 45b0 cabe 31f5 ecbc
000001c0: 0783 15bf 5c9b 9bbf 264d 55bf ff64 0a3e
000001d0: 8c8a f0bf 64db 71be 52f6 f8bf 6ed4 5e3d
000001e0: b5c9 3cbe 01a6 0f40 a514 af3e a53c 693d
000001f0: 9440 a2be 9a0d 5340 d2fd 903f d14d 0e40
00000200: be76 2d3f b36a 393f 9625 1a3e 0bf6 ddbd
00000210: a2da 45be 2d2c 0e3f 3c95 1e40 1160 e6be
00000220: 73c7 183d 37b3 d3bf 7d6a 2040 8581 d1be
00000230: 6a04 b03d 6901 81bf 0d87 d9bf 97fa 91bf
0.16014405 -0.14907368 -1.2032578 0.024738386 -0.7132976 -0.578415 -0.5039171 -0.33753884
-0.8252249 0.29347134 -0.89124453 0.70014256 -0.56694436 2.2676535 -0.47687355 0.096052006
-0.32554618 2.8638322 1.6343285 1.7300731 0.080397695 0.21569756 -0.3609955 0.08726622
-0.12052145 -0.4125815 2.4338148 -0.503995 -0.42542335 -2.0538762 1.7861922 -0.36925688
-0.118583985 -0.16690886 -1.7201821 -1.0480767 0.068513036 0.23389626 -0.6659607 0.13985257
0.15610678 -0.7102677 -0.4797995 -0.4079454 -1.0417503 -0.61105204 -0.5370317 2.002106
-0.46973714 2.6443896 -0.41362768 -0.25229284 -0.503945 3.2560542 0.35996944 0.89917994
0.983572 -0.3032543 0.41430408 0.081151664 0.08036543 -0.10198209 1.817247 -0.7170202
-0.65363604 -3.738483 1.2998877 -0.5356931 0.05959736 -0.09891703 -0.6158508 -1.9321288
0.013885483 0.9159531 -1.1253166 0.03794563 -0.44911683 -1.0272415 -0.26641214 -0.5460853
-0.87327194 0.7986715 0.7842555 -0.19430879 -0.4834142 2.1741076 -0.57942235 1.0978154
-0.9075812 2.4367394 -0.20256391 2.2442694 -1.2669595 -1.2074223 -0.49929446 0.1056924
0.011386432 -1.3439355 2.4102807 -0.81008106 -0.22885041 -2.3161187 2.4020083 -0.5087445
0.10855484 -0.6199175 -0.9693908 -1.0876147 0.024855027 -0.33027527 -0.39587608 -0.02892551
-0.58403057 -1.2156787 -0.83320844 0.1351509 -1.8792281 -0.23618847 -1.9450171 0.054401807
-0.1843632 2.244507 0.34195438 0.0569426 -0.31689894 3.2977052 1.132746 2.2234995
0.6775931 0.72428435 0.150534 -0.108379446 -0.19321683 0.55536157 2.4778585 -0.44995168
0.037299585 -1.6539067 2.5064995 -0.40919128 0.08594592 -1.0078555 -1.6994339 -1.1404599

out.bias f4 [4]
00000000: 914c cd3e a0b0 59bf d643 403f 69b7 fe3e
0.40097478 -0.85035133 0.7510351 0.49749306
