Lunar Lander V2 Hau Zheng Yi/models/model_280_1.pth (torch, 47903 bytes, 6 tensors)

fc1.weight f4 [100, 8]
000000 ba 61 54 bf df 8e 19 bf d2 65 19 be 1c 44 9e bf
       -0.8296162 -0.5998363 -0.14980248 -1.2364535
000010 e5 cf 29 40 4e 47 5f 3f 01 c5 06 bf 76 2c 0f 3e
       2.6533139 0.8721818 -0.52644354 0.13981804
000020 c3 28 05 3e ed 0b 0e 3d 0b 53 8f bf 92 97 ce bf
       0.1300383 0.034679342 -1.1197218 -1.6140006
000030 e2 9a f3 bd 48 2a 3d 3f af 80 8c bf 77 aa a5 bf
       -0.11894776 0.7389264 -1.0976771 -1.2942647
000040 69 91 1a bf 32 e4 c1 3e 97 be 60 bf 31 fc 62 3f
       -0.6037813 0.37869412 -0.8779082 0.88666064
000050 5b 6e bf 3f 79 81 a9 3e 6e 8e 0c 3d 02 9d ba bf
       1.4955553 0.33106592 0.03431552 -1.4579165
000060 4e 36 c0 3f 7e 7a 19 bf 43 dd bd 3e 3e eb ac 3f
       1.5016572 -0.59952533 0.37082872 1.350929
000070 eb 38 76 3f 0d 92 fa be c3 fb 6a bf 75 68 83 bf
       0.961806 -0.48939553 -0.9179041 -1.0266253
000080 26 c1 21 bf 48 01 75 3c 4e c7 d5 bc 5e a1 90 3e
       -0.63185346 0.014953919 -0.026096012 0.28248113
000090 ab b9 19 bf 9f 3d 99 3d 79 91 90 3d 29 30 1e bf
       -0.6004893 0.074824564 0.07058997 -0.61792237
0000a0 2c fc 67 bf 33 03 d1 bd 7b f3 9b 3f c3 14 82 be
       -0.9061916 -0.10205688 1.2183679 -0.25406465
0000b0 9a f2 01 c0 89 a9 f7 be ff 4c c7 be f0 22 2d bf
       -2.0304322 -0.48371533 -0.3892593 -0.67631435
0000c0 8d c6 51 40 f7 7f 69 be 4c bf 84 3f d7 9d aa be
       3.2777436 -0.22802721 1.0370879 -0.33323547
0000d0 b0 4e 04 bf 3d c8 2d 3d 9a e7 9a be d1 05 b3 be
       -0.5168257 0.04242729 -0.30254823 -0.34965375
0000e0 0a d1 f3 bc f8 6e d1 bd 70 3a 29 bf fa a6 49 be
       -0.029762764 -0.10226244 -0.66104794 -0.19692603
0000f0 34 7b 3c 3f 8a ff 33 3f 1b 26 1f 3f dd 4f 83 3f
       0.73625493 0.70311797 0.6216752 1.0258747
000100 a7 bf e7 bb e8 b7 be bf 89 87 14 be b3 8a c5 bf
       -0.0070724073 -1.4899874 -0.14504828 -1.5432953
000110 86 da 74 3f 98 d0 98 3f d4 b6 30 3e f1 f5 b1 bf
       0.9564594 1.1938658 0.17257243 -1.390318
000120 3a 3d 7d be 14 df 86 bf e4 c5 2b bf 7f 42 c5 bf
       -0.24730387 -1.0536828 -0.6709883 -1.5410918
000130 bb 26 09 bf 64 02 a0 bf 94 ad a3 be 3e 27 1c bd
       -0.53574723 -1.250073 -0.31968367 -0.03812336
000140 b2 7a 28 3e 4a de 6d 3f 36 45 57 bf 58 dd 5a bf
       0.16453055 0.9291731 -0.8408998 -0.85493994
000150 00 5f 4f bf b9 cf 47 bf 29 f7 9d be ec c4 a9 be
       -0.81004333 -0.78051335 -0.3085263 -0.33158052
000160 d7 ca 12 bf 2f cc bf be d1 b9 6d bf 1f 19 ad be
       -0.5734076 -0.37460467 -0.9286166 -0.33808228
000170 d8 f4 88 3f 65 9e 80 bf e3 1e 06 bf d9 20 58 3e
       1.069972 -1.0048338 -0.5239088 0.2110628
000180 6b ec 2c 3e 5f 4a 2e be 0b 06 c5 be 29 f3 50 be
       0.16887061 -0.17020558 -0.38481173 -0.20405258
000190 08 ad 18 3f bb 12 ad 3f 07 cf 8e 3f 1f 7d 18 c0
       0.59639025 1.3521341 1.115693 -2.3826368
0001a0 3b b6 de 3f 44 90 29 c0 b0 14 db bf 83 e8 5e bf
       1.7399362 -2.6494303 -1.7115688 -0.87073535
0001b0 da 38 c3 bf 20 86 f1 be 1c 16 c1 3e 29 2e 6e be
       -1.5251725 -0.47172642 0.3771218 -0.23259796
0001c0 1b 75 d3 3f df 85 34 bf f1 06 f0 3e a7 2b 25 40
       1.6520113 -0.7051677 0.46880296 2.5807893
0001d0 cc a9 0e bf a5 fe 43 3f 5e 47 5d 3f 66 be 76 3f
       -0.5572784 0.7656043 0.8643702 0.96384275
0001e0 e2 3a 4d 40 1e 3f 0f 3f d5 13 a4 3f c6 08 8f bf
       3.206719 0.55955684 1.2818552 -1.1174552
0001f0 ba 48 ab bf 90 ba a1 be 1d 55 19 3c 7d a7 7c 3e
       -1.3381569 -0.31587648 0.0093586715 0.24673267
000200 91 56 2f bf aa d1 89 bf cc 03 a2 bf bf 79 9d bf
       -0.68491465 -1.0767109 -1.2657409 -1.2302779
000210 b1 62 02 3f 45 9a 93 bd 3a 2b fd 3e 5e 81 99 3d
       0.5093184 -0.07207159 0.49447042 0.07495378
000220 4b 06 de 3c 50 1c 93 bf a3 c4 46 bf 74 a8 38 40
       0.02710261 -1.1493015 -0.77643794 2.8852816
000230 78 6a 1e bf 97 dd 58 3f f8 d2 ae bf 62 57 cc bf
       -0.6188121 0.8471312 -1.3658133 -1.5964167
000240 bc 81 77 be 8c e2 2f c0 3f 4c 95 3e 69 84 83 bf
       -0.24170583 -2.7482023 0.29159734 -1.0274783
000250 37 07 97 3f fb bb 2e bf 15 00 1c bf 30 de 89 be
       1.1799077 -0.68255585 -0.60937625 -0.26927328
000260 f0 00 26 3f c1 f9 00 3f 5a ec 4f 3f f6 eb 04 3e
       0.6484518 0.50381094 0.8122002 0.12980637
000270 39 5c 27 3f 8b 29 f5 3e 27 ae 5b be de c2 7f bf
       0.65375096 0.47883257 -0.21453153 -0.9990672
000280 c2 bb 05 bf d0 bd 43 3f 96 bd 65 be 26 6b 50 be
       -0.5223962 0.76461506 -0.22435603 -0.20353374
000290 78 0a d4 bf bc 2d 83 3f ad 74 49 be 0d 09 18 3e
       -1.6565695 1.0248332 -0.19673415 0.14847203
0002a0 fb 02 db 3f f6 30 bc be 39 8c 09 bf d0 65 9e 3e
       1.7110285 -0.36756104 -0.5372959 0.30937052
0002b0 2f bf 99 3f 57 32 9b 3f fa 39 00 3e cd bc 51 bf
       1.201147 1.2124738 0.12522116 -0.8192871
0002c0 5e 29 0d be c2 2d 91 3f d6 5a 8f 3e 21 f5 76 3e
       -0.13785312 1.1342089 0.2799899 0.24116947
0002d0 6d c2 07 3f 39 a7 87 be 63 ad af 3e f6 5f 87 bf
       0.53031045 -0.26494768 0.3431197 -1.057616
0002e0 a8 6e 44 bf 9d ed 45 c0 22 97 db 3f 27 16 95 3e
       -0.7673135 -3.0926278 1.7155497 0.29118463
0002f0 41 29 49 40 b2 b1 f9 3f be e8 e4 bf c0 32 7b 3f
       3.143143 1.9507353 -1.7883527 0.98124313
000300 19 94 8c 3f 02 1b d2 bb 46 df 7b 3f ed 4c 01 c0
       1.0982696 -0.006411911 0.98387563 -2.0203202
000310 27 aa 8f 3e 63 bd 16 c0 0d 37 dd be 66 3f 66 3f
       0.28059503 -2.3553092 -0.43206063 0.8994049
000320 38 b2 c1 bf f2 ec 10 bf cd 7f 06 3f dc 1c be bf
       -1.5132513 -0.5661155 0.5253876 -1.4852557
000330 4e 75 8f bf 4e 8e 6c 3d c3 66 2d 3f 91 3b de bb
       -1.1207674 0.0577529 0.67734927 -0.006782003
000340 68 8f 7b 3e de b9 c7 bf c3 86 13 be 1b 2e 18 40
       0.24566424 -1.5603597 -0.14406876 2.377814
000350 e4 3c 1f 40 21 d7 b4 3f a4 8a e5 be 33 76 73 3f
       2.4880915 1.4128152 -0.44832337 0.9510223
000360 5c e8 90 3f 54 b4 c8 bc 3b d0 bd bf d7 50 6f 3e
       1.132091 -0.02450005 -1.4829172 0.23370682
000370 96 0d 45 3e 06 a5 72 3e ee 44 38 bf c9 e9 e5 3e
       0.19243464 0.23695764 -0.7198018 0.44904926
000380 86 b7 3a c0 da c4 1a be 19 89 75 be cc 8e cd be
       -2.9174514 -0.15114155 -0.2397808 -0.40148008
000390 d6 1e 19 40 65 27 5a 3f bf e1 f7 bc dc fb 9c be
       2.392507 0.8521636 -0.030259011 -0.30660903
0003a0 06 89 32 bf 50 e5 0d 3e 12 eb 7f 3e 96 c0 c3 3f
       -0.6974033 0.13857007 0.24992016 1.5293148
0003b0 03 6f b8 be d5 81 4c 3e 67 c6 96 be 80 cd f9 3c
       -0.36022195 0.19971402 -0.29448244 0.030493498
0003c0 2e 62 db 3e a3 c1 20 bf 9a af 06 be 68 1a 0b bd
       0.42848343 -0.62795466 -0.13152924 -0.03396073
0003d0 1d 9b 58 be df 05 53 bd aa ac fa be c2 e4 57 bd
       -0.21152921 -0.05151927 -0.48959857 -0.052708395
0003e0 fc f5 8b 3f 8f b8 b3 bd 7c 03 0c bf bf f4 0c 40
       1.0934443 -0.08775436 -0.54692817 2.202438
0003f0 1e 3b 91 bd 44 29 24 bf 9c 6a b9 3e 45 2f 1c bf
       -0.07091354 -0.64125466 0.3621415 -0.6100963

fc1.bias f4 [100]
000000 90 3a e3 be e7 d3 78 bd 1c 60 f8 3e 72 9d 50 bf
       -0.44380617 -0.06074896 0.48510826 -0.8149024
000010 64 52 91 3f 2c 7d 38 bf cd 1a f2 3e 74 62 53 3f
       1.1353269 -0.72066 0.47286072 0.825721
000020 87 0b e0 be 2a 08 a2 bf ee 32 19 bd ca 1d 17 3f
       -0.43758795 -1.2658741 -0.037402086 0.5902983
000030 64 27 8e bd 6a bb 03 3e 80 a8 4f bf 8a fa 17 be
       -0.06941107 0.12864462 -0.81116486 -0.14841667
000040 a4 10 c7 3d 25 9a 1d 3f 56 1f 92 bf ba 9f 85 bf
       0.09719971 0.6156333 -1.1415813 -1.043937
000050 c8 36 7a 3f 35 1e 0b bf 79 b4 91 3f 28 ad a6 be
       0.9773984 -0.5434297 1.1383201 -0.32553983
000060 23 d4 23 bf a8 e1 af be f7 ed 03 bf 01 0f 3b bf
       -0.6399557 -0.3435185 -0.5153498 -0.7306977
000070 88 78 96 be d3 22 88 bf 84 7e 53 bf c2 8d 8e bf
       -0.29388833 -1.0635628 -0.8261492 -1.1137011
000080 24 2a 96 be 7f 57 28 3f e8 6f 17 3e 31 c1 99 be
       -0.29329026 0.6575851 0.14788783 -0.30030206
000090 9a ee 91 be 63 7c 2b bf a1 a1 2f 3d 89 b8 1d bf
       -0.2850235 -0.66986674 0.04287875 -0.61609703
0000a0 02 93 d2 be 35 ac 68 3e d2 0e 32 bf 4b 15 0d 3d
       -0.41127783 0.22721942 -0.69553864 0.034444135
0000b0 bd 82 95 3e 4d f3 4f bf ae b3 d3 be e7 ef 05 bf
       0.29201308 -0.8123062 -0.41348022 -0.52319187
0000c0 ad c1 bb be 34 28 b9 3d b6 c0 9f be 3c ef 8b 3f
       -0.366712 0.09040871 -0.31201714 1.0932384
0000d0 0f 4c 28 be 2e 8b 31 3d 52 c5 cd 3d 31 90 06 3e
       -0.16435264 0.043345623 0.100474015 0.13140942
0000e0 5e 61 b0 bd 53 15 c2 be 59 b8 0a 3e 26 54 0f 3e
       -0.08612321 -0.37906894 0.13546886 0.13996944
0000f0 1a a7 22 3f 0c 87 cb 3e 36 3d 5b bd 5e dd 5f be
       0.63536227 0.3975147 -0.053525172 -0.21861789
000100 5b 9c 39 3f 81 97 01 3e c7 43 60 3e 5e 49 49 be
       0.72504205 0.1265545 0.21900855 -0.19656894
000110 c8 03 87 bf 48 71 15 3f 4f 93 40 3f ce d5 89 3d
       -1.0548029 0.5837598 0.75224775 0.06730233
000120 67 ed 80 be 1b c0 3a bf d1 62 14 bf 24 d2 ac 3e
       -0.25181124 -0.7294938 -0.5796328 0.33754075
000130 8c 8a ee bd 69 e2 61 bf ae 2b 7f bf b2 8c 94 be
       -0.116475195 -0.882361 -0.99676025 -0.29013592
000140 a3 24 81 3f 8d 45 1c 3e 55 4e ff bb 8a 40 5e 3f
       1.0089306 0.15260907 -0.0077913203 0.8681723
000150 3b a4 fc 3e 77 0e 3d 3f db 7b 2b bf da 28 61 bf
       0.49344048 0.73850197 -0.66985863 -0.8795296
000160 94 8c 24 be 96 1e b6 3e a8 0a 8d be b6 64 65 3e
       -0.16069251 0.3557021 -0.27547193 0.224017
000170 35 21 2e bf 45 79 30 3e ae f1 12 3f 31 71 da 3e
       -0.6801942 0.1723376 0.57400024 0.42664483
000180 74 67 77 bf 11 65 0b 3d af 1c 1c bf db 31 83 3f
       -0.9664223 0.03403193 -0.6098127 1.024959

fc2.weight f4 [100, 100]
000000 94 19 2a be 4c ca d9 3b e5 21 a5 bd d7 87 23 be
       -0.1661132 0.00664643 -0.080631055 -0.15969788
000010 5f d6 65 bd 81 ac b2 bc ae 4a 30 3d c2 99 44 bd
       -0.056112643 -0.021810772 0.04303997 -0.047998197
000020 a0 bb 27 bd c1 e9 cc bd 0d c5 9c bd cf b1 1c be
       -0.040950418 -0.100055225 -0.07654772 -0.15302204
000030 06 b6 3c bd 45 62 93 bd 3e 6d cc bd af e7 7d bd
       -0.04607203 -0.07196478 -0.09981774 -0.06198853
000040 f2 77 d7 bd 90 ea 4d 3d a0 4c 9f bc 98 c1 9e bd
       -0.10520925 0.050272524 -0.019445717 -0.07751769
000050 12 8f fd ba d9 7e 07 be 77 0b 00 bd 78 52 ee 3c
       -0.0019345006 -0.13231982 -0.031260934 0.029092059
000060 f9 04 af 3c 2a 86 64 3c 5c 1b d8 bd f8 23 96 bd
       0.021364676 0.013948003 -0.105520934 -0.07331079
000070 b7 b3 ae bd 6d e8 2d bd 3e f2 8b 3c 19 28 75 bd
       -0.08530372 -0.042457987 0.017083284 -0.059852693
000080 01 86 1f bd 2d 1b 15 be b8 bd f3 bd f2 19 cf bc
       -0.038946155 -0.14561148 -0.1190142 -0.025280926
000090 9d be 8d bb 4a 63 01 bd 66 e0 c2 bd e6 dd fb bd
       -0.0043257014 -0.03158883 -0.09515457 -0.12298183
0000a0 a2 c7 3e be 42 b0 c6 bd 15 a4 9d bd aa 45 97 bd
       -0.18630841 -0.09701587 -0.07697312 -0.07386334
0000b0 ef 29 ac 3d 09 d6 69 3d 27 a4 9f bd eb 26 51 3d
       0.08406436 0.057088885 -0.077949814 0.051062506
0000c0 0a 25 d5 bd f5 70 c1 3c 1d 2d 01 bd 42 65 97 bd
       -0.10407455 0.023613432 -0.031537164 -0.0739236
0000d0 3d 46 fe bd 66 a9 8b 3c 41 02 1b bd 7b 44 72 bd
       -0.12415741 0.017048549 -0.037843946 -0.05914734
0000e0 1d ea d8 bd 60 f1 07 bd f3 26 26 bd 60 0f d9 bd
       -0.105915286 -0.033189178 -0.04056449 -0.10598636
0000f0 8a a7 59 bd e7 b0 16 bd 2e 61 b4 3d a6 62 d3 bd
       -0.053138293 -0.0367898 0.08807598 -0.1032155
000100 64 87 01 be 42 da 02 be 96 cf 51 3d b1 b4 1a bc
       -0.12649304 -0.12778571 0.05122336 -0.009442494
000110 51 09 cf 3b bf 5f 40 bc 84 5c 72 bb 1e 97 0a be
       0.0063182493 -0.011741578 -0.0036981413 -0.13534209
000120 da 75 f2 bc 59 c4 a5 3c 2f b8 32 3d 4d 1f a7 3c
       -0.029597212 0.020235227 0.043632682 0.020400668
000130 1d 4f 0d bd 60 a4 8f bd 00 5b a4 bd 53 dd ae 3d
       -0.034499276 -0.07013774 -0.080251694 0.08538308
000140 e3 41 cc bd 49 98 f5 3c 97 94 79 bb f5 31 5c bb
       -0.099735044 0.029979842 -0.0038082951 -0.0033599113
000150 17 a2 d2 bc 64 04 84 bd dd 97 97 3d 0e 0a c7 3d
       -0.025712056 -0.0644615 0.074020125 0.09718715
000160 5c 72 e3 bd 62 a9 52 bd 03 18 79 3d 38 36 bd bd
       -0.11105797 -0.051431067 0.060813915 -0.09238857
000170 a0 f6 cb bd 3a ce 08 be 98 91 ff bd 43 49 f7 bd
       -0.09959149 -0.13359919 -0.12478942 -0.120745204
000180 43 4c 2b bd 00 5f 97 bd a8 aa ef bc 29 29 86 bc
       -0.041820776 -0.07391167 -0.02925618 -0.016377049
000190 76 e7 02 c0 5a a7 95 3e 88 e8 75 bf fa 37 fa bd
       -2.0453773 0.29229242 -0.9605794 -0.12217708
0001a0 e1 48 41 3f 33 7d d7 bf 76 d1 e6 bd e8 b5 20 3f
       0.7550183 -1.6835083 -0.1127042 0.62777567
0001b0 7d 23 9b bf 61 d7 1f c0 16 4c 93 3e 62 fd ec 3d
       -1.2120205 -2.4975207 0.28768986 0.115717664
0001c0 a0 f6 1d be 05 9c 90 3d bd 68 e2 3e da 40 25 bf
       -0.15426111 0.07061008 0.44220534 -0.6455208
0001d0 69 41 1d bf 65 c7 bc 3e 04 60 ef bf 45 40 75 3f
       -0.6142793 0.36870876 -1.8701177 0.9580119
0001e0 2b 84 37 3e db b0 19 3f e3 13 96 3f d4 54 13 3e
       0.17921512 0.60035485 1.1724819 0.14387828
0001f0 d0 ce fe be 97 d6 d8 3e 18 ee c1 be de c3 15 3f
       -0.4976716 0.4235122 -0.37876964 0.58501995
000200 63 24 ae bf 3d 63 09 3f 03 b7 18 bf 16 b3 27 bf
       -1.3604854 0.5366705 -0.59654254 -0.6550764
000210 f8 4b d6 3f c7 69 da 3d 05 7b f0 be 8c 36 59 be
       1.6741934 0.10664707 -0.46968856 -0.21212214
000220 47 ac 9f 3d eb 2c 22 bf 2e 9f 60 3f 91 bd 0d c0
       0.07796531 -0.6334979 0.8774289 -2.2146952
000230 08 eb 64 bf bd 92 dc 3e 2f 55 b1 3f 1c 6f 3e 3f
       -0.8942113 0.43080702 1.3854121 0.7438829
000240 3a f4 6c be 64 38 09 be d7 50 24 3f e1 2c 09 3f
       -0.2314004 -0.13400418 0.6418585 0.53584105
000250 76 31 5b bf 6d f4 d8 3e f1 3b 06 be 8e e0 44 3f
       -0.85622346 0.42373982 -0.13108803 0.76905143
000260 41 e1 25 bd 9e 8f 8b 3e 71 e2 9b bf be c3 85 3e
       -0.040498022 0.2725801 -1.217848 0.26125902
000270 51 c9 bf bf 25 f6 31 3f b3 f5 b0 3d fd ee fc be
       -1.4983312 0.6951621 0.086406134 -0.49401084
000280 3d 4b 52 3f 44 67 5b 3f 37 07 37 3e df 4f e9 be
       0.82146055 0.85704446 0.17873846 -0.4556875
000290 b6 90 0e 3f df 99 46 3f f7 45 9d bd 21 85 2f bf
       0.5568956 0.7757854 -0.0767936 -0.68562514
0002a0 a8 47 99 bd f6 70 83 be 8e 61 2d 3e 90 8a 4d be
       -0.074843705 -0.2567212 0.16931745 -0.20072389
0002b0 b1 38 eb be 11 09 68 bf e8 48 49 3e 54 4a a0 3e
       -0.4594169 -0.90638834 0.19656718 0.31306708
0002c0 21 35 9a be 1c 2d 0f c0 14 01 04 bf 1e 74 1b 3e
       -0.3011866 -2.2371283 -0.51564145 0.15181014
0002d0 aa a2 43 3f ce c2 8e 3f b4 96 b1 bc 2f 41 97 3f
       0.7642008 1.11532 -0.021678306 1.1816767
0002e0 33 e7 fd 3c 1f 17 6d 3f fe f2 59 bf 61 58 0e c0
       0.030994033 0.92613405 -0.851364 -2.2241442
0002f0 c9 c3 f6 3e cf 08 d8 be 60 d1 da bd f8 38 dd 3e
       0.48196247 -0.4219422 -0.10684466 0.43207526
000300 51 d5 5d 3f bb 11 02 3e 8d 71 9d 3d d4 2f f3 bd
       0.8665362 0.12702076 0.07687674 -0.11874357
000310 86 bf ac 3f e3 52 80 3f b3 51 94 3e f5 db 3e bd
       1.3495948 1.0025295 0.28968582 -0.046596486
000320 dc 21 9f 3c 78 3d fe bd e8 e6 39 bd 20 fe 9f bc
       0.019425325 -0.12414068 -0.045386225 -0.019530356
000330 a5 c5 ae bb 18 77 04 3d c5 98 fc bd 58 a7 bc bd
       -0.0053336197 0.03234014 -0.12333826 -0.09211606
000340 d0 4b 72 3c 38 77 ac 3c 7c a6 bc 3c d1 97 c5 bc
       0.014788583 0.021052942 0.023028605 -0.024120243
000350 0f ad f7 3b 34 d3 87 bc b8 30 84 bb e2 63 8b bd
       0.007558472 -0.016580202 -0.004034128 -0.068061605
000360 6c f2 f2 bc 30 4b c8 3b e9 47 64 3c 18 a2 f8 3b
       -0.029656611 0.0061124787 0.01393316 0.0075876825
000370 63 3c 97 3d 41 e5 18 bd 03 b9 16 bd f2 ea a8 3c
       0.07384565 -0.03732801 -0.036797535 0.020619843
000380 7a 32 c0 bd 43 52 05 ba fb f9 97 bd 97 ed 71 bd
       -0.09384628 -0.00050858053 -0.07420727 -0.059064474
000390 ab e2 8a 3c 35 90 f7 bc 3c fb 81 bd bc 8a ca bd
       0.016953787 -0.03022013 -0.06346747 -0.09889743
0003a0 5d 9f 95 bd 24 68 b0 3c 31 e2 4c 3d ce d0 63 3c
       -0.07305787 0.021534033 0.0500204 0.013904763
0003b0 da 76 8f bd ba 71 60 3c b9 87 a7 3c 50 fa ca 3c
       -0.07005091 0.0136989895 0.02045046 0.024777561
0003c0 ba a8 60 bc b9 75 f9 3c 42 c0 d1 3c bb b5 ec bd
       -0.013712103 0.030451642 0.025604371 -0.115581
0003d0 58 37 67 bc 5c b0 8f bb ab 57 d5 bd 55 95 a8 3d
       -0.014112316 -0.0043850373 -0.10417112 0.08231608
0003e0 2e 7b 99 bd 68 e5 05 be 6d 41 1b bc 50 5c 24 bc
       -0.07494198 -0.13075793 -0.009476048 -0.010031775
0003f0 2c 7d a0 bd 60 db 99 bb f1 a0 83 bd 2a 1f 87 bd
       -0.07836375 -0.004695341 -0.064271815 -0.06597741

fc2.bias f4 [100]
000000 82 41 90 bc 62 98 2f 3f 1b 20 0a be d6 ac a7 3c
       -0.017609362 0.6859189 -0.1348881 0.020468157
000010 ba f2 5d ba 3d a1 4a 3e aa 95 27 bf c9 7c bf be
       -0.000846665 0.1978807 -0.65462744 -0.3739989
000020 7d bb 19 bf c9 b7 29 3e 19 44 f4 bc 07 ec 13 3f
       -0.6005171 0.16574015 -0.029817628 0.57782024
000030 58 ff 35 3e bd 85 f4 bd a7 0c 73 3f 80 e7 5c 3f
       0.17773187 -0.11939571 0.9494118 0.8629074
000040 cb df 1f bf a4 fc 85 bd ce 09 ad be 1f 8d b4 bd
       -0.62450856 -0.06542328 -0.33796543 -0.08815979
000050 29 5f ab 3e 33 3f 2c bf e4 0c 9c be 3b 70 8e 3e
       0.3347104 -0.67283934 -0.30478585 0.2782
000060 4f 13 1b bf d4 e2 12 bf 61 b7 85 3e 57 38 89 3c
       -0.6057634 -0.5737736 0.2611647 0.016750498
000070 ac 8d 4f 3f f6 18 a1 be 3a af d8 bd bf 65 1f 3d
       0.8107555 -0.31464356 -0.10580297 0.038915392
000080 f4 0f b4 3e 5d 08 5e be 5d 9a 95 3d 64 01 23 bf
       0.3516842 -0.21682878 0.07304833 -0.63673997
000090 2a 0c e5 3e 47 f0 9a 3e 4b 35 44 3f c9 e8 12 be
       0.44735843 0.30261442 0.7664382 -0.14346613
0000a0 0f a0 b9 be 14 fc 1c be 00 e6 2e bd e3 bf ef 3e
       -0.36254928 -0.15330535 -0.042699814 0.46826085
0000b0 b5 36 b3 3e e7 d4 97 bd 8b a1 55 3f ba a3 23 bf
       0.35002676 -0.07413655 0.8344962 -0.639217
0000c0 75 5b 23 3f 07 c7 72 be a0 a1 94 3d 04 12 b5 bc
       0.6381143 -0.23708735 0.0725739 -0.022103317
0000d0 0c a1 c7 be 00 4b 54 bd 35 1a 2a bf cb 4b 03 be
       -0.38990057 -0.051829338 -0.6644624 -0.12821881
0000e0 13 e9 1e bf db 77 cf be e3 46 1e bc 63 87 b5 be
       -0.62074393 -0.4052113 -0.009660455 -0.35454854
0000f0 d7 09 c4 be 03 68 a3 3d b6 b4 64 3e 66 09 dc 3e
       -0.38288757 0.07978823 0.22334561 0.4297592
000100 57 17 2d 3f 00 d2 c7 be a8 3e e8 bd 87 c9 3f bf
       0.6761374 -0.39027405 -0.11340076 -0.7491688
000110 f0 78 cf 3c cb cb 0f bd 32 d7 f8 be 28 a1 82 be
       0.025326222 -0.03510646 -0.4860168 -0.25513577
000120 1f cb 8f be 49 af fe 3e 13 1b cd bd 10 ea 5b 3e
       -0.28084657 0.49743107 -0.100149296 0.21476007
000130 69 ff 87 be 5b 69 b5 be ea 0e f1 bd ae 5d 86 3f
       -0.2656205 -0.35431942 -0.11770423 1.0497339
000140 97 6e 20 be 2a 82 9b be 62 e1 2c bf 8f fe 2f bf
       -0.15667187 -0.30372745 -0.67531407 -0.687478
000150 cc 33 5d 3e 4a 0b 68 3f 39 a1 3e 3e 45 be 95 bd
       0.2160179 0.90642226 0.18616189 -0.07311682
000160 24 c0 a2 be e7 b6 0f bf b4 64 f7 3e 5b 7e a3 bd
       -0.31787217 -0.5613846 0.48319018 -0.07983085
000170 8d 2a 25 bf 2e 4d d5 bc 1f 20 82 bd 0e 9a 02 be
       -0.6451805 -0.026037779 -0.06353783 -0.1275408
000180 87 97 04 bf 49 de b1 be 50 d3 ef 3e 52 5a 82 3f
       -0.5179371 -0.34739903 0.46840906 1.0183814

out.weight f4 [4, 100]
000000 bc 9b 81 bd 93 2e 44 3f f3 a8 ae 3c ec d7 23 c0
       -0.06328532 0.76633567 0.021320796 -2.5600538
000010 e3 ac 7d 3f 84 2d 28 3f 5d a4 27 3f 5c d9 bb 3f
       0.9909193 0.6569445 0.65485173 1.4675708
000020 44 e7 d0 3e 49 0b 5d be 8a 27 6c 3c 74 2f e2 3f
       0.40801442 -0.21586336 0.014413724 1.7670732
000030 bd 37 d9 be 3a 13 85 bd 3f 14 9b bf de ea ed 3f
       -0.42425337 -0.06497808 -1.2115554 1.8587301
000040 48 55 b1 be e5 08 33 bd e7 5c dd 3f 37 fe 70 bf
       -0.34635377 -0.043709654 1.7293977 -0.941379
000050 48 0e 61 3f be d3 f5 be 11 ac 94 3f 14 eb a8 bf
       0.87912416 -0.4801311 1.161501 -1.319674
000060 65 ba f0 3e bf 01 91 be 97 d7 ec bf f8 72 0f 3d
       0.47017208 -0.28321645 -1.8503293 0.035021752
000070 8f 14 7f bf e8 4d cc 3f 00 87 ff 3b 83 6c 52 bf
       -0.99640745 1.5961275 0.0077980757 -0.82196826
000080 d3 d0 37 3e 6d fe a7 39 8d a6 25 40 de 8f c0 3f
       0.17950754 0.00032042284 2.5882905 1.5043905
000090 83 b5 bc bf e9 88 29 3f a6 8c 0b bf 4c 34 3a bd
       -1.4742893 0.66224533 -0.5451149 -0.04546003
0000a0 6f cd 49 3e 95 2f cc bd 93 b2 4a bf e6 b7 9a bf
       0.19707273 -0.09970013 -0.7917873 -1.2087371
0000b0 b1 e5 ca 3f 61 d3 81 bf d8 a5 2e bf de 36 be 3f
       1.5851346 -1.0142633 -0.6822181 1.4860494
0000c0 44 48 32 3f 53 ee 01 40 4d 5f 01 3d f1 a2 dd 3c
       0.6964152 2.0301712 0.031585027 0.027055236
0000d0 42 b2 ba be 59 a2 8f 3d 7b 2c 6f be e9 b5 a6 3c
       -0.36464125 0.07013387 -0.23356812 0.020350413
0000e0 56 5c d4 3e 02 f9 40 3f aa 35 ae bd d0 51 82 3c
       0.41476697 0.75379956 -0.08506329 0.015908152
0000f0 7c a2 de be 37 73 a0 bf 65 b4 58 be 8d d2 2c be
       -0.4348334 -1.2535161 -0.21162565 -0.16877194
000100 e3 30 e6 3f 92 ed 8c 3f 19 38 d6 3b 12 8d 12 bf
       1.7983669 1.1010001 0.006537449 -0.57246506
000110 a0 ad 26 3b 99 66 56 be 09 89 86 be f6 20 56 3e
       0.0025433078 -0.20937575 -0.26276425 0.20911011
000120 82 49 65 3e 76 3b 7c bf 4c e2 ad bd 28 4e 98 3f
       0.22391322 -0.9852823 -0.08490428 1.1898851
000130 4f 31 f6 be 9e 87 45 bf 40 1a 49 bd a5 9f ba 3f
       -0.48084494 -0.7716006 -0.0490973 1.457997
000140 9b 57 a4 3f 67 7b 26 bf 87 7e 2b bf 75 e2 5d 3f
       1.2839235 -0.6503205 -0.6698994 0.8667367
000150 0b ee 4f bf e2 4c c9 be ca 12 cb 3f 1e 5b c8 3d
       -0.812226 -0.3931647 1.5865109 0.09783004
000160 b1 dc 53 3e d3 f4 07 3c cf a4 ae bf 49 37 a8 3d
       0.20689656 0.008298117 -1.3644046 0.0821367
000170 2a 75 9c be 32 d5 71 bf 70 b3 71 bc 1f 19 e8 bf
       -0.3055814 -0.94465935 -0.014752254 -1.8132666
000180 33 22 f0 3f 15 1c 9f 3f 5f fc e4 3f 1d f5 db 3f
       1.8760437 1.2430445 1.7889518 1.7184178
000190 17 f3 6b 3d 3e 6d 1d 3f 5d b3 a6 3d f6 e3 c7 be
       0.057604875 0.61494815 0.081396796 -0.39041108
0001a0 d5 14 83 3f 89 42 5c bf 27 76 fa 3d 3e e3 b4 3f
       1.0240732 -0.86039025 0.12229567 1.4131849
0001b0 7f 1a 3b 3f 5b d9 39 bf 92 2f 25 3d 34 88 00 40
       0.73087305 -0.72597283 0.04032857 2.0083132
0001c0 39 16 d5 bd 5d 22 0f 3d 7b e0 82 bf 26 e2 f8 3f
       -0.10404629 0.03494488 -1.0224756 1.9444015
0001d0 41 81 99 3e 18 d2 95 3d 41 bd 29 3f a5 c2 d9 bf
       0.29981425 0.07315463 0.66304404 -1.7012526
0001e0 8c 36 c5 3f 9a 8e 10 3f fc 72 82 3f ed 61 71 bf
       1.5407271 0.5646759 1.019134 -0.9429005
0001f0 5a 23 09 3f e7 72 7f 3f 0b dc 09 c0 56 85 22 3d
       0.5356957 0.997847 -2.1540554 0.03967794
000200 8c f6 a4 bf fa 11 05 40 03 24 3f bd 90 15 a3 bf
       -1.288774 2.0792222 -0.046665203 -1.2740955
000210 1d 45 28 3f db 1a 81 be 0b 21 cd 3f 5c 3b c7 3f
       0.6573046 -0.25215802 1.6025709 1.556499
000220 a1 14 d0 bf d7 48 2c 3e ab b4 2d bf 4a 89 80 bd
       -1.6256295 0.16824661 -0.678538 -0.06276186
000230 78 85 3c 3d 28 36 c2 bd 0a 20 85 bf 54 12 ab bf
       0.046025723 -0.09482986 -1.0400403 -1.3364968
000240 8e e0 b0 3f fb 14 9c be 4d 36 22 bf 48 b4 89 3f
       1.3818529 -0.30484757 -0.63364106 1.0758142
000250 d2 20 4f 3f f3 20 ff 3f 53 59 97 3b d2 d8 d6 3c
       0.80909455 1.993193 0.0046188026 0.026226435
000260 c4 c9 00 bf 26 36 7b 3c 47 02 ea be 53 7c 44 bd
       -0.5030787 0.015332734 -0.45704862 -0.047970127
000270 de 1a c0 bf 53 3d 34 bf 40 20 21 bc 9e bb 50 be
       -1.5008199 -0.70406073 -0.009834349 -0.2038407
000280 8e f2 82 3e b7 92 b3 bf 93 ca 9b be b9 80 f2 be
       0.2557568 -1.4029149 -0.3042799 -0.47363833
000290 24 bc 84 3f d8 f1 ea 3f 46 d4 da bd 00 7c be 3f
       1.0369916 1.8355055 -0.10685019 1.4881592
0002a0 b3 c0 1b bd 03 63 19 3f 42 ee 1c 3f 7f c9 79 be
       -0.03802557 0.59916705 0.6130105 -0.24393271
0002b0 91 4d 8b 3f b9 69 5d bf 82 17 11 bd f0 df 27 3f
       1.0883046 -0.86489445 -0.03542281 0.65576077
0002c0 0e 6a 8c bf 40 cb d6 3e 88 e9 9b bc 66 ca d7 3f
       -1.0969865 0.41951942 -0.019032255 1.6858642
0002d0 78 2b c8 3f f8 39 99 3e 0e 5b fb be e1 8b 93 3f
       1.5638266 0.2992704 -0.49092907 1.1527063
0002e0 46 85 40 3e ca 61 ff bd 72 83 a7 3f 93 5f 69 3d
       0.1880084 -0.12469824 1.3086989 0.056975912
0002f0 d8 71 b3 3f 9c 94 7c bd f5 cb ee bf 42 c1 81 3d
       1.4019117 -0.061665162 -1.8655993 0.06335689
000300 e1 70 93 3f 40 6a 70 bf f3 24 1b bd 0c c1 cb be
       1.1518823 -0.93912125 -0.037877034 -0.3979572
000310 c6 13 7e 3f 8c 41 7c 3f 1e 9e f6 3f a2 57 f0 3f
       0.9924892 0.98537517 1.9267004 1.8776743
000320 8c 0b 86 3b 3e 38 59 3f b0 1f 7b bd c2 d5 4c bf
       0.004090732 0.84851444 -0.061309516 -0.8001367
000330 bf 18 b3 3f 83 af fb 3e f7 69 37 bf 09 cd eb 3f
       1.3991927 0.49157342 -0.71646065 1.8421947
000340 f8 d1 c0 3d 8f 11 0b 3e a8 ee bd 3c d4 bf e1 3f
       0.09415048 0.13580917 0.02318509 1.7636666
000350 72 3d ef be 1b 16 19 3d 69 7d b1 bf 58 79 09 40
       -0.46726567 0.037374597 -1.3866397 2.1480312
000360 0d 34 4b 3e 97 67 1c bd e7 ae 05 40 f9 8c 62 c0
       0.19844075 -0.03818473 2.0888002 -3.5398543
000370 52 d9 f2 3f 0d 18 21 3f bb d4 17 3f f9 18 1b bf
       1.8972571 0.62927324 0.59308976 -0.6058498
000380 d6 86 25 bd dd 28 46 bf 07 f1 0d c0 9c be 94 bc
       -0.040411793 -0.774061 -2.2178361 -0.018157296
000390 9c 53 92 bf cd c9 1e 40 59 97 60 bd 3f a9 4a bf
       -1.1431766 2.481067 -0.054831836 -0.791645
0003a0 e5 b6 28 3f b5 bb 0e 3f e5 b6 1b 40 5a 4f a0 3f
       0.65904075 0.5575517 2.433038 1.2524216
0003b0 af 4f 9e bf a2 b8 c3 bf 90 e4 1a bf a9 52 7b bd
       -1.2368068 -1.529072 -0.6050501 -0.061358128
0003c0 c4 86 31 bf 80 e4 9c ba 6e 7f c4 bf b8 1a 88 bf
       -0.6934626 -0.0011969954 -1.5351388 -1.0633154
0003d0 17 0d ad 3f a2 f8 29 bf 83 bd 3a bf 71 1d 42 bf
       1.351962 -0.6639501 -0.7294542 -0.75826174
0003e0 a8 1f 19 3f 48 bb ee 3f 04 37 56 bd c2 0e 0a bd
       0.5981393 1.8650904 -0.05229856 -0.03370548
0003f0 2f 73 ac 3e 67 fc 0b bd 1f 57 6b bf 54 62 b5 bc
       0.33681628 -0.034176257 -0.9192981 -0.022141613

out.bias f4 [4]
000000 91 7d 69 3e 84 4f 3b be 24 84 e4 3e 2b 5e fb 3e
       0.22801806 -0.18292052 0.44632065 0.49095282
