Lunar Lander V2 Hau Zheng Yi/models/model_280_3.pth (torch, 47903 bytes, 6 tensors)

fc1.weight f4 [100, 8]
00000000: 46d2 d9be 719b 4bbd 9488 61bd f080 9bbf
00000010: 561f 5bbf 6963 453f befe 2abe fe7a 4cbf
00000020: 0b27 bb3e 1dfc 39bc 30e4 d33f 0547 febd
00000030: 97e6 8abf 6293 933e c29d a5be 3680 8abf
00000040: 5d70 cabe f92b 9b3e 323f a03d 94a3 ccbd
00000050: a9b0 523f 03af c93e 78dd 5fbf ae20 323f
00000060: e765 e83e 8ddf 173e a1bb a03d f969 c1bd
00000070: 4bad 473f e1fa 18bf f0aa 39bf efdd 0fbf
00000080: baf2 b33f f761 de3e cd40 183f 854a dabe
00000090: b65e f63e 79c0 1cbf 3a90 8fbf 3702 ccbe
000000a0: 058c 003e 3a2c 3fbc 7164 4dbf 8dec 343f
000000b0: 73ce ffbf 8105 c93e 5625 86bd ad89 10bf
000000c0: d408 aabe 0035 2e3e 1f18 a83d 69c3 aebf
000000d0: 3426 71bf 57a5 113e 2887 703e cd0a c7bd
000000e0: 5597 31be b5db 6cbf 8339 6ebf 100d bcbf
000000f0: ee27 c63e 41d7 cfbd d7f9 ac3e d2f7 46bf
00000100: 6915 dc3f bbab 84be ee60 593f 35e8 253f
00000110: 2f23 c33c e334 313e 6a9e 89bf 1e9b e43d
00000120: 97c9 67be 297a bebe 5b34 c73e 88e2 09bf
00000130: df83 c8be 476a 643f 30d1 ac3d 3d62 173d
00000140: 2dd4 dc3e ed52 433f d9b2 353f fc44 f8be
00000150: cfd2 2bbf e360 5f3d 0bd8 9c3d 618f 63bf
00000160: a9fe 253e aa3d 5ebf b2ca 21be 2877 adbf
00000170: 8390 5b3f 52f2 6a3f 2180 e43e 6ddc 8fbf
00000180: 5eb3 013f 7841 da3c 6771 dc3f e360 f7be
00000190: c288 3fbe 94d8 183e 50b1 a03e 5aa5 3fbf
000001a0: 69a1 23be 2f65 b1bf 47d6 a6be fe3c 873f
000001b0: d01e fa3f c381 4b3f 756d cebf ed16 5cbe
000001c0: fa48 75be 1148 6b3e 69bf 18bf 12ce 8a3f
000001d0: 31f5 183f 0f3d 8b3e 5f0a e4bf 068f e7bd
000001e0: 625f 5b3d c10a 0fbe fa24 ab3e 6287 0b40
000001f0: 326d 323f 7312 f0bd ba05 823e 7851 9ebe
00000200: f4d6 de3e 2271 56bd 3401 013f a010 4abf
00000210: d466 b03e 517f 98be 0648 9d3c c239 25bc
00000220: 3b74 053f 57c5 a13d 4c00 853f fa57 01bf
00000230: 62b2 c4bf c19c b53e deb9 1a3f ba76 63bf
00000240: 5154 2bbf c3bd 12bf 7aad a93d b480 e1be
00000250: 24ad 833e 77f7 a13d f140 b83d 7df5 93bf
00000260: 197a f9bf ff7b 6ac0 0f94 263f b916 93be
00000270: 3280 64bf 2dad 183f 2ec6 b43d 071b 2dbc
00000280: 515d d3be 4b78 66be 2994 c63e 8b39 5dbf
00000290: c25b d83e e103 073d f562 e5be fdfb 8cbf
000002a0: 6388 273e e741 b8be 1065 eebf 1c8a b1bf
000002b0: b9d4 84be 07ac 7b3e 916f c93d 743a 4fbe
000002c0: 3cd8 02c0 0bb3 1a3e 7a8e 1d3e 86ec 9cbe
000002d0: 9d32 c8bf 280d ca3e ad5c 00be bd96 49bd
000002e0: 9838 0dbc e0ce 8bbe 794f e03f 6978 b0bf
000002f0: 7fec 2bbf cb6e 30bd 3cd8 99be 4a64 a93d
00000300: aaf5 ca3f 0b7b 62be 97d1 58bf c232 16be
00000310: e602 9b3f b041 f9be 9706 49bf a826 c9bf
00000320: fb5a 2e3f 4568 d43d 2cf1 cc3e 2bbc a8bd
00000330: 04be 0940 870f 9cbe 0ea6 9dbd f29b 853e
00000340: 66d2 9a3f ff19 2cbe aba9 243f 6596 833d
00000350: 3f6a 7d3f 8a33 ae3e b12d c2bf bad8 003e
00000360: 3a38 9abe 79c0 89be cbcd 80bf 2cc9 9dbf
00000370: c337 373e cc63 403c 13f1 5fbe 7260 9e3e
00000380: c21f c03c a94f 1e3f 1e07 4bbe 70b8 513f
00000390: de0c eb3d f726 e03e 9451 34be 8f52 253f
000003a0: 51c6 d8bf 6e18 2dbd 63ee 85bf c363 9ebe
000003b0: 4e26 163f e493 c33d fb24 29bd ff3c 92bf
000003c0: a434 74bb 9a89 21be cf1f a03d af0d 2ebe
000003d0: 88da 163e a45a aa3d bece 2f3d 9225 943d
000003e0: f4d9 d8be 8879 b13f e473 5cbf 1f7d 66bf
000003f0: 1753 3f3e e5a3 113f 07bf 3cbf e81a fd3e
-0.42543238 -0.049708787 -0.05506189 -1.2148724 -0.8559469 0.7710481 -0.16698739 -0.7987517
0.36553225 -0.011351612 1.6554012 -0.1241589 -1.085162 0.28823382 -0.32346922 -1.0820377
-0.3953885 0.30306986 0.078245535 -0.099921376 0.8230081 0.39391336 -0.8744731 0.69581115
0.45390245 0.14831372 0.078482874 -0.09444041 0.779988 -0.5975781 -0.72526455 -0.5619802
1.4058449 0.43434116 0.5947388 -0.4263498 0.48119134 -0.6123119 -1.121589 -0.3984544
0.12553413 -0.011668259 -0.80231386 0.7067345 -1.9984878 0.39262012 -0.0655009 -0.56460077
-0.3320986 0.17012405 0.08207726 -1.3653384 -0.9419892 0.14223228 0.23489058 -0.09718857
-0.17342885 -0.92522746 -0.93056506 -1.4691486 0.3870234 -0.10148478 0.33784363 -0.77721894
1.7194034 -0.2591227 0.8491353 0.64807445 0.023820488 0.17305331 -1.0751469 0.11162399
-0.22635494 -0.37202576 0.38907132 -0.53861284 -0.3916311 0.89224666 0.08438337 0.03695892
0.43130627 0.7629841 0.70976025 -0.4849013 -0.67118543 0.054535758 0.076583944 -0.88890654
0.16210426 -0.8681284 -0.15799978 -1.3551989 0.8576738 0.91776 0.44629005 -1.1239144
0.5066432 0.026642546 1.7222108 -0.48316106 -0.18704513 0.14926368 0.3138528 -0.7486168
-0.15979542 -1.3859004 -0.32585356 1.0565488 1.9540653 0.79494876 -1.6127154 -0.2149312
-0.2395362 0.2297671 -0.5966707 1.0844138 0.5974913 0.27195022 -1.7815665 -0.113065764
0.05355776 -0.13968946 0.33426648 2.180138 0.6969787 -0.11722269 0.25394994 -0.3092153
0.4352337 -0.052353986 0.5039246 -0.7893162 0.34453452 -0.29784635 0.019199383 -0.010084571
0.5213048 0.07898968 1.0390716 -0.50524867 -1.5366938 0.35471156 0.6043986 -0.8885304
-0.6692553 -0.57320803 0.08285041 -0.44043505 0.25718033 0.07908528 0.089967616 -1.1559292
-1.9490386 -3.6638181 0.6506967 -0.28728274 -0.8925811 0.59639245 0.08826862 -0.010565526
-0.41282132 -0.22506826 0.38784912 -0.8641593 0.42257506 0.032962684 -0.4480206 -1.1014401
0.16360621 -0.3598778 -1.8624592 -1.3870273 -0.25943545 0.24577342 0.09835733 -0.20237142
-2.044448 0.15107362 0.15386382 -0.30649203 -1.5640446 0.39463162 -0.12535353 -0.04921602
-0.00861945 -0.2730627 1.7524253 -1.3786746 -0.6715774 -0.04307441 -0.30047786 0.08271082
1.5856221 -0.2211725 -0.8469481 -0.146678 1.211026 -0.48682928 -0.7852568 -1.5714922
0.68107575 0.1037145 0.4002775 -0.08239015 2.1522226 -0.30480596 -0.07697688 0.2609554
1.2095459 -0.16806792 0.6432139 0.0642517 0.98990244 0.34023696 -1.5170194 0.12582675
-0.30121022 -0.26904657 -1.0062803 -1.2327018 0.17892365 0.011742543 -0.21869306 0.30932957
0.023452643 0.618403 -0.19826934 0.81922054 0.114770636 0.43779728 -0.17609245 0.645791
-1.6935521 -0.042259626 -1.0463375 -0.30935487 0.586522 0.09549692 -0.041295033 -1.1424865
-0.0037262822 -0.15775147 0.07818567 -0.16997407 0.147318 0.083180696 0.042921774 0.072337285
-0.42353785 1.3865213 -0.86114335 -0.9003467 0.1868404 0.5689071 -0.73728985 0.4943459

fc1.bias f4 [100]
00000000: f809 0a3c 4125 663d 4ed8 413f 5932 263e
00000010: 7b5d 07bf 04a8 ff3d 04b3 e63d 85ee 523e
00000020: 7b7d 7abd d63e 1b3f e731 65bf 93fe 28bf
00000030: e029 bd3d b14b a7bf 37ef 8e3f aae3 943f
00000040: 44d6 883e aaa7 5cbf c1dc 493f 746b 893d
00000050: 392e 693f c287 e63e 5b88 ca3e e4c8 09bf
00000060: bfe0 c13e 001d f5bd fe9b a5bf 5592 8b3e
00000070: 7911 f03e db72 813f 8bae 2fbe 4e99 0cbf
00000080: fe36 0abf d3ab 3f3f 2f67 96bf 0831 08bd
00000090: ba68 4d3f 8933 0f3e 2eb3 d23e 00a7 db3e
000000a0: 4c52 933e d1e7 73bf 7154 14bf d965 143f
000000b0: ac10 49bf 5677 6bbe 06ca 98bf 7112 063f
000000c0: 6a41 b4bf a240 5dbe c407 5a3f 9b48 17bf
000000d0: 315f 82bf 8cc6 823f a04e 6a3f b886 28bf
000000e0: e56a 5f3f 1e3b 2bbf 1c61 343f 1fd2 d5bd
000000f0: 9c34 323f be63 c5bf 54fc 0cbf c52a 09be
00000100: 6522 413f 0c0f 513d 4259 07be ac75 e93e
00000110: e1b4 9d3e 62f4 913d f927 b3be 2998 693e
00000120: fe06 97be a07f 4bbf a134 853c 2de4 083f
00000130: f136 273f 49c9 103f c631 efbe 2bc4 263f
00000140: a03e f13d 53e4 81bf 3b21 393e 9040 9cbe
00000150: 9906 bd3e 61d0 4e3d 575a 80be 0183 47bd
00000160: 5118 d43e 5829 203f 11fc 2d3f 07f7 023f
00000170: df32 893e 7dfd 203f f012 9e3e 5795 76bf
00000180: 0f6a 643e 1fea e0be d14b 9bbf 85cb 97bd
0.008425228 0.05618787 0.7572068 0.16230144 -0.52877015 0.12483218 0.11264613 0.205988
-0.061154824 0.60642755 -0.8952927 -0.6601345 0.09236503 -1.3069974 1.1166753 1.1631978
0.26725972 -0.86193335 0.7885247 0.06709948 0.91086155 0.4502545 0.39557156 -0.5382216
0.3786678 -0.11968422 -1.293823 0.2726008 0.4688833 1.0113176 -0.17156427 -0.54921424
-0.5399016 0.7487156 -1.1750239 -0.033249885 0.80237925 0.13984503 0.41152328 0.42900848
0.28773725 -0.952756 -0.5794135 0.5796791 -0.78541064 -0.22994742 -1.1936653 0.5237189
-1.4082463 -0.21606687 0.851681 -0.5909516 -1.01853 1.0216842 0.9152622 -0.65830564
0.87272483 -0.6688708 0.7046068 -0.10440468 0.69611526 -1.5421064 -0.5507252 -0.13395222
0.75443107 0.05103974 -0.13217643 0.4559759 0.30802062 0.071266904 -0.34991434 0.2281195
-0.29497522 -0.79491615 0.016260447 0.5347317 0.6531821 0.56557137 -0.46717662 0.6514308
0.11779523 -1.0147804 0.18079083 -0.30518007 0.36919096 0.050491694 -0.25068924 -0.04870892
0.41424802 0.62563086 0.6796275 0.51158184 0.26796624 0.6288679 0.30873823 -0.96321625
0.22306083 -0.4392862 -1.2132512 -0.07411865

fc2.weight f4 [100, 100]
00000000: e1ec cc3e f9fd 40be 5f3d 893f 2e2d 49bf
00000010: c495 803e b4ea 093f 284d dcbc a5be 9ebe
00000020: 0ce9 5e3e d4d0 63bf c00e bb3d 06d5 abbe
00000030: 4df4 f43d 1426 22c0 373f 113f 74da bc3e
00000040: fe5a 3a3e 85df a9bf 0d16 403f 9430 c03b
00000050: d4bd b93e a5f7 0c3f c0b4 6ebc 332f 5fbf
00000060: 57b9 89bc 2fb5 5b3f 0d04 dfbf 4eb9 e83e
00000070: ab62 0d3f fe8c 54bf 1306 463e 122f 323f
00000080: 1318 3cbf b729 b43e 22a0 8fbf 21aa 00bd
00000090: 6aa7 8e3e c2d6 723e 8867 fd3e 68d4 3a3e
000000a0: 1272 7d3d 1a5d dcbd 648a ab3e e5d5 8d3f
000000b0: 95a7 0a3e 9ae7 f7bd bae4 80bf 328e f53c
000000c0: 57a1 bfbe 1b02 483e 630c 5b3f c9bb 6ec0
000000d0: 9d7a b3bf 7469 e1be 6a09 5c3f 9a98 bc3e
000000e0: 5992 10bd 9059 9dbf ef21 9f3e 7a79 1dbf
000000f0: b442 263f 4cc6 03c0 21ec 9bbf 302a 9b3e
00000100: 8f27 1c3f 57ff a73d 7577 a1bc 7671 933e
00000110: 9f69 a9be bb80 10bf 6641 5ebe f72d 703d
00000120: 3187 19c0 56be 05c0 8e75 6bbd 751f 08be
00000130: 993b 15bf e804 dc3e f38b f9bf 629f 303e
00000140: d81d ca3e 0a8b c2bf 75b4 b93e 18b8 573f
00000150: 4685 103f 1b2b 76bf c173 dfbe ea11 943f
00000160: fc94 a53d 1ef1 473e 57a0 1dbe e83b 693f
00000170: 7d3f 66bf b87c 1fbf a251 8b3e f8c1 86c0
00000180: 0e3a 793f d0f6 633f 260f f9be 3184 71be
00000190: 80b7 493f 92e4 fa3e 3cb6 a03e 0b45 13bf
000001a0: 319e 9f3e 29f4 8f3e 11fc 353f 3b8b 173f
000001b0: a991 f3bf 6905 8d3e 9b0f 103f e4c7 77be
000001c0: 449f 033f a189 dabe 336c dcbe f831 84bf
000001d0: 15eb 9b3e b79a 9c3d 646b 413f 3412 cdbe
000001e0: 247b bc3e 8538 1f3f 9fa6 493e d99a a53d
000001f0: 5771 2f3e d8d9 493f b162 04bf 6f8b 083f
00000200: ae94 58be 1efd 18be 1fc2 9d3e 4b5e 8f3f
00000210: 9f6d 0ebf 17fb a73e d696 37bf 314f e83e
00000220: bab9 493f ff6c d43e 6529 813f fcc6 043e
00000230: 19b4 79be e935 39bf 1a08 c4bc 7c4e a1be
00000240: 96ca 4f3e b854 9a3f 3bbe 873f e86f bc3e
00000250: 3f81 2b3f c169 ad3f ac5b a3bf 41f8 d6be
00000260: aa28 0ac0 fe47 7c3e 4d00 813e 819d 793f
00000270: 68bd ccbe 4bf8 123e 0b18 573f 2c31 913e
00000280: f8f9 9ebe 1cee 78be a8a9 0f3e 099d 863e
00000290: 4b8a bc3d 6be5 083e c997 8d3e 4a79 b63e
000002a0: 132f 95bf c2d4 83be 4f1a a63e 1c33 983d
000002b0: a03e 833f df71 ccbe 265f f63e 9ce2 7cbe
000002c0: beae 8ebf 3bcd 3c3e b367 0f3f faff 44bf
000002d0: e8ac 253f 20c0 cfbe aab8 c0bf abd3 dd3e
000002e0: 46e7 0f3f 16b4 8cbd af70 393f 513e 8e3f
000002f0: e231 803c 8baf de3c 31be 033f 4540 f1bd
00000300: f698 583f 808e c2be e21d 193f 119b b4bf
00000310: 9c31 bfbd adf2 593f 21d7 26be 576e 91bf
00000320: 7ee9 543d 3494 bd3c 3a2e adbd e657 c9bd
00000330: cb90 8fbd 2ce3 063d 48ab e7bc d71b 27bd
00000340: 0547 0ebd 58e4 ba3c bedd 7b3d 7bc3 ac3d
00000350: a751 b1bd bb30 c9bd 567e 643d 9ee0 8e3d
00000360: 9d42 55bd 6881 eabc 8028 eabb e0b3 a13c
00000370: 8fcc 083d 151f 8f3d 269d d1bd a06f ee3b
00000380: 8164 66bd a489 98bd 1335 1fbd b760 1bbd
00000390: 26d0 d7bd 844a f03c 80e3 4bbc 6ebc 163d
000003a0: 5aaa aebd 203d f03b e73a 28bd 2dc2 99bd
000003b0: b74a 1cbd 0862 e0bc fab3 0e3d f4a5 febc
000003c0: 9c4a f53b 8fe4 9f3c 4f33 b83d ba39 afbd
000003d0: a0e9 e1bd f0c1 48bc 45be bbbd f3ab e1bd
000003e0: 9a43 adbc aa05 f3ba ff3a 32bd f560 c2bd
000003f0: d624 1abd a369 c5bc f794 4dbd ea9c 06bd
0.40024474 -0.18846883 1.0721854 -0.78584564 0.25114262 0.53873754 -0.02689226 -0.31004825
0.21768588 -0.8899052 0.09133673 -0.3356096 0.11960659 -2.533574 0.56737083 0.36885417
0.18198773 -1.3271338 0.75033647 0.005865166 0.3627764 0.55065376 -0.014569461 -0.87181395
-0.01681201 0.8582334 -1.7423111 0.45453876 0.5522868 -0.83027637 0.19338255 0.69603074
-0.73474234 0.35188076 -1.1220744 -0.031412248 0.27862102 0.23714736 0.4949305 0.18245089
0.061876364 -0.10759945 0.3350402 1.10809 0.1354049 -0.12104721 -1.0069802 0.02997503
-0.3742778 0.19532053 0.85565776 -3.7302115 -1.4021794 -0.44025767 0.85951865 0.36835176
-0.035295818 -1.2292957 0.31080577 -0.61513484 0.6494553 -2.058978 -1.2181436 0.30305624
0.6099786 0.08202999 -0.019710282 0.287975 -0.33088395 -0.5644643 -0.21704635 0.058637585
-2.3988764 -2.0897422 -0.057485156 -0.1329325 -0.58294064 0.42972493 -1.9495834 0.172483
0.39475894 -1.5198681 0.3627049 0.8426528 0.5645336 -0.96159524 -0.43643 1.1567967
0.08085057 0.19525573 -0.15393196 0.91107035 -0.89940625 -0.6229968 0.27210718 -4.211178
0.9735421 0.8904848 -0.4864437 -0.23585583 0.78795624 0.4900251 0.31389034 -0.57527226
0.31175378 0.28115967 0.7108775 0.59196824 -1.9028827 0.2754319 0.5627381 -0.24197346
0.51414895 -0.42683128 -0.430513 -1.0327749 0.3045279 0.07646697 0.7555449 -0.4005295
0.368127 0.62195617 0.19692467 0.080861755 0.1713308 0.7884803 -0.5171309 0.5333776
-0.21150467 -0.14940307 0.30812165 1.1200651 -0.5563602 0.32808754 -0.7171453 0.45372918
0.7879902 0.41489407 1.0090758 0.12966532 -0.24385108 -0.72347885 -0.023929644 -0.3150519
0.20292124 1.2057104 1.0604929 0.36804128 0.6699409 1.3547899 -1.2762351 -0.41986278
-2.158732 0.24636838 0.25195542 0.97505957 -0.39988256 0.14352529 0.8402106 0.28357828
-0.31050086 -0.24309582 0.14029562 0.26291683 0.09206065 0.13368766 0.27654865 0.3563941
-1.1654991 -0.2574826 0.32441947 0.07431623 1.0253487 -0.39930627 0.48119467 -0.2469582
-1.1147077 0.18437664 0.5601761 -0.7695309 0.6471696 -0.40576267 -1.5056355 0.43325552
0.5621227 -0.06870286 0.72437567 1.1112767 0.015648786 0.027183315 0.51462084 -0.117798366
0.846084 -0.37999344 0.5981122 -1.4109823 -0.09335634 0.8513592 -0.16293003 -1.1361798
0.051980488 0.023141958 -0.08456083 -0.098312184 -0.07010039 0.03293149 -0.028279915 -0.040798035
-0.0347357 0.02281396 0.061490767 0.084357224 -0.08658152 -0.09823748 0.055784546 0.06976436
-0.05206548 -0.028626159 -0.0071459413 0.019739091 0.033398207 0.0698835 -0.10235052 0.0072764903
-0.05624819 -0.07448128 -0.038868975 -0.03793403 -0.10537748 0.029332407 -0.012444377 0.036800794
-0.08528586 0.0073315054 -0.0410718 -0.07507739 -0.03815719 -0.027390495 0.034839608 -0.031084992
0.007485701 0.019518165 0.08994161 -0.08555932 -0.110308886 -0.01225327 -0.091671504 -0.11019125
-0.021150399 -0.0018541117 -0.043513294 -0.09491149 -0.037632786 -0.024098223 -0.050190892 -0.03286449

fc2.bias f4 [100]
00000000: 15ce 7e3f 3888 8d3e 3414 e4bd 20c2 70bd
00000010: df73 d2be cbdb 303d 7dac 863e ba52 3f3f
00000020: bc46 abbc 84a1 67bc 4011 2abc fe9f 94bd
00000030: b0cd 5e3f 9b85 9dbe 5cae 1f3e 9ef9 023e
00000040: 3e64 873b 0c6a 983e de67 1a3f 4fc9 3c3f
00000050: 92b6 553f 43e8 76bd a824 c93e 6a34 babf
00000060: 013e 9c3d 8cd2 3c3c a6cc 183f c4d6 873e
00000070: a780 e6bc f266 32be e47d 613d 6d0f f6be
00000080: f0ba a43e 3402 123e 5982 eebd 4041 05be
00000090: b0c1 f1be ed96 24be 80d8 cabd a4cd c7bd
000000a0: 26f3 5d3f 679d f4bc cc9d 0cbe e938 4f3d
000000b0: 1963 a3be b6db de3e ac87 183f 7a56 8a3e
000000c0: 09c8 d03e 0f26 f7be 9cc1 aabc 039b c0be
000000d0: 3be7 c53e ec5a 8f3f b6ab 033f 3a2a 253e
000000e0: b079 c43e 2315 133f 540c 843f 227b 8e3f
000000f0: d14f 4b3d fc39 abbe 650d d03e 5db3 0e3f
00000100: 9207 a8bd f247 d33c 23fa a4bc 11f9 ac3e
00000110: 8d7f ecbd baac 363f 270a a3bc 509c 7bbd
00000120: b52d 15be 5b31 a63d b68b d53d 2ce3 ec3e
00000130: ce78 a03e 18eb 4d3e c943 59bd 233f 3a3f
00000140: b84c ff3e 793a e7be 8259 9abd a128 4d3d
00000150: 27ac af3e 01d6 7b3e ab36 f33d bd8d a93e
00000160: f913 0d3f 5f63 cebd b63f 02bf 15ae c63e
00000170: 48a9 a33c c74a 02be 6837 a63e 0664 453e
00000180: 0ce5 ce3d 18b2 af3e b3b9 313e 78e6 f73d
0.99533206 0.2764299 -0.11136666 -0.058778882 -0.41104028 0.04317836 0.26303473 0.74735606
-0.020907752 -0.014137629 -0.010380089 -0.072570786 0.87032604 -0.30765995 0.15593857 0.12790534
0.004131823 0.29768407 0.6031474 0.7374467 0.83481705 -0.060280096 0.3928578 -1.4547246
0.07629014 0.011524808 0.5968727 0.2653104 -0.028137518 -0.17422083 0.0550517 -0.48058644
0.32173872 0.14258653 -0.116459556 -0.13013172 -0.47218084 -0.16073199 -0.09904575 -0.0975602
0.8669914 -0.029860212 -0.1373207 0.050591383 -0.31911543 0.43527 0.5958202 0.270191
0.40777615 -0.48271224 -0.020844273 -0.37618265 0.38652977 1.1199622 0.51433885 0.1612939
0.3837409 0.5745413 1.0316262 1.1131327 0.049636666 -0.33442676 0.4063522 0.55742437
-0.08204569 0.025791142 -0.020138806 0.33783773 -0.11547766 0.7135731 -0.019902302 -0.061428368
-0.14568217 0.081148826 0.10427038 0.46267068 0.31342167 0.20109212 -0.05304316 0.7275259
0.4986322 -0.451618 -0.075366035 0.050087575 0.3431103 0.24593355 0.118756615 0.3311595
0.551086 -0.10077547 -0.50878465 0.3880469 0.01997818 -0.12723838 0.32464147 0.19276437
0.10102281 0.34315562 0.17355995 0.12104505

out.weight f4 [4, 100]
00000000: bcc7 243f 2b4a 0f3f b079 3fbd 0cc7 9cbe
00000010: 33c7 723f 993c 123f 8b07 ccbe 179f cb3f
00000020: 1d57 933f 21ea 8bbe 1796 693f a4e2 8d3f
00000030: 4156 3e3f 40b6 7ebf d0a8 2dbf da4f 993d
00000040: c402 d83f a0d8 9a3f d34c a33f 14aa 233f
00000050: 9d5f 603f f014 aabd d529 59bf 0e4c bc3f
00000060: f98e 14bd a8bd 5fbc 749c 763f 8610 e3be
00000070: b0eb 373d 5f2d 2940 cc68 44bf 6ba4 cf3f
00000080: b70f de3e 89df 83bf 3cb9 853d 0e22 0f3d
00000090: 3a03 53bf f2d0 b43f e057 bebe 93f6 f33f
000000a0: 9898 bc3f 0ad1 98bd d298 83bf 5dab d63f
000000b0: 7f96 793f d5d3 05be 8e78 4d3f 5dff 3fbf
000000c0: bdce d73f 7712 cbbf 90a0 873c cf17 50bf
000000d0: 027d 10bf 3f79 853f d55a 953e eaf6 c53f
000000e0: e637 473f f149 5f3f 0b67 883f 91eb 923f
000000f0: 32b4 3abf d8a5 0540 ed9b a5bf 163a 173f
00000100: 60ed 683f a4c7 3f3d c424 55bc 64ca bbbf
00000110: 68a5 3a3e 19a4 42bf 34f6 dc3c d092 58bd
00000120: 9dbc c7bc 860c 2940 b8f0 29bf 88b8 a93f
00000130: b507 0a40 c235 13bf 6859 dd3f 8ad5 df3f
00000140: 691b 4cbf db09 033e f968 a0bf b261 a5bb
00000150: 551b 76be d691 69bf 2c08 92bf c036 43bf
00000160: 35fa 833f 2701 743b c76b 6bbf e4ef bebf
00000170: b14b 083d a0b5 ddbd 9d9f d43e edd1 c23f
00000180: 7dc7 c73f 270e e3be ec47 83bf d4b8 593f
00000190: c385 c23e fe61 5d3f 6018 8fbd 20d2 543f
000001a0: b7c5 a03f 83a9 9d3e c99d 79bf 3076 cf3f
000001b0: a231 963f ea1c c8be 7c1b da3f 4011 923f
000001c0: 57c7 b43f ea91 a2be b1cc b8be 7617 83bf
000001d0: 272a c03f ca42 b73f 6d5c ac3f cb24 e23e
000001e0: 1ba3 993f c697 15bd 9d91 26bf f566 723f
000001f0: 7e38 1bbe 14e9 a9bc f64b 1d3f 249d c3be
00000200: 8491 0b3d c0e4 1940 473d a0bf 2d55 af3c
00000210: c03d 99bc 03cc aebf 36b5 783d 93c9 cf3b
00000220: b415 5e3d b9ca ba3f 6454 51bf 6c8b 973f
00000230: df4c af3f 5771 b7bd 963b 4ebf 35cf f23f
00000240: 06fc e03f 77ad 1bbd 8f4e 5d3f 43d5 01bf
00000250: 3f90 463f 9cca d4bf c637 5b3d 3b80 abbe
00000260: 1dc6 8bbf 041d 803f b300 d73d 7386 e83f
00000270: e586 ee3e b22a 733f 9f0b 4d3f 0fd8 823f
00000280: 9482 5bbf bb3e 0e40 b465 8fbf e7ef 343f
00000290: d2c3 653f 3d8b debd c5f2 993d 9408 16c0
000002a0: 5ad3 c03d bd9c 30bf f268 043d c60e bbbc
000002b0: b6d2 5fbd a429 2a40 f832 7ebf e309 e13f
000002c0: 6302 0b40 2368 47bf bad3 3d3f 3823 c43f
000002d0: 2020 38bf a3c0 bc3f 5104 07bf 4061 7fbd
000002e0: b832 a33d 08a7 49bf 620b d1bf 0f0b 01bf
000002f0: 6c79 453f 9bbf 913d b9c9 27bf c4f7 9fbf
00000300: 75e7 bd3d 76a9 8c3d 75b3 e23e dfd6 ac3f
00000310: f1a0 c53f 6adc 833e 0b1b d3bf cac2 833f
00000320: 8a10 4e3f 219d 253f 537f 8ebd 562c 74bf
00000330: a941 983f 9a7f a9bf 26a7 a4bf 17b0 c03f
00000340: 2dd1 8f3f e2d0 84bf c484 ab3d 20ea 923f
00000350: 60fb 8f3f 28c3 e73f 24d7 25bf dd4c 1b3f
00000360: 8c9f af3f 45ae 993f f028 b13f e4ce 573f
00000370: c950 833f 40ca 1ebd 3887 36bf e8de e6bd
00000380: 3828 a9bd dedd 1f3d 2401 593f d3a8 b0be
00000390: aaf5 a13c 4b2f 3140 c7a3 7ebf c904 2940
000003a0: cee2 d13f 7e06 b6bf 9258 783d 9e60 013d
000003b0: 9ae1 03bd 3b5a b33f 7871 1ebf a401 b53f
000003c0: 8b24 a83f 8323 6c3c df71 b73f 214e 9f3f
000003d0: 3510 2b3f a3af 7bbf 3aa0 493f 246d 24bf
000003e0: d7b7 c73f dc2e bf3f 397a a03d 9677 1d3f
000003f0: fd5d 39bf 80d8 7e3f 8c47 ef3e b675 ca3f
0.6436727 0.55972546 -0.04674691 -0.3062061 0.94835204 0.57123715 -0.39849505 1.5907925
1.151096 -0.27327064 0.91244644 1.108479 0.74350363 -0.9949684 -0.6783571 0.074859336
1.6875844 1.2097359 1.275782 0.63931394 0.87645894 -0.08304775 -0.84829456 1.471071
-0.03626916 -0.013656057 0.9633248 -0.44348544 0.044902503 2.6433942 -0.7672241 1.6222051
0.43371364 -1.0302593 0.06529471 0.034944586 -0.824268 1.4126265 -0.37176418 1.9059623
1.4734068 -0.07461746 -1.0281012 1.6771046 0.97495264 -0.13069089 0.80262077 -0.7499903
1.6859967 -1.586501 0.016556054 -0.8128633 -0.56440747 1.0427626 0.29170862 1.5465977
0.7781967 0.872222 1.0656446 1.1478139 -0.72931206 2.0882473 -1.293821 0.5907301
0.90987206 0.04682125 -0.013009254 -1.467114 0.1822716 -0.76031643 0.026972868 -0.052874386
-0.02438193 2.6413894 -0.6638293 1.325944 2.1567204 -0.575039 1.729291 1.7487042
-0.79729325 0.12796728 -1.2532035 -0.0050470466 -0.24033864 -0.91238153 -1.1408744 -0.76255417
1.0310732 0.0037232132 -0.9196133 -1.4916959 0.03327531 -0.10825658 0.41528025 1.5220314
1.5607754 -0.44346735 -1.0256324 0.8504765 0.37992677 0.8647765 -0.06987071 0.83133125
1.2560338 0.3079339 -0.97506386 1.6207943 1.1733897 -0.3908456 1.7039638 1.1411514
1.4123334 -0.3175195 -0.36093667 -1.0241535 1.5012864 1.4317257 1.3465706 0.44168696
1.2002901 -0.036521696 -0.6506594 0.9468835 -0.15158269 -0.020741023 0.6144403 -0.38205826
0.03407432 2.4045868 -1.25187 0.02140292 -0.018706203 -1.365601 0.06071969 0.006341168
0.054219916 1.4593116 -0.81769395 1.1839423 1.3695334 -0.08957165 -0.8055967 1.8969485
1.7576911 -0.038007226 0.86447996 -0.50716037 0.7756385 -1.6624331 0.053519987 -0.3349627
-1.0919834 1.0008855 0.1049818 1.8166031 0.4658729 0.9498702 0.8009586 1.0222186
-0.8574612 2.2225788 -1.1202912 0.7067856 0.89751923 -0.10866401 0.07517008 -2.3442736
0.09415312 -0.68989164 0.032326646 -0.022834193 -0.05464431 2.6587915 -0.9929652 1.7581142
2.1720207 -0.77893275 0.74151194 1.5323248 -0.7192402 1.4746288 -0.5274096 -0.062348604
0.07968658 -0.78770494 -1.6331599 -0.504075 0.771384 0.07116624 -0.6554218 -1.2497487
0.092726626 0.068682596 0.4427754 1.3503073 1.543974 0.257541 -1.6492628 1.029382
0.80493987 0.64692885 -0.06957879 -0.9538015 1.1895038 -1.3242066 -1.286351 1.5053738
1.123571 -1.0376246 0.083749324 1.1477699 1.1248589 1.8106432 -0.64781404 0.6066416
1.3720565 1.2006308 1.3840618 0.84300065 1.0259029 -0.0387671 -0.7130008 -0.11272985
-0.08259624 0.03902995 0.84767365 -0.34503803 0.019770462 2.7685115 -0.99468654 2.640917
1.639734 -1.4220731 0.060631342 0.031586282 -0.032197572 1.4011911 -0.6189189 1.4141126
1.3136152 0.0144127635 1.4331626 1.2445718 0.66821605 -0.98314875 0.7876011 -0.64229035
1.5602978 1.4936175 0.07835812 0.615106 -0.7240904 0.995491 0.46734273 1.5817173

out.bias f4 [4]
00000000: 55dd b53c 78aa e5bd 6f76 113f e8f9 00be
0.022200266 -0.11214155 0.5682134 -0.12595332
