Lunar Lander V2 Hau Zheng Yi/models/model.pth (torch, 9503 bytes, 6 tensors)

fc1.weight f4 [36, 8]
00000000: fe41 9f3f bffc 98be cc12 b3be ae20 f2bd
00000010: 56f5 e53f ee74 6c40 3275 b03f cacb 253e
00000020: 50fc 1ebf 3328 8bbe 54c8 0dbf cef6 f8bd
00000030: 67e2 2dbf 674c 19bf 2ee2 123e 3814 04c0
00000040: 8e7a 163f cc74 073f 8bd9 c3bf 07f5 83bf
00000050: b22c 29c0 1766 ddbf 3654 01c0 b833 80bc
00000060: 03e7 63be 00ac 023f 7ab5 afbf a7ec e6bf
00000070: 3ca1 923e 93c2 413f f0ba 5d3e e8fa dabf
00000080: c059 e53e 6f89 2b3d 3b71 babf e16c 42bf
00000090: 78a1 8c3f 766a f23f eb59 a13e 5ba2 8a3e
000000a0: 1200 be3e a059 7e3f 0f72 1ebf 5090 3d3f
000000b0: 3bc9 cf3d 9cb6 e2bf ccdb 15bf 75f9 4e3f
000000c0: 97dd 133f c0ef 033f b6bc 9f3f 8753 8f3d
000000d0: 46b1 2dc0 ec2f 07c0 9c84 8cbf 8721 88bf
000000e0: 2cf5 2a40 57e5 773e 6304 da3f 4df2 39be
000000f0: 25ad ddbf 5936 28bf 4a90 ebbc c134 563e
00000100: 1292 44bf 404e 4b3e 6e8f 0cc0 b380 80bd
00000110: b70d 7fbe e46b c7bc 32ba b43f 3d16 a23f
00000120: b01f 73bf 39bc abbe 6863 efbe ffe1 9bbf
00000130: 57f8 3b40 e537 bb3f 0c3f 3c3f b9f0 0c3f
00000140: 2946 9b3e bda0 fdbf 4c04 bfbe 8b5e abbf
00000150: 8fa8 ec3e 9d2e 37bf d934 6f3f 31e9 163e
00000160: 0013 053d 0e1f b0be da49 0840 451b 1940
00000170: 1088 bbbe 86e7 06be 8eb2 77bf 7803 33bf
00000180: b737 953f d652 a43e 53f9 1e3f 0070 343f
00000190: 59ef f4bf 4bdb 5d3f f9bb 4abf c693 94bf
000001a0: 1eae aa3e 2af6 373d d46d a43e a8df 02c0
000001b0: 6427 24be 45d0 3ec0 4003 403f ded5 2b3f
000001c0: 7c0e d9be 0e8b 533f f08c 0bbe 53b7 7dbf
000001d0: 86e7 76bf 944e 6dbf 7604 a6bf 10ab bf3f
000001e0: 7877 253c ee35 8abe 7860 403f c86c b3bf
000001f0: daec 463f 3232 a03d 9b49 d23e 585e 9bbf
00000200: 678f 5bbe e00f 63bf f72d 1ec0 2fd2 403f
00000210: 5c11 b03c f079 25bf f661 ddbe 3d9e cb3f
00000220: ba0b 123f d2be c93f 3ac0 47be e976 fd3f
00000230: e093 073f 763f 153f 9709 00be bb89 d7be
00000240: 0feb 703d 5feb ddbf ed8b a9bf efc5 29c0
00000250: b709 d93f 357d d73e 5e24 28bd 6b97 2cbe
00000260: 22c8 f93f b951 1c3f 9348 cbbe c938 063f
00000270: 7a95 2ec0 7f62 8e3e fd1d 5c3d a55e d83e
00000280: 9ce0 38c0 6052 e73e 2d9b 543f 18a5 aabf
00000290: 7451 b9be 4a54 d1be 6bef f4be 16bf 733d
000002a0: 6eb9 f73e b376 9c3f 5130 3f3e cba7 e03f
000002b0: 8216 24bd 7dfd bf3f f8bb 923e 09ee abbe
000002c0: e9de c43f 2363 d2be 1899 b33f 5c74 4cbf
000002d0: 8b9f 8cbf c95a 58c0 6229 a4bf a215 91bd
000002e0: 70da ae3f 6a32 c0be dc75 a03f 4cc5 a2bf
000002f0: 4200 8abf 74ee 43be d776 38bf 5645 c63e
00000300: b35a b0bf 5ef4 973c dda2 7bc0 519e 363e
00000310: 380e 173e 0b16 b23f 302f 553f d52d ad3e
00000320: a429 a13f 918a 62c0 41ac 36be 3b03 2dc0
00000330: fa94 203f b18d 0b3f 288c 643e 855a 87be
00000340: 15f5 673f 8ff1 9ebe 91c2 2140 efe6 07c0
00000350: 69ca a3bf f7c0 e2be e5e9 ca3f a9f3 3dc0
00000360: 8705 a1bf 011f 0c40 40a8 81be ee63 5440
00000370: 78c3 5640 925b d63f 1265 513f 9106 013f
00000380: fcec 403f 7f9e cabf 31e9 0c40 06c7 0ac0
00000390: 652b f1be 66b8 453c 430a 37bf 5a62 bf3f
000003a0: 734f b33f e3ef 18bf 81c9 afbe 76b4 96be
000003b0: e9e1 82bf a826 0640 4f99 b53f 7f09 ff3e
000003c0: 66ef a33d c946 10ba 8188 17c0 53ae 5f40
000003d0: 6f21 463f 0dd5 2cbe 530c 883f 1746 1e3e
000003e0: 972d 1040 3cfa 823f 56ed 7d3e 7d00 15bf
000003f0: 1f74 28c0 db5a e5bf cccd f2be 8599 8b3f
1.2442014 -0.2988033 -0.34975278 -0.118226394 1.7965496 3.6946368 1.3785765 0.1619102
-0.6210375 -0.27179107 -0.553838 -0.12156449 -0.6792359 -0.59882206 0.14344093 -2.063734
0.58780754 0.5291259 -1.5300764 -1.0309151 -2.643353 -1.729678 -2.0207648 -0.015649661
-0.22256093 0.510437 -1.3727257 -1.804097 0.28638637 0.7568752 0.21653342 -1.710782
0.44795036 0.041879114 -1.4565805 -0.75947386 1.0986776 1.8938739 0.31513914 0.27076992
0.3710943 0.99355507 -0.6189279 0.7404833 0.101458035 -1.7711978 -0.5853851 0.8084939
0.57759994 0.51537704 1.2479465 0.069983535 -2.713945 -2.1123 -1.0977969 -1.0635232
2.671214 0.2420858 1.7032589 -0.18158837 -1.7318465 -0.6570793 -0.028755326 0.20918562
-0.76785386 0.19854069 -2.1962543 -0.062745474 -0.24907576 -0.024343438 1.4119322 1.2663037
-0.94970226 -0.3354204 -0.46755528 -1.2178344 2.9370325 1.4626433 0.735337 0.55054814
0.30326965 -1.9814678 -0.37307966 -1.3388227 0.4622235 -0.715555 0.93440014 0.14737393
0.032488823 -0.34398693 2.1295075 2.3922894 -0.36627245 -0.13174257 -0.9675683 -0.6992717
1.1657628 0.3209445 0.6209919 0.704834 -1.9135543 0.8666274 -0.79193074 -1.1607597
0.33335966 0.044912495 0.32115042 -2.044901 -0.16030651 -2.9814618 0.7500496 0.6712321
-0.42393863 0.82634056 -0.13627982 -0.99107856 -0.96447027 -0.92698026 -1.2970111 1.4974079
0.010099284 -0.2699427 0.751472 -1.4017572 0.77705157 0.07822074 0.41071782 -1.2138166
-0.21441422 -0.886961 -2.4715555 0.75320715 0.021492653 -0.64639187 -0.432388 1.5907665
0.57049143 1.5761359 -0.19506922 1.9801913 0.52960014 0.5829996 -0.12503658 -0.42097268
0.05881792 -1.7337455 -1.3245827 -2.652706 1.695609 0.42087713 -0.041050307 -0.16854636
1.9514201 0.610622 -0.39703807 0.524304 -2.7278733 0.27809522 0.053739537 0.42259708
-2.888709 0.45180035 0.8304928 -1.3331633 -0.36194956 -0.4088462 -0.4783891 0.059508406
0.4838366 1.2223724 0.18670775 1.7551206 -0.040060528 1.4999233 0.28659034 -0.33580044
1.5380527 -0.4109126 1.4031096 -0.7986505 -1.0986189 -3.380541 -1.2825129 -0.07084204
1.3660412 -0.37538463 1.2535968 -1.271646 -1.0781329 -0.19133931 -0.72056335 0.38724774
-1.3777679 0.01854914 -3.9318154 0.1783383 0.14751518 1.3912977 0.8327513 0.3382403
1.2590833 -3.5397074 -0.17839147 -2.7033222 0.6272732 0.5451308 0.2231909 -0.26436248
0.9060834 -0.3104367 2.5275004 -2.12347 -1.2796146 -0.44287845 1.5852629 -2.9679968
-1.2579812 2.1893923 -0.25323677 3.3185992 3.3556805 1.6746695 0.81794846 0.50400645
0.7536161 -1.5829619 2.2017329 -2.1683974 -0.4710342 0.01206789 -0.71500033 1.495189
1.4008621 -0.5974104 -0.34333423 -0.29434556 -1.0225192 2.0961094 1.4187411 0.49811932
0.08004646 -0.0005503712 -2.3677065 3.495015 0.77394766 -0.16878147 1.0628761 0.15456425
2.2527826 1.0232615 0.24797568 -0.5820387 -2.6320875 -1.7918352 -0.47422636 1.0906225

fc1.bias f4 [36]
00000000: 904b 6abf d592 7a3f 2547 023f 5839 293f
00000010: b0d1 82be 6400 d33f 3c75 07bf f43e 2dbe
00000020: 52ec 0d3f ebe7 7ebe ee7d ad3f 86dd 0f3e
00000030: b9ff 7dbf d738 04bf 424a df3e 184a 9e3f
00000040: a968 06bf cc7e 84be f15b 1ebe 33f8 923f
00000050: b7da 47be a191 dd3f c633 2abf bf4a 3ebd
00000060: 0621 f23e 5cad e33f f006 613b 2af3 f53e
00000070: e9e1 693f 1004 e9bc ee68 86bd 43e1 84bf
00000080: 700c 473f 1246 37be d6af 0b3f 2365 d23f
-0.9152155 0.978803 0.5088981 0.66103125 -0.25550604 1.6484494 -0.5291326 -0.16918546
0.5543872 -0.24893157 1.3554056 0.14049348 -0.99218327 -0.5164923 0.43611342 1.2366362
-0.5250345 -0.25877988 -0.1546476 1.1481994 -0.19517027 1.7310067 -0.6648525 -0.046458002
0.4729082 1.778728 0.003433641 0.48037082 0.91360337 -0.02844432 -0.065629825 -1.0381244
0.77753353 -0.17897823 0.5456518 1.6437114

fc2.weight f4 [36, 36]
00000000: cbf5 dabd b804 463f a092 5c3f 856a 75bf
00000010: 3a27 19bf dd30 ecbf 8708 8d3e 8f1e dc3f
00000020: 8d03 453f d6d9 b9bd 3abe 4b3f 481a 1dbf
00000030: 3c16 69bd 589b 453e 43fa 01c0 0e1d 9d3f
00000040: c177 5a3f 8366 38be 9b57 953f 370e d03f
00000050: b76a b93f 02a1 b9be 9009 49bf 645e db3f
00000060: 1cec 973e 9449 81bf 29af 1abf 30af 143f
00000070: 7131 5bbe 441a 213f 8944 59bf f0ae 873f
00000080: cce0 9c3f 8cc1 86bf 3297 41bf 5d40 ce3f
00000090: a0ec 3abb 2796 993f 19eb 973d 00c7 a93e
000000a0: 48e9 b7bf 331a a6bf 3529 34be 2d17 ac3f
000000b0: f821 a13f 0956 603f c8de 0a3f 9df7 e8bf
000000c0: 4acd 843f 6ca9 debd 3357 bcbf e657 11be
000000d0: 4add c23f e420 ae3f baa3 0d40 83aa b83e
000000e0: 5ba0 e0bd 5ce1 ffbd 89b7 293c 618c 5e3f
000000f0: cb97 603f ff46 5fbf 0f9c 4bbf be2a 423f
00000100: d5a5 59bf 66a7 073c 4af4 67be cc08 d03f
00000110: eb53 523f 5846 86bf 8838 f33f 3b46 d63f
00000120: 627e 13be 5255 523f 6a23 5f3e 9974 84bb
00000130: 8890 e1bf 8efb c4bf efc5 6e3f 064b 893f
00000140: a040 a43f a96b 2a3f c241 8d3f 7f27 85be
00000150: b4a8 423f 044f ce3e 1390 d9bf 49cb 423e
00000160: 4ee2 8d3f f31e 1f3f d09f d03f 176e a6be
00000170: 682e 183f 4947 cfbe d8cb 803e 916c d03f
00000180: c0c2 173f 18f0 51bf 40c4 1dbf d377 403f
00000190: 37d3 4bbe b7b0 a53d 62c6 6c3e b3ab 913f
000001a0: 6317 103f f4cb 86bf a299 c03f 8a18 0240
000001b0: 6b42 f53e a790 7ebf f119 933f 31f2 243f
000001c0: a809 6a3f 9dfd 683f b20d edbf 51cc c7bf
000001d0: ee1b 843e a0f1 4ebf 25cc 223f 71f6 be3f
000001e0: 3d32 a83e 92ce 8d3f 9fb8 8a3f 6961 50be
000001f0: 0a09 9c3f a8d5 8cbc 9188 893d b7e2 0f3e
00000200: 6fa0 dfbf 7f83 2b3f 2707 1ebf b025 80bf
00000210: f78f 5cbe 147c 813e a892 993f f4a6 cb3e
00000220: d336 b1bf 6760 4d3f b64b 8c3f 62c2 01c0
00000230: b4ca b7bd 2c94 0b3e d85a c1bd ba44 2f3f
00000240: 7b45 99bf d06e 863f f4ec e73d ca7b a5bf
00000250: 4e25 4fc0 3933 e0bf 5886 143f e862 e63f
00000260: cfcf 523f 7136 8dbf 2b94 0440 3be3 143e
00000270: d45b 97bf e3fb 8f3f e3d4 96bf 6cc6 a0bd
00000280: 049e 943f 1242 abbe 002c 7a40 e7dd b03e
00000290: ebc5 3e3f 0777 6abf 6d6b 733f 29f5 d73f
000002a0: 3690 bf3e 1637 8fbf b6a6 6cbf d99d 20c0
000002b0: f664 36be 45ca 083d ecf1 b6bf ebe8 3240
000002c0: 60cf d8bd 7242 923e 173c 283f 35be 8d3f
000002d0: c0b9 7d3d 811c 853f 13d2 99bf 7db9 b63f
000002e0: 0bd4 ccbe b57f 45bf 0754 993e f70b be3e
000002f0: 75eb 2a3f 5a33 8abe 37b1 183f 34ca ad3e
00000300: 0fce 623f 9a0c cbbf 55a4 0dc0 6a3e bf3f
00000310: 016f edbf 029a 1e40 4789 7d3f 0669 a33f
00000320: ce44 8dbe 8900 a43f 7574 06c0 8dc9 91bf
00000330: e8dd 813f 9028 14c0 ce38 fcbe e725 9c3f
00000340: 28ef 5cbf 7763 2e3f fd6a 013f 8e62 07c0
00000350: 9f61 593f 47b9 94c0 72ba 5c3f f4ec 223f
00000360: 5353 00bf 3085 a13e 4c6f 22bf e422 ca3e
00000370: 2f51 0cbe c3b3 9fbf e373 7f3f 4079 03bf
00000380: fe17 053f f608 773f 0f40 9e3f a95e 0640
00000390: 0a58 833f cebe 723f 1b9c 123b 98df d03f
000003a0: 01b3 c23d de98 64bf e5c1 65be 6d1a 5bc0
000003b0: 3692 0fbf f604 30bf d607 ed3f 04f0 c63f
000003c0: 2e10 3c3f e5e2 983f 98ee 3f3f 9c6b fc3f
000003d0: 7d85 de3e fea8 b1bf ab47 94bd fcd1 a93f
000003e0: 14e3 26c0 7272 7a3d 7579 4ebe 8002 f93f
000003f0: f3ef a2ba 768c 293f 551a e73e df03 0dbd
-0.106914125 0.7735095 0.8616123 -0.9586566 -0.5982548 -1.8452412 0.27545568 1.7196826
0.76958543 -0.09074752 0.7958714 -0.61368227 -0.05690597 0.1929754 -2.0308998 1.2274492
0.8533898 -0.18007855 1.166736 1.6254338 1.4485692 -0.36255652 -0.78530216 1.7138181
0.29672325 -1.0100579 -0.60423523 0.58079815 -0.21405579 0.62930703 -0.848702 1.0600262
1.2256103 -1.0527816 -0.7562133 1.6113392 -0.0028522387 1.1998948 0.07417888 0.33159637
-1.4368067 -1.2976745 -0.17593844 1.3444573 1.2588491 0.8763128 0.5424619 -1.8200566
1.0375149 -0.108721584 -1.4714111 -0.14193687 1.5223782 1.3603787 2.213118 0.3606759
-0.109680854 -0.12494156 0.0103587 0.8693295 0.8773162 -0.87217706 -0.79535 0.7584647
-0.85018665 0.008279657 -0.22651783 1.6252685 0.821593 -1.0490217 1.9001627 1.6740183
-0.1440368 0.8216144 0.21790853 -0.00404222 -1.7622232 -1.5389268 0.9327077 1.072602
1.2832222 0.66570526 1.1035693 -0.26006696 0.7603867 0.4029466 -1.6997093 0.1902286
1.1084688 0.621566 1.6298771 -0.32505867 0.5944581 -0.40484074 0.2515552 1.6283132
0.5928154 -0.8200698 -0.6162758 0.7518284 -0.19904791 0.08090346 0.23122552 1.1380523
0.56285685 -1.0530992 1.5046885 2.0327477 0.47902235 -0.9943947 1.1492292 0.64432055
0.91420984 0.91011983 -1.8519804 -1.5609227 0.2580256 -0.8083744 0.6359275 1.4918958
0.3285083 1.1078665 1.0837592 -0.20349659 1.2190259 -0.017191723 0.06715501 0.14051329
-1.7470835 0.6699752 -0.61729664 -1.0011501 -0.21539293 0.25289977 1.1997881 0.39775813
-1.3844856 0.80225223 1.0960605 -2.0274892 -0.089742094 0.13630742 -0.09441155 0.68464243
-1.1974329 1.0502567 0.11324492 -1.2928402 -3.236652 -1.7515632 0.5801749 1.7998934
0.8234834 -1.1032239 2.0715435 0.14539807 -1.1824899 1.1248745 -1.1783718 -0.07850346
1.1610723 -0.33448845 3.9089355 0.34544298 0.7452075 -0.9158787 0.95085794 1.6871692
0.37414712 -1.1188686 -0.9244188 -2.5096343 -0.17811951 0.033396024 -1.4292579 2.7954662
-0.10586429 0.2856632 0.6571669 1.1073672 0.061944723 1.0399324 -1.2017235 1.4275357
-0.40005526 -0.7714799 0.2994692 0.37118503 0.6676553 -0.26992303 0.5964541 0.3394333
0.8859567 -1.5863221 -2.213155 1.4940922 -1.8549501 2.47815 0.99037594 1.2766426
-0.27591556 1.2812663 -2.100858 -1.1389633 1.0145845 -2.3149757 -0.4926209 1.2199067
-0.86302423 0.6812052 0.50553876 -2.1153903 0.8491458 -4.647617 0.8622199 0.6364281
-0.5012714 0.31546926 -0.63451076 0.39479744 -0.13702844 -1.2476734 0.99786204 -0.5135689
0.51989734 0.9649805 1.2363299 2.0995276 1.0261242 0.94822395 0.0022370878 1.6318235
0.095067985 -0.89295757 -0.22437246 -3.423488 -0.56082475 -0.6875757 1.8518016 1.5541997
0.7346219 1.1944243 0.7497344 1.972034 0.43461218 -1.3879697 -0.07240232 1.3267207
-2.6076097 0.0611443 -0.2016352 1.9453888 -0.001243113 0.6622995 0.45137277 -0.03442752

fc2.bias f4 [36]
00000000: 3f91 033f 4f2d 073f 2d5a d83e 7be1 993f
00000010: a289 c0be 4263 4c3f a031 263f 6488 363d
00000020: 99d2 28bd 80c8 fcbd e252 e53e bb27 523f
00000030: f2db 9b3e 270f d33f f68f a93e 8e38 3f3f
00000040: ccd3 a23f cc38 65be cd33 983f de53 02bf
00000050: 4139 943f bc65 7fbe 0e28 09be 0c89 2cbe
00000060: 5d3a cb3e e254 923d ab79 ec3e 14fb 583f
00000070: 03bd 383f 3b02 13bf 47eb ef3e 0be8 4d3f
00000080: 6805 4c3f 4654 19bf 50c5 1340 6e94 c9bd
0.513935 0.5280351 0.422563 1.2021936 -0.37605006 0.79838955 0.6491947 0.044563666
-0.041216467 -0.1234293 0.44789797 0.82091874 0.30441242 1.6488999 0.33117646 0.7469567
1.2720885 -0.22384948 1.1890808 -0.5090922 1.1579973 -0.24941152 -0.13394186 -0.16849154
0.39692965 0.07145096 0.46186575 0.84758115 0.7216341 -0.5742528 0.4685919 0.80432194
0.7969575 -0.59894216 2.308918 -0.09842764

out.weight f4 [4, 36]
00000000: cd42 92bf 6bd5 68bf d7d1 3fbf 4db0 933f
00000010: 90fc 12c0 8875 28c0 1d5c 4740 f7f3 68bf
00000020: af76 973d 4115 38bc f51d 923f a217 3cbf
00000030: 332e 05bf 4bd7 2f40 682b ca3f f09d db3f
00000040: 96c2 2c40 1464 a9bd 1846 3940 67ea 14c0
00000050: 505f f7bf f646 99bd f107 28bf 6f46 61bf
00000060: ed86 7dbf 0305 b33d bbd0 54bf 2c84 fabf
00000070: 6364 7240 d08e d2bf 7314 c43f d946 8340
00000080: c07c 4bbf cc50 e1bf 8a67 6340 200f cfbd
00000090: c7b3 a9bf 5b63 7ebf 64d2 d9be 82b2 0a3f
000000a0: bd04 febf aa48 38c0 febf 4a40 aca7 43bf
000000b0: 3d6b 93bd b82c 1f3e 3567 f63e f2c1 1ac0
000000c0: 9940 44bf b76a 4d40 c950 e73f d4ae 2240
000000d0: 275a 3540 a6cc cdbd a0e3 2c40 d824 05c0
000000e0: 98b9 b3bf a82b 323e 32bd 4ebf 4cbd 7abf
000000f0: 38e6 34bf 4d18 01be c083 08bf 1706 cbbf
00000100: e80c 6940 4e5d 07c0 19af d93f 78f7 7940
00000110: 692b 94bf 7286 f0bf 95a3 5540 e878 fabc
00000120: 81c6 ccbe 3eb1 b4be df04 3cbf 759a ca3b
00000130: 7fb2 debf 2ab2 26c0 5234 4640 3543 6dbf
00000140: 8ad9 b2bc 967e 363d 4095 2740 b663 80c0
00000150: 7e5b 74bf fa8b 4c40 65ab f23f 4130 0240
00000160: c721 0e40 004d 303d 4f73 3540 3343 06c0
00000170: e2dd 01c0 edb7 be3d d6d5 d6bf 1a8e 16bf
00000180: ec3a 60bf db79 353d fa5e 3ebf d583 a5bf
00000190: 3988 8240 7fae 20c0 6a22 d03f f1bb 7c40
000001a0: bf2f babf ce1c a0bf 5599 4a40 48ce c4bd
000001b0: 1a97 cfbf dd44 2ebf 9300 89bf faad a53f
000001c0: 5203 02c0 7f99 0ec0 b728 4a40 50e3 6cbf
000001d0: 34f5 e93d 2f8b 0a3d 161e fe3f 8100 debf
000001e0: 2c6e c8be b828 1140 86e5 d73f 2c60 503f
000001f0: 9cde 2640 62f8 9b3d 7808 3f40 9502 2ac0
00000200: 4c34 f2bf 806a b13d ef24 eebe b7d6 91bf
00000210: 3ced 79bf aa73 273d b2e8 6fbf 15dc cabf
00000220: 263a 7640 2de1 eabf 6b0d d23f da1b 7a40
00000230: db23 5ebf c8c7 a1bf 4cec 5a40 8e50 87bd
-1.1426636 -0.9095065 -0.74929565 1.1538178 -2.2966652 -2.6321735 3.1149971 -0.9099726
0.07395684 -0.011235536 1.1415392 -0.7347356 -0.5202362 2.7475154 1.5794497 1.7157574
2.6993766 -0.082710415 2.8949032 -2.3268068 -1.9325962 -0.07484238 -0.6563712 -0.879981
-0.99034005 0.0874119 -0.83131 -1.9571586 3.787377 -1.6449833 1.5318741 4.1023984
-0.7948723 -1.7602782 3.5531945 -0.10110307 -1.3257989 -0.99370354 -0.42543328 0.5417863
-1.9845196 -2.879435 3.1679683 -0.7642772 -0.071981885 0.15544403 0.48125616 -2.4180875
-0.7666107 3.2096384 1.8071529 2.5419207 2.8336275 -0.10048799 2.7013931 -2.0803738
-1.4041014 0.17399466 -0.8075744 -0.97945094 -0.70663786 -0.12606926 -0.53326035 -1.5861233
3.6414127 -2.1150699 1.700656 3.9057293 -1.1575748 -1.879103 3.3381093 -0.03057523
-0.39995196 -0.35291475 -0.7344493 0.0061829635 -1.7398223 -2.6046243 3.0969434 -0.92680675
-0.021832246 0.044554316 2.6184845 -4.0121717 -0.95452106 3.1960435 1.8958555 2.0341952
2.2208116 0.043042183 2.8351629 -2.0978515 -2.0291677 0.09312425 -1.6784008 -0.5881058
-0.8758991 0.044305664 -0.7436367 -1.2930857 4.0791287 -2.5106504 1.6260502 3.948971
-1.4545821 -1.250879 3.1656086 -0.096096575 -1.6217988 -0.6807383 -1.07033 1.2943718
-2.0314527 -2.2281187 3.158735 -0.9253435 0.11423722 0.033824142 1.9852931 -1.7343904
-0.39146554 2.2681103 1.686692 0.81396747 2.607337 0.07615735 2.984892 -2.6564076
-1.892221 0.086628914 -0.46512553 -1.1393651 -0.97627616 0.04088179 -0.9371444 -1.5848414
3.847299 -1.8349968 1.6410345 3.90795 -0.8677346 -1.2639093 3.4206724 -0.066071615

out.bias f4 [4]
00000000: 6a9d f73e 6ec1 d73c 827b 02bf 3aff ba3e
0.48362285 0.026337352 -0.5096971 0.36522847
