Lunar Lander V2 GitHub/checkpoint.pth (torch, 22303 bytes, 6 tensors)

fc1.weight f4 [64, 8]
00000000: 6c1c dbbe 0a55 9b3e 2492 583e e3a2 a0be
00000010: 87f9 c83e 9117 233e 4078 243e 3e8e 193f
00000020: cd2e 36be 45b3 9abe da18 81be dc81 33bf
00000030: c48d 69bf db21 23bf f00c a3be 9d2a 803e
00000040: 30b8 933e 0185 8a3e e32a 403e 06a9 8cbd
00000050: 555d 4c3f 10dc 4a3f 2158 b93d bd0e 9f3e
00000060: 6fc2 ae3e e743 89c0 3fdd fbbd 3a26 3cbf
00000070: 6393 39bf c4f3 0bbf d2e7 3e3e d11c ff3d
00000080: febc a1be 253f 49bf c340 84bf d1b6 96bf
00000090: 6cbb 50be cf6c a43e 5525 863e a261 773d
000000a0: 878c 18bf d191 05be 8c3f 94bd 4a6f 0cbf
000000b0: efa0 e1be 1c01 99bd 2707 b73e 2e48 a93e
000000c0: b1b6 80be a9f0 c8bd a7ec a43e af51 85be
000000d0: f592 363d 3a8e e93e 4581 2bbd 609f 69bf
000000e0: b738 93be 3117 7ebf dcef 88be dec8 afbf
000000f0: 6924 cc3e 376b 453e 6333 193e 713e 9fbd
00000100: d543 94bd ecf0 77bd be0f bd3e 6f3a 86be
00000110: 0b85 09bf 4909 6f3f c010 01be 6056 8dbf
00000120: 1265 213f d011 a23e 144f adbc 2cc0 4c3f
00000130: dae3 dbbe 5754 22be 38e5 50be 7afb 0bbf
00000140: fbbc 19be d189 153f ab39 e03e 35bb 9ebf
00000150: 062b 0f3f d290 113e 0239 383e eb23 4dbd
00000160: ecdf cbbe da0f 0b3e 4dbe b13e 3503 bdbd
00000170: ae79 193f f5a3 e13e 4341 c4be 3f1d 57be
00000180: d7c7 6f3e 4d65 803e b0b3 4a3f 1439 d1bd
00000190: e64d 92be 4c78 fc3e 77e1 443e f9b5 e8be
000001a0: b029 40bf 0f7b 273d 7e99 08bc c0da 39bf
000001b0: 1efa ac3e 0226 8e3d b018 b83e 8c68 cf3e
000001c0: 32f8 0a3e ace7 103f 74e2 4e3f 38f2 91bf
000001d0: 3348 5d3e 45a8 3d3e 9255 b13e 30ac 993e
000001e0: adaa 313f ebf1 81be 8c79 80be 6309 dc3d
000001f0: 5c24 813e 40a1 d5be 37fd e0be 4444 703e
00000200: 6855 73be 3e76 33be 7c2e 3fbf 0409 35bf
00000210: 5ff3 d8be 5681 a43c 9fd7 763e d7a8 df3d
00000220: b83f 4ebe d42f 75be 1e1f 15bd 1100 ec3f
00000230: 2375 5a3f bc4a 8b3e c3f3 243f 36d0 aabd
00000240: f089 8cbc 4010 f0bd d151 8ebe 58b2 b4be
00000250: c0dd 40bf e660 28be 36a5 39bf b799 a63a
00000260: c6ab 2d3e 4b2f 953e fabe 9e3e 9f17 57bf
00000270: c41d 313f 9b04 08bf f2db 923e c52e 8f3d
00000280: 15a7 4cbf 66ca 45bf 4384 6cbf bd40 37bf
00000290: 2a1d 84be 3d1c 9e3e d4fd 2d3e 3818 16bf
000002a0: ec5c 0fbf 0e9f 5cbf 19c1 793e 683f aebf
000002b0: da68 093f 37f8 853d b660 653e 115a 943d
000002c0: 5212 05bd 701b 2fbe 75ed 463e 146b 0fbf
000002d0: 4452 e9be 7d0a 8abd d7fb f03e c578 503e
000002e0: 0afd af3f 86ce 64bf bfb3 de3e 0872 223e
000002f0: d1e1 2bbf 7c12 20be a6c3 783e 4e1b e53d
00000300: 3315 47bf 5b75 7fbd c275 f5be f7e0 5cbf
00000310: 6866 813d 68aa d63d 298a 2a3e 6b37 833e
00000320: a94c 03be 45c4 a03e b99d 8c3d 2135 383b
00000330: 256e 0d3f ea8d 2e3e 7307 7b3e 8203 0c3f
00000340: b5fd b8be 1b3c 62bf 062a 3b3d 4ddc 86bf
00000350: 947d f1be 4dcb 5dbd 73ca 8d3e 3e8a 33be
00000360: 2b21 033f 1e8c 0bbf bdbf b63f f9bf 64bf
00000370: ec9b 47be 2a81 3cbd 45d4 dd3d 0a78 c9be
00000380: ee0d 42be 00b1 433f 054c debf 9940 28c0
00000390: e44c 04bf f2d7 033c b0ca a6be 4ddc 46be
000003a0: 6e16 213a f624 153d bc51 0b3d b9bb 873c
000003b0: 4765 17bf 40a9 c2be 10da 85bb 5148 083f
000003c0: aba9 71be 0bf9 5b3e a4dc f43d e8fe b4be
000003d0: 2a29 45bf 2b4b 65bf 7a45 233e 6ee1 fd3d
000003e0: 668c 26be 4560 20bf 6d55 fbbe c7b4 f2be
000003f0: c49f dc3e b6dd 0b3e f34d a8bd e72e 52be
-0.42795122 0.30338317 0.21149498 -0.31374273 0.39252874 0.15926959 0.16061497 0.5998267
-0.1779129 -0.30214897 -0.25214273 -0.70120025 -0.9123194 -0.63723534 -0.31845808 0.2503251
0.2885146 0.270546 0.1876636 -0.06868176 0.79829913 0.7924204 0.090500124 0.31065932
0.34132716 -4.289539 -0.12298059 -0.7349583 -0.7249052 -0.5466883 0.1864312 0.12456668
-0.31589502 -0.78611976 -1.0332264 -1.1774541 -0.20383996 0.32114264 0.26200357 0.060395844
-0.5958943 -0.13043906 -0.07238683 -0.54857314 -0.44068095 -0.07470915 0.35747644 0.3306288
-0.25139382 -0.09811527 0.322118 -0.26038882 0.044573743 0.45616323 -0.041871328 -0.9125881
-0.28754207 -0.9925414 -0.26745498 -1.3733175 0.3987153 0.1927918 0.14961009 -0.07775582
-0.072395004 -0.060532495 0.36926073 -0.26216456 -0.5371863 0.93373543 -0.12604046 -1.1041985
0.63044846 0.31654215 -0.021155871 0.7998073 -0.42947274 -0.15852486 -0.2039994 -0.546806
-0.15013497 0.58413416 0.43793997 -1.2400881 0.55925024 0.14215401 0.17990497 -0.050083082
-0.39819276 0.13580266 0.347155 -0.09229127 0.59951293 0.44070402 -0.3833104 -0.2100725
0.23416077 0.25077286 0.7918043 -0.10215965 -0.28575057 0.4931053 0.19226633 -0.45451334
-0.7506361 0.040888842 -0.008337377 -0.7259941 0.33784574 0.06940843 0.35956335 0.4050945
0.13571241 0.56603503 0.8081429 -1.1402044 0.21609573 0.18521221 0.34635597 0.3001418
0.69401056 -0.2537988 -0.25092733 0.10743978 0.25223053 -0.41724586 -0.43943188 0.23463541
-0.23763049 -0.17525575 -0.74680305 -0.7071688 -0.42373177 0.020081203 0.2410569 0.109208755
-0.20141494 -0.23944026 -0.03640663 1.843752 0.85334986 0.27205455 0.6443445 -0.08340494
-0.017155617 -0.117218494 -0.27796796 -0.35292315 -0.75338364 -0.16443214 -0.72517717 0.0012710606
0.16960058 0.29137644 0.3100508 -0.8402042 0.69186044 -0.5313203 0.2868343 0.069913425
-0.79942447 -0.7726196 -0.92389315 -0.7158316 -0.258035 0.3088092 0.16991359 -0.58630705
-0.5600116 -0.861802 0.24390067 -1.36131 0.53675616 0.06541484 0.22400174 0.07243741
-0.032488175 -0.1710031 0.1942652 -0.56022763 -0.45570576 -0.06740282 0.4706714 0.2035857
1.3749096 -0.8937763 0.4349651 0.15863812 -0.67141443 -0.15632051 0.24293384 0.111868486
-0.7776672 -0.06236778 -0.47941405 -0.8628077 0.063183606 0.10481721 0.16654266 0.25628218
-0.12822212 0.31399742 0.06866021 0.002810784 0.5524619 0.17046323 0.2451456 0.5469285
-0.36131063 -0.88372964 0.045694374 -1.053598 -0.4716612 -0.05414896 0.2769352 -0.17533204
0.51222485 -0.54510677 1.4277264 -0.8935543 -0.19493073 -0.046021618 0.10831503 -0.39349395
-0.18950626 0.76441956 -1.7366949 -2.6289427 -0.51679826 0.008047091 -0.32576513 -0.19419976
0.0006145005 0.0364122 0.034013495 0.016569005 -0.5913891 -0.38019753 -0.004084833 0.53235346
-0.2359988 0.21481721 0.11956146 -0.35350728 -0.77015936 -0.8956782 0.15944472 0.12396513
-0.16264495 -0.62646896 -0.49088612 -0.47403547 0.43090641 0.13658795 -0.08217993 -0.20525704

fc1.bias f4 [64]
00000000: 7c6d 09bf b042 a5be dc6a babe 46b8 123f
00000010: 6ec5 b9be f3aa b9be 2e88 863e b9c3 aebe
00000020: ee0b 533e 0c37 9c3e 37c3 6f3f c2af 01bf
00000030: 994d 29bf fbf5 f5be 19a3 513f d726 19bf
00000040: b017 30be 91d8 06bf 1615 ba3e f036 5f3f
00000050: 5387 cbbe 7c02 bdbe 14a2 b8be 2f34 8dbe
00000060: 74be b7be 2105 13bf a0dc b8be 8169 a5be
00000070: 9c42 483f 624b c1be be75 95be 2980 0bbf
00000080: 62d7 b0be 3967 033f da24 fbbc 51e1 bdbd
00000090: 3863 603e 66f9 82be 97be abbe 3418 b3be
000000a0: 7124 9d3c 8b9b d2be 6ebd d53d 34de ad3e
000000b0: fba9 bc3e 03f5 a13d 1720 dc3e a67b 913d
000000c0: e5ca b83c ce2a 56be cc09 ad3d 8e9a d43e
000000d0: d5a4 a9be 3d18 eebe 2624 a5be 11ca 8f3d
000000e0: fa1b a8be d295 863e 19f8 613d 7e15 81be
000000f0: 41c6 bdbe b188 9dbe ac21 40be 67c4 a23d
-0.53682685 -0.3227744 -0.36409652 0.5731243 -0.3628344 -0.36263236 0.26275772 -0.341337
0.2061002 0.30510747 0.9365725 -0.5065881 -0.6613403 -0.4803923 0.8188949 -0.5982489
-0.17196536 -0.52674204 0.36344212 0.871932 -0.39751682 -0.36915958 -0.36061156 -0.27578875
-0.35887492 -0.574297 -0.36105824 -0.32307056 0.7822664 -0.37752825 -0.29191393 -0.5449243
-0.34539324 0.5132938 -0.03065722 -0.09271491 0.21912849 -0.255809 -0.33543846 -0.34979403
0.019182416 -0.41134295 0.104365215 0.3395859 0.36848435 0.079080604 0.42993233 0.07103662
0.022557685 -0.20914766 0.08449134 0.41524166 -0.3313357 -0.46502867 -0.32254142 0.07020963
-0.32833844 0.2628618 0.055168245 -0.2521171 -0.37065318 -0.3076835 -0.18762845 0.07947617

fc2.weight f4 [64, 64]
00000000: df48 a03e 1a2d 163f 6f2a 9b3d d681 0dbf
00000010: 6dcf 133d a0f4 683e ec5d 8c3c 1cb5 1b3f
00000020: bca6 fbbc c2e7 123f d5d6 31bd 180a f13e
00000030: edf9 df3e c665 163f a9da 8bbb caef 153f
00000040: d209 693d edac 8b3f ce42 eb3e 1d21 06be
00000050: 58e3 143f d243 6d3f 8e8b f13e ab4c 813f
00000060: 7731 ba3e 4c39 953e c479 843f ac55 063f
00000070: f36d e73d 0ebe ea3d 492a 1f3f 06a1 313f
00000080: 6913 643e efd1 a83e 2744 e4be a5f3 3cbf
00000090: 2eea 17bf fdfd 693f 309d 353d 156f bf3f
000000a0: dd87 4a3e e4f5 3f3f 71b2 7b3e 8f08 b1be
000000b0: 9e63 af3e 1724 fc3e b9c2 0f3f a00d 713d
000000c0: a311 f8be 9118 ac3e 8a0d 853e b672 7abe
000000d0: a0ad b83e 3644 043f e5b9 413f fe00 6cbf
000000e0: 3c50 8c3e d0cf 323f 686a b8be 9f4c 1a3f
000000f0: 7376 a53e 2b8d d33e e0b8 7b3e bb0d 493f
00000100: 9532 923e bf1f 9d3e 787c 213e a257 0abf
00000110: ddce 143f 271d c03e 1fc1 443e 7d13 583f
00000120: 257b 2a3e cf0d 01bf 2c9f 913e 57c5 793f
00000130: f99b 503f 2c81 0d3f 19ae 053c 16b7 dd3e
00000140: 340c 353e 5257 293f 4fd2 163e 2410 3dbd
00000150: 5db4 8b3f 2c96 843f 976f e03e 5339 003f
00000160: e004 e23e 1fc8 b93e 81fe 973f 6b23 133f
00000170: f144 f33e 6719 3a3e 7ee1 a9be 7c38 5d3f
00000180: cbb6 6e3e c0fd bd3e 5672 33be 47bb 4dbe
00000190: 8ac1 82bf 2e74 4a3f ca4f af3d 6e8c 80be
000001a0: 07a0 2e3e 9f1f 3d3f b359 3bbe 7ef8 4cbe
000001b0: e4b5 433f 198c 973e bd43 26be 4571 bc3d
000001c0: 2238 83be cab2 423f ad90 85be eb23 87bc
000001d0: c10a 163e 6bde 3a3f 0896 253e 68b0 44bf
000001e0: 60ec 983e 456e 6cbe d15d a4be 4d27 3c3f
000001f0: c75a dd3e 2392 9f3e 2439 893e 7750 0d3f
00000200: ea73 5fbd 92d2 e13c 58ec 75be ad66 39bf
00000210: 2182 bcbf 9391 9a3e 21cd c03e 7f5c a6bd
00000220: df2b 933e 3fc1 2c3e db70 ca3e f91f 7b3f
00000230: 1801 ccbc ef4b 803d cd93 e53e 98fa 88bc
00000240: 46ba afbe 7875 103f 1691 9b3d b939 f33d
00000250: d5a6 23bf f8ee a7bc f74f 853e da1f e93e
00000260: daab b4be 97b6 62be 95d7 8b3e 0217 a53e
00000270: bce3 803d c6bc 643d cd2d 093e 85dd 1d3f
00000280: 66d3 db3c 8a0f 093f c724 96be a9cb 18bf
00000290: fd80 9ebf 99ea 153f ccf7 ca3d 96e9 e73e
000002a0: be8a 903e 0f0b 40bf d509 d03e eab2 eaba
000002b0: 1ea2 9b3e 834d 523e 4126 123e a34d 7f3e
000002c0: d4d8 debc 36b1 17bf 0b41 8d3c 440c 9abe
000002d0: ddd1 e2bc b2a3 8abe 99b3 98bd 8eea 05bf
000002e0: 33af 093e 6056 8d3e 2ab8 8cbe 09f1 4d3e
000002f0: 9d55 90bf 5515 a93e 48bd 803e 0b99 4d3f
00000300: d871 283e b0e3 3b3d 5e62 5f3e 66c0 4dbf
00000310: 5eb5 f73e eadd b93e b1db 913e a0cd 4f3f
00000320: 13ef 1b3f 4ba0 d3bd 14cc 9f3e 9600 763f
00000330: 1841 893f d327 0d3f 0667 393e b008 bb3e
00000340: e852 4a3e 5efb b53e 59ae 843e 9f62 dbbd
00000350: 48e0 8f3f 931c 3a3f a274 283e 13a4 433f
00000360: 1c72 2a3f 02ef a93e 2243 553f 4b56 663f
00000370: 9bab 903d 8ee4 cf3d a8d8 37bc dd5c 333f
00000380: 3186 d63e 343a 83bd ea11 64be 04d6 a23d
00000390: 1ab3 3abf 4e8e 0f3f 0690 fe3d 1312 6c3e
000003a0: 7236 6f3e 5253 4b3f 5890 18be ffd4 4ebf
000003b0: 393e 393e f3da 993d 64fb bf3e be4d df3e
000003c0: 697a d6bf 8aec 403f 1972 cbbd d3a3 f03c
000003d0: 5a73 ef3e 1aea 8c3f e7eb 0a3f f7b9 80bf
000003e0: 00d4 853f f8d9 013f 3179 44be 08b4 4f3f
000003f0: efa1 cb3e 74f5 3e3e 2bfe 193f 8e4a 273f
0.31305596 0.5866257 0.07576453 -0.5527624 0.03608649 0.22749567 0.01713463 0.60823226
-0.030719154 0.57384884 -0.04341777 0.47078013 0.43745366 0.58749044 -0.0042680097 0.58569014
0.05689413 1.0912148 0.45949405 -0.13098569 0.581594 0.9268161 0.47176784 1.0101522
0.36365864 0.29145277 1.034966 0.52474475 0.11300268 0.11462031 0.621739 0.6938633
0.2227303 0.32972667 -0.44583246 -0.7380927 -0.59341705 0.9140318 0.04433936 1.4955775
0.1977839 0.74984574 0.24579789 -0.34576842 0.3425569 0.49246284 0.561565 0.058850884
-0.48450956 0.33612493 0.25986892 -0.24457821 0.36069965 0.5166658 0.7567428 -0.92189014
0.27404964 0.69848347 -0.36018682 0.60273165 0.32316932 0.4131864 0.24582243 0.78536576
0.28554216 0.30688283 0.15770137 -0.5403997 0.5812815 0.3752224 0.19214295 0.84404737
0.16648538 -0.50411695 0.2844175 0.9756674 0.81487995 0.55275226 0.008159184 0.43303746
0.17680436 0.66148865 0.14728664 -0.04615797 1.0914418 1.0358329 0.43835136 0.5008747
0.44144344 0.36285493 1.1874543 0.5747592 0.47513536 0.18173753 -0.3317985 0.86414313
0.23311917 0.37107658 -0.17524084 -0.20090972 -1.0215313 0.79083526 0.085601404 -0.2510714
0.17053233 0.73876375 -0.18295936 -0.20016667 0.7644942 0.29599074 -0.16236778 0.09201292
-0.25628763 0.7605406 -0.2608694 -0.01649662 0.1465254 0.7299563 0.16170514 -0.76831675
0.2986784 -0.2308894 -0.32102826 0.7349747 0.4323332 0.3116618 0.26801407 0.55200905
-0.054553904 0.027566228 -0.24015939 -0.72422296 -1.4727212 0.3018919 0.376565 -0.08123111
0.28744408 0.16870593 0.39539227 0.9809566 -0.024902865 0.06264483 0.44839326 -0.016721055
-0.34321803 0.56429243 0.07596032 0.11876244 -0.6392644 -0.020499691 0.2603757 0.45532113
-0.35287362 -0.22139965 0.27312914 0.32244116 0.06293437 0.05584409 0.13396378 0.61666137
0.026834201 0.53539336 -0.29324934 -0.5968576 -1.2383114 0.5856109 0.09910545 0.452954
0.28230852 -0.75016874 0.406325 -0.0017906104 0.30397123 0.20537381 0.14272405 0.2493196
-0.027203001 -0.5925478 0.017242929 -0.30087483 -0.027687961 -0.27078015 -0.074561305 -0.5231103
0.1344574 0.2760496 -0.27484256 0.20111479 -1.1276127 0.33024088 0.2514441 0.8031165
0.16449678 0.045871437 0.21814868 -0.803717 0.4838056 0.3630212 0.28487924 0.81173134
0.60911673 -0.10333308 0.31210387 0.96094644 1.072299 0.5513889 0.18105707 0.36530066
0.19758189 0.3554334 0.25914267 -0.1071217 1.124032 0.7269985 0.16450742 0.7642223
0.6658037 0.3319016 0.8330556 0.8997542 0.07063981 0.10151015 -0.0112210885 0.70063573
0.41899255 -0.06407586 -0.22272459 0.079509765 -0.7292954 0.56076515 0.12429814 0.2305377
0.23360613 0.7942401 -0.14898813 -0.80793756 0.18090142 0.075124644 0.37496483 0.43614
-1.6756107 0.7536093 -0.09933872 0.029374992 0.46767694 1.1008942 0.5426621 -1.0056752
1.0455322 0.5072322 -0.19186856 0.8113408 0.39771983 0.1864832 0.60153455 0.65348136

fc2.bias f4 [64]
00000000: 954c b6bd 82a5 abbd 4127 2d3e 95f7 1e3e
00000010: 9eba 1c3e a7a2 343d c932 c83e fd93 ca3c
00000020: aac1 1c3f ff59 ecbd 4657 c3bd c939 f5bd
00000030: 8c9f 7e3d 49de 71bd e5bc 903e ec3f a13f
00000040: 1f2f 0b3f ada7 3abd 4530 883d fa4f bbbc
00000050: 4ecb 2b3c 5ccf e53e 697c 5cbd 4e27 e2bd
00000060: 4099 d9bd a51c 04be c5ba d5bd 235c 73be
00000070: b67d b9bc 97c2 c6bd 6ee6 6d3f afe0 163f
00000080: 8b6d d73c e139 cebc 9cbc 2bbe 274f ecbd
00000090: 3173 2b3e 684e 2bbd 9116 59bc bccd 3e3e
000000a0: 7737 00bd 4256 73be 184a cf3d 010c 003f
000000b0: 07e1 66be f2b8 6f3d c811 b43e 0b90 97bc
000000c0: 742c 88bd a5fb 52be 30e7 29bc c62a 1fbe
000000d0: 5308 853d 607e 1fbd b01d 8b3d 5e29 9e3d
000000e0: 2926 c93d 25b8 543e 1029 2cbe 7fbc 263d
000000f0: 9e0a 1bbe 87c4 02be aea6 7e3f 0900 bcbd
-0.089013256 -0.083811775 0.16909505 0.15524133 0.15305564 0.04410043 0.39101246 0.02472877
0.6123301 -0.11540603 -0.095381305 -0.11973912 0.062163875 -0.05904988 0.28269115 1.2597632
0.54368776 -0.045570064 0.06649832 -0.022865284 0.010485483 0.44884765 -0.053829584 -0.11042653
-0.10624933 -0.12901552 -0.10436014 -0.23765616 -0.022642951 -0.09705084 0.9292973 0.5893659
0.026297351 -0.025174083 -0.16771168 -0.115385346 0.16743161 -0.04182282 -0.013250009 0.18633169
-0.031302895 -0.23763373 0.10121554 0.50018317 -0.22546779 0.058525987 0.35169816 -0.018501302
-0.06649104 -0.20603807 -0.010370061 -0.1554366 0.06495728 -0.03893888 0.06792772 0.07722734
0.098217316 0.2077337 -0.16812539 0.040707108 -0.15140769 -0.12770282 0.99473083 -0.09179694

fc3.weight f4 [4, 64]
00000000: 6e2d 1fbf c809 b6be 5e3d 9dbd d01e 35bf
00000010: 4220 adbe 2809 51bf 2e06 0bbf aa50 c9be
00000020: f5cb 423f 8306 d53c 2b51 16bf 1636 93bd
00000030: 654c 83bd f549 eabe 99f7 e73f 7da8 e53f
00000040: 24cf a1be 31f0 35bf 4437 3e40 eeb7 0cbf
00000050: ec3c d8be bb5f 943f 3b6e ffbe e02d 3bbc
00000060: f37e 2dbf ba44 ce3d b22d 8b3d 0e6f 0fbf
00000070: 3ffa 34bf 65a3 58bf 6ea2 cf3f 12f5 9e3f
00000080: abbd 57bf fb0b 19bf 5179 07bf 6840 dcbd
00000090: 8e16 21bf 0c39 07bf b3d3 993d 4be4 87bf
000000a0: 3ed7 1bbf 1983 c2be b363 e6be 8ecd c93e
000000b0: bf9f 78bf 22f9 063c f4ed af3f ed6e 05bf
000000c0: 0ef1 41bf 1680 fcbe 9425 25bf 5f8c 17bf
000000d0: f6ec eebe 7f7c f8be 5268 3ebf 6528 d3bf
000000e0: 6909 80bf 2425 6dbf b57d eabe f0d1 16bf
000000f0: d254 32bf 8ee5 0fbf e62b 1140 3493 11bf
00000100: ddea cfbe 0dd4 7ebf 33a8 033f b7fc 36bf
00000110: 51d9 fabe 2f5e 34bf e4f4 48bf 9843 31bf
00000120: 08fd 2a3f f32a 72bd 436c 3bbf fc9b 35bd
00000130: 2d5f 163f d139 d7be eedc e03f e612 0540
00000140: c810 15bf 8888 04bf 6d0f 1940 672c 33bf
00000150: 4fc0 ffbe e245 503f 49f6 0bbf 937c 4cbd
00000160: 6fcf 2cbf 687c 8f3d fbb2 383d c44b 0bbf
00000170: 46fd 3abf a99f 21bf 2d31 a93f 8bd4 943f
00000180: 9f23 41bf de75 44bf 4ba8 23bf cc87 ff3d
00000190: f969 80bf 5b06 49bf 3ed6 cd3e 0832 86be
000001a0: 1147 3cbf 0ded 35bf 08b6 94bf be7a 943f
000001b0: ba49 2abf 4e4d 093d ac2c 313f 089e 6ebf
000001c0: ab70 24bf 4b7e 53bf 481b 04bf 17a4 d3be
000001d0: dae8 aabe 9ba9 08bf 7829 0dbf e849 94be
000001e0: 5008 37bf 878e adbf 73cc 23bf 4343 33bf
000001f0: 18d7 36bf 9383 28be d16e 1540 5f67 20bf
00000200: 9418 36bf b29c 2dbf f967 81bf 55bc c7be
00000210: a098 003e 7626 0cbf 3e1c 3c3f 0742 21bf
00000220: fc1d a73f 982b 863d faa1 09bf 117a f13c
00000230: ea06 9a3e 832e 6dbf 2c6b 8f3e 42b5 e53f
00000240: 16f9 edbf d929 3cbf 7c3b 0440 052c 2abf
00000250: 9c95 94bd c221 893f e10a 2ebf a8e9 7e3c
00000260: 4df4 18bf 2a8c de3d d0c1 a3bd 1690 4ebf
00000270: 79b7 35bf 1665 18bf b779 c03f 2e5b a03f
00000280: e7ea 46bf c7bb 20bf 7d0e f1be df2b 2abd
00000290: 3729 b7be 44aa 22bf 3513 8fbd e1b0 41bf
000002a0: 54d1 24bf 5853 36bf a871 35bf 5cb8 263f
000002b0: 636a c3bf c0fa 4dbb 16ee f43f 69a8 35bf
000002c0: 39a9 22bf 27ac 07bf 01d3 57bf ed3e 35bf
000002d0: 28ad 85bf 41b9 2abf 6eb5 33bf ef67 063f
000002e0: 7062 c6bd 3e7e 40bf 953f 14bf d1a4 99be
000002f0: 2e1d 16bf 1287 02bf b4c0 0440 05f0 efbe
00000300: 68bb 05bf 271a 8fbe c431 8bbf 61e7 4cbf
00000310: f972 fdbe e6a6 2cbf 61d9 553f 2836 24bf
00000320: 9498 603f 34bb 8cbd c279 1abf 7cf8 533c
00000330: 0899 41bf ab54 3cbf d0c7 e03f e64f 1640
00000340: ba0a 21be 09b9 8abe d838 3840 70ce 29bf
00000350: e08c 20bf 2259 143f 2e77 17bf ebff 693c
00000360: 5eb9 25bf a981 a23d 8a15 33bd 4000 09bf
00000370: 369d 2bbf e8e1 37bf f221 1340 a1c9 2d3f
00000380: 6c5f 83bf eab3 bfbe d83e 1ebf a461 9bbd
00000390: 27cf 1fbf a529 09bf 2155 71bf 4bcf b6bf
000003a0: 34a4 09bf d8f4 cdbe da04 ebbe f7a6 f43a
000003b0: 787c dabd 81c7 d9bd 1fc8 df3f 97e1 1bbf
000003c0: 7751 21bf 2ee2 c1be 5f49 4fbf 2c61 10bf
000003d0: d5f0 89be a246 a5be e31c 86bf bd9d b4bf
000003e0: 5961 b9be ab32 62bf bb0d 19bf dd70 29bf
000003f0: 99af 25bf cdd5 75bf fee9 0140 b510 d5be
-0.62178695 -0.35554338 -0.076777205 -0.7075014 -0.33813673 -0.81654596 -0.54306304 -0.39319354
0.76092464 0.026004082 -0.587176 -0.071880504 -0.064110555 -0.4575955 1.8122436 1.7942044
-0.31603348 -0.7106963 2.9721231 -0.54968154 -0.4223398 1.1591715 -0.49888787 -0.011424512
-0.67771834 0.10071702 0.06795825 -0.5602883 -0.70694345 -0.8462432 1.6221445 1.241854
-0.84273785 -0.59783906 -0.5291949 -0.10754472 -0.6292504 -0.5282142 0.075110815 -1.0616544
-0.6087531 -0.37990645 -0.4499794 0.39414638 -0.97118753 0.008238109 1.3744493 -0.52122384
-0.75758445 -0.49316472 -0.64510465 -0.59198564 -0.46665162 -0.48532483 -0.7437793 -1.6496702
-1.0002872 -0.926348 -0.45799032 -0.5891409 -0.69660676 -0.5620965 2.2683043 -0.5686524
-0.40608874 -0.99542314 0.51428527 -0.7147936 -0.48993924 -0.7045621 -0.78498673 -0.69243765
0.66792345 -0.05912299 -0.7321207 -0.04433821 0.58738977 -0.42036298 1.7567422 2.0792785
-0.5822873 -0.5177083 2.3915665 -0.6998963 -0.49951407 0.8135663 -0.54672676 -0.04992349
-0.6750402 0.070061505 0.045092564 -0.54412484 -0.73042715 -0.6313425 1.3218132 1.1627363
-0.7544498 -0.7674235 -0.6392867 0.12477073 -1.003234 -0.7852532 0.40202516 -0.26210046
-0.7354594 -0.71064836 -1.1618052 1.1599958 -0.6651875 0.03352099 0.6920879 -0.93209887
-0.6423442 -0.8261458 -0.5160413 -0.41336128 -0.33380777 -0.533838 -0.551414 -0.28962636
-0.7149706 -1.3559121 -0.6398384 -0.7002451 -0.71421957 -0.16456442 2.3348887 -0.6265773
-0.71131253 -0.67817223 -1.0109855 -0.39010873 0.12558222 -0.54746187 0.73480594 -0.62991375
1.3056026 0.065512836 -0.5376278 0.029477151 0.300834 -0.92649096 0.28011453 1.794594
-1.859164 -0.73501354 2.0661306 -0.6647342 -0.07255098 1.0713427 -0.6798535 0.015558638
-0.59747773 0.10866578 -0.07995951 -0.8068861 -0.7098308 -0.59529245 1.5037144 1.2527826
-0.7770218 -0.62786525 -0.47081366 -0.041545745 -0.35773632 -0.63541055 -0.06986085 -0.7566052
-0.6438191 -0.7122092 -0.7087655 0.6512506 -1.5266842 -0.0031429976 1.9135158 -0.709601
-0.63539463 -0.5299706 -0.8430634 -0.7079914 -1.0443468 -0.66688925 -0.70198715 0.5250234
-0.09686744 -0.7519263 -0.5790952 -0.30008557 -0.58638275 -0.5098735 2.0742617 -0.46862808
-0.52239084 -0.2794964 -1.0874562 -0.80040556 -0.4950178 -0.67442167 0.8353482 -0.64145136
0.87732816 -0.06871644 -0.6034204 0.012937661 -0.7562413 -0.73566693 1.7560978 2.3486266
-0.15726748 -0.27094296 2.8784695 -0.66330624 -0.6271496 0.57948506 -0.5916623 0.014282207
-0.6473597 0.07934887 -0.043721713 -0.53516006 -0.6703676 -0.7182908 2.2989469 0.67885786
-1.0263495 -0.3744195 -0.6181464 -0.07586983 -0.62425464 -0.5357917 -0.9427052 -1.4282011
-0.5376618 -0.40225863 -0.4590214 0.0018665482 -0.10668272 -0.106337555 1.7482947 -0.608911
-0.6301493 -0.37867874 -0.8097133 -0.5639827 -0.26941553 -0.3228045 -1.0477566 -1.4110638
-0.36207083 -0.88358563 -0.59786576 -0.6618784 -0.64721066 -0.9602936 2.0299067 -0.4161431

fc3.bias f4 [4]
00000000: 0ac4 523e 7c7d f2ba e8bf 073f 437b 60bc
0.20582595 -0.0018500532 0.530272 -0.013701263
